{"format": "layers-model", "generatedBy": "keras v2.4.0", "convertedBy": "TensorFlow.js Converter v2.0.1.post1", "modelTopology": {"keras_version": "2.4.0", "backend": "tensorflow", "model_config": {"class_name": "Functional", "config": {"name": "generator", "layers": [{"class_name": "InputLayer", "config": {"batch_input_shape": [null, null, null, 3], "dtype": "float32", "sparse": false, "ragged": false, "name": "LR"}, "name": "LR", "inbound_nodes": []}, {"class_name": "Conv2D", "config": {"name": "F_m1", "trainable": true, "dtype": "float32", "filters": 64, "kernel_size": [3, 3], "strides": [1, 1], "padding": "same", "data_format": "channels_last", "dilation_rate": [1, 1], "groups": 1, "activation": "linear", "use_bias": true, "kernel_initializer": {"class_name": "RandomUniform", "config": {"minval": -0.05, "maxval": 0.05, "seed": null}}, "bias_initializer": {"class_name": "Zeros", "config": {}}, "kernel_regularizer": null, "bias_regularizer": null, "activity_regularizer": null, "kernel_constraint": null, "bias_constraint": null}, "name": "F_m1", "inbound_nodes": [[["LR", 0, 0, {}]]]}, {"class_name": "Conv2D", "config": {"name": "F_0", "trainable": true, "dtype": "float32", "filters": 64, "kernel_size": [3, 3], "strides": [1, 1], "padding": "same", "data_format": "channels_last", "dilation_rate": [1, 1], "groups": 1, "activation": "linear", "use_bias": true, "kernel_initializer": {"class_name": "RandomUniform", "config": {"minval": -0.05, "maxval": 0.05, "seed": null}}, "bias_initializer": {"class_name": "Zeros", "config": {}}, "kernel_regularizer": null, "bias_regularizer": null, "activity_regularizer": null, "kernel_constraint": null, "bias_constraint": null}, "name": "F_0", "inbound_nodes": [[["F_m1", 0, 0, {}]]]}, {"class_name": "Conv2D", "config": {"name": "F_1_1", "trainable": true, "dtype": "float32", "filters": 64, "kernel_size": [3, 3], "strides": [1, 1], "padding": "same", "data_format": "channels_last", "dilation_rate": [1, 1], "groups": 1, "activation": "linear", "use_bias": true, "kernel_initializer": {"class_name": "RandomUniform", "config": {"minval": -0.05, "maxval": 0.05, "seed": null}}, "bias_initializer": {"class_name": "Zeros", "config": {}}, "kernel_regularizer": null, "bias_regularizer": null, "activity_regularizer": null, "kernel_constraint": null, "bias_constraint": null}, "name": "F_1_1", "inbound_nodes": [[["F_0", 0, 0, {}]]]}, {"class_name": "Activation", "config": {"name": "F_1_1_Relu", "trainable": true, "dtype": "float32", "activation": "relu"}, "name": "F_1_1_Relu", "inbound_nodes": [[["F_1_1", 0, 0, {}]]]}, {"class_name": "Concatenate", "config": {"name": "RDB_Concat_1_1", "trainable": true, "dtype": "float32", "axis": 3}, "name": "RDB_Concat_1_1", "inbound_nodes": [[["F_0", 0, 0, {}], ["F_1_1_Relu", 0, 0, {}]]]}, {"class_name": "Conv2D", "config": {"name": "F_1_2", "trainable": true, "dtype": "float32", "filters": 64, "kernel_size": [3, 3], "strides": [1, 1], "padding": "same", "data_format": "channels_last", "dilation_rate": [1, 1], "groups": 1, "activation": "linear", "use_bias": true, "kernel_initializer": {"class_name": "RandomUniform", "config": {"minval": -0.05, "maxval": 0.05, "seed": null}}, "bias_initializer": {"class_name": "Zeros", "config": {}}, "kernel_regularizer": null, "bias_regularizer": null, "activity_regularizer": null, "kernel_constraint": null, "bias_constraint": null}, "name": "F_1_2", "inbound_nodes": [[["RDB_Concat_1_1", 0, 0, {}]]]}, {"class_name": "Activation", "config": {"name": "F_1_2_Relu", "trainable": true, "dtype": "float32", "activation": "relu"}, "name": "F_1_2_Relu", "inbound_nodes": [[["F_1_2", 0, 0, {}]]]}, {"class_name": "Concatenate", "config": {"name": "RDB_Concat_1_2", "trainable": true, "dtype": "float32", "axis": 3}, "name": "RDB_Concat_1_2", "inbound_nodes": [[["RDB_Concat_1_1", 0, 0, {}], ["F_1_2_Relu", 0, 0, {}]]]}, {"class_name": "Conv2D", "config": {"name": "F_1_3", "trainable": true, "dtype": "float32", "filters": 64, "kernel_size": [3, 3], "strides": [1, 1], "padding": "same", "data_format": "channels_last", "dilation_rate": [1, 1], "groups": 1, "activation": "linear", "use_bias": true, "kernel_initializer": {"class_name": "RandomUniform", "config": {"minval": -0.05, "maxval": 0.05, "seed": null}}, "bias_initializer": {"class_name": "Zeros", "config": {}}, "kernel_regularizer": null, "bias_regularizer": null, "activity_regularizer": null, "kernel_constraint": null, "bias_constraint": null}, "name": "F_1_3", "inbound_nodes": [[["RDB_Concat_1_2", 0, 0, {}]]]}, {"class_name": "Activation", "config": {"name": "F_1_3_Relu", "trainable": true, "dtype": "float32", "activation": "relu"}, "name": "F_1_3_Relu", "inbound_nodes": [[["F_1_3", 0, 0, {}]]]}, {"class_name": "Concatenate", "config": {"name": "RDB_Concat_1_3", "trainable": true, "dtype": "float32", "axis": 3}, "name": "RDB_Concat_1_3", "inbound_nodes": [[["RDB_Concat_1_2", 0, 0, {}], ["F_1_3_Relu", 0, 0, {}]]]}, {"class_name": "Conv2D", "config": {"name": "LFF_1", "trainable": true, "dtype": "float32", "filters": 64, "kernel_size": [1, 1], "strides": [1, 1], "padding": "valid", "data_format": "channels_last", "dilation_rate": [1, 1], "groups": 1, "activation": "linear", "use_bias": true, "kernel_initializer": {"class_name": "RandomUniform", "config": {"minval": -0.05, "maxval": 0.05, "seed": null}}, "bias_initializer": {"class_name": "Zeros", "config": {}}, "kernel_regularizer": null, "bias_regularizer": null, "activity_regularizer": null, "kernel_constraint": null, "bias_constraint": null}, "name": "LFF_1", "inbound_nodes": [[["RDB_Concat_1_3", 0, 0, {}]]]}, {"class_name": "Add", "config": {"name": "LRL_1", "trainable": true, "dtype": "float32"}, "name": "LRL_1", "inbound_nodes": [[["LFF_1", 0, 0, {}], ["F_0", 0, 0, {}]]]}, {"class_name": "Conv2D", "config": {"name": "F_2_1", "trainable": true, "dtype": "float32", "filters": 64, "kernel_size": [3, 3], "strides": [1, 1], "padding": "same", "data_format": "channels_last", "dilation_rate": [1, 1], "groups": 1, "activation": "linear", "use_bias": true, "kernel_initializer": {"class_name": "RandomUniform", "config": {"minval": -0.05, "maxval": 0.05, "seed": null}}, "bias_initializer": {"class_name": "Zeros", "config": {}}, "kernel_regularizer": null, "bias_regularizer": null, "activity_regularizer": null, "kernel_constraint": null, "bias_constraint": null}, "name": "F_2_1", "inbound_nodes": [[["LRL_1", 0, 0, {}]]]}, {"class_name": "Activation", "config": {"name": "F_2_1_Relu", "trainable": true, "dtype": "float32", "activation": "relu"}, "name": "F_2_1_Relu", "inbound_nodes": [[["F_2_1", 0, 0, {}]]]}, {"class_name": "Concatenate", "config": {"name": "RDB_Concat_2_1", "trainable": true, "dtype": "float32", "axis": 3}, "name": "RDB_Concat_2_1", "inbound_nodes": [[["LRL_1", 0, 0, {}], ["F_2_1_Relu", 0, 0, {}]]]}, {"class_name": "Conv2D", "config": {"name": "F_2_2", "trainable": true, "dtype": "float32", "filters": 64, "kernel_size": [3, 3], "strides": [1, 1], "padding": "same", "data_format": "channels_last", "dilation_rate": [1, 1], "groups": 1, "activation": "linear", "use_bias": true, "kernel_initializer": {"class_name": "RandomUniform", "config": {"minval": -0.05, "maxval": 0.05, "seed": null}}, "bias_initializer": {"class_name": "Zeros", "config": {}}, "kernel_regularizer": null, "bias_regularizer": null, "activity_regularizer": null, "kernel_constraint": null, "bias_constraint": null}, "name": "F_2_2", "inbound_nodes": [[["RDB_Concat_2_1", 0, 0, {}]]]}, {"class_name": "Activation", "config": {"name": "F_2_2_Relu", "trainable": true, "dtype": "float32", "activation": "relu"}, "name": "F_2_2_Relu", "inbound_nodes": [[["F_2_2", 0, 0, {}]]]}, {"class_name": "Concatenate", "config": {"name": "RDB_Concat_2_2", "trainable": true, "dtype": "float32", "axis": 3}, "name": "RDB_Concat_2_2", "inbound_nodes": [[["RDB_Concat_2_1", 0, 0, {}], ["F_2_2_Relu", 0, 0, {}]]]}, {"class_name": "Conv2D", "config": {"name": "F_2_3", "trainable": true, "dtype": "float32", "filters": 64, "kernel_size": [3, 3], "strides": [1, 1], "padding": "same", "data_format": "channels_last", "dilation_rate": [1, 1], "groups": 1, "activation": "linear", "use_bias": true, "kernel_initializer": {"class_name": "RandomUniform", "config": {"minval": -0.05, "maxval": 0.05, "seed": null}}, "bias_initializer": {"class_name": "Zeros", "config": {}}, "kernel_regularizer": null, "bias_regularizer": null, "activity_regularizer": null, "kernel_constraint": null, "bias_constraint": null}, "name": "F_2_3", "inbound_nodes": [[["RDB_Concat_2_2", 0, 0, {}]]]}, {"class_name": "Activation", "config": {"name": "F_2_3_Relu", "trainable": true, "dtype": "float32", "activation": "relu"}, "name": "F_2_3_Relu", "inbound_nodes": [[["F_2_3", 0, 0, {}]]]}, {"class_name": "Concatenate", "config": {"name": "RDB_Concat_2_3", "trainable": true, "dtype": "float32", "axis": 3}, "name": "RDB_Concat_2_3", "inbound_nodes": [[["RDB_Concat_2_2", 0, 0, {}], ["F_2_3_Relu", 0, 0, {}]]]}, {"class_name": "Conv2D", "config": {"name": "LFF_2", "trainable": true, "dtype": "float32", "filters": 64, "kernel_size": [1, 1], "strides": [1, 1], "padding": "valid", "data_format": "channels_last", "dilation_rate": [1, 1], "groups": 1, "activation": "linear", "use_bias": true, "kernel_initializer": {"class_name": "RandomUniform", "config": {"minval": -0.05, "maxval": 0.05, "seed": null}}, "bias_initializer": {"class_name": "Zeros", "config": {}}, "kernel_regularizer": null, "bias_regularizer": null, "activity_regularizer": null, "kernel_constraint": null, "bias_constraint": null}, "name": "LFF_2", "inbound_nodes": [[["RDB_Concat_2_3", 0, 0, {}]]]}, {"class_name": "Add", "config": {"name": "LRL_2", "trainable": true, "dtype": "float32"}, "name": "LRL_2", "inbound_nodes": [[["LFF_2", 0, 0, {}], ["LRL_1", 0, 0, {}]]]}, {"class_name": "Conv2D", "config": {"name": "F_3_1", "trainable": true, "dtype": "float32", "filters": 64, "kernel_size": [3, 3], "strides": [1, 1], "padding": "same", "data_format": "channels_last", "dilation_rate": [1, 1], "groups": 1, "activation": "linear", "use_bias": true, "kernel_initializer": {"class_name": "RandomUniform", "config": {"minval": -0.05, "maxval": 0.05, "seed": null}}, "bias_initializer": {"class_name": "Zeros", "config": {}}, "kernel_regularizer": null, "bias_regularizer": null, "activity_regularizer": null, "kernel_constraint": null, "bias_constraint": null}, "name": "F_3_1", "inbound_nodes": [[["LRL_2", 0, 0, {}]]]}, {"class_name": "Activation", "config": {"name": "F_3_1_Relu", "trainable": true, "dtype": "float32", "activation": "relu"}, "name": "F_3_1_Relu", "inbound_nodes": [[["F_3_1", 0, 0, {}]]]}, {"class_name": "Concatenate", "config": {"name": "RDB_Concat_3_1", "trainable": true, "dtype": "float32", "axis": 3}, "name": "RDB_Concat_3_1", "inbound_nodes": [[["LRL_2", 0, 0, {}], ["F_3_1_Relu", 0, 0, {}]]]}, {"class_name": "Conv2D", "config": {"name": "F_3_2", "trainable": true, "dtype": "float32", "filters": 64, "kernel_size": [3, 3], "strides": [1, 1], "padding": "same", "data_format": "channels_last", "dilation_rate": [1, 1], "groups": 1, "activation": "linear", "use_bias": true, "kernel_initializer": {"class_name": "RandomUniform", "config": {"minval": -0.05, "maxval": 0.05, "seed": null}}, "bias_initializer": {"class_name": "Zeros", "config": {}}, "kernel_regularizer": null, "bias_regularizer": null, "activity_regularizer": null, "kernel_constraint": null, "bias_constraint": null}, "name": "F_3_2", "inbound_nodes": [[["RDB_Concat_3_1", 0, 0, {}]]]}, {"class_name": "Activation", "config": {"name": "F_3_2_Relu", "trainable": true, "dtype": "float32", "activation": "relu"}, "name": "F_3_2_Relu", "inbound_nodes": [[["F_3_2", 0, 0, {}]]]}, {"class_name": "Concatenate", "config": {"name": "RDB_Concat_3_2", "trainable": true, "dtype": "float32", "axis": 3}, "name": "RDB_Concat_3_2", "inbound_nodes": [[["RDB_Concat_3_1", 0, 0, {}], ["F_3_2_Relu", 0, 0, {}]]]}, {"class_name": "Conv2D", "config": {"name": "F_3_3", "trainable": true, "dtype": "float32", "filters": 64, "kernel_size": [3, 3], "strides": [1, 1], "padding": "same", "data_format": "channels_last", "dilation_rate": [1, 1], "groups": 1, "activation": "linear", "use_bias": true, "kernel_initializer": {"class_name": "RandomUniform", "config": {"minval": -0.05, "maxval": 0.05, "seed": null}}, "bias_initializer": {"class_name": "Zeros", "config": {}}, "kernel_regularizer": null, "bias_regularizer": null, "activity_regularizer": null, "kernel_constraint": null, "bias_constraint": null}, "name": "F_3_3", "inbound_nodes": [[["RDB_Concat_3_2", 0, 0, {}]]]}, {"class_name": "Activation", "config": {"name": "F_3_3_Relu", "trainable": true, "dtype": "float32", "activation": "relu"}, "name": "F_3_3_Relu", "inbound_nodes": [[["F_3_3", 0, 0, {}]]]}, {"class_name": "Concatenate", "config": {"name": "RDB_Concat_3_3", "trainable": true, "dtype": "float32", "axis": 3}, "name": "RDB_Concat_3_3", "inbound_nodes": [[["RDB_Concat_3_2", 0, 0, {}], ["F_3_3_Relu", 0, 0, {}]]]}, {"class_name": "Conv2D", "config": {"name": "LFF_3", "trainable": true, "dtype": "float32", "filters": 64, "kernel_size": [1, 1], "strides": [1, 1], "padding": "valid", "data_format": "channels_last", "dilation_rate": [1, 1], "groups": 1, "activation": "linear", "use_bias": true, "kernel_initializer": {"class_name": "RandomUniform", "config": {"minval": -0.05, "maxval": 0.05, "seed": null}}, "bias_initializer": {"class_name": "Zeros", "config": {}}, "kernel_regularizer": null, "bias_regularizer": null, "activity_regularizer": null, "kernel_constraint": null, "bias_constraint": null}, "name": "LFF_3", "inbound_nodes": [[["RDB_Concat_3_3", 0, 0, {}]]]}, {"class_name": "Add", "config": {"name": "LRL_3", "trainable": true, "dtype": "float32"}, "name": "LRL_3", "inbound_nodes": [[["LFF_3", 0, 0, {}], ["LRL_2", 0, 0, {}]]]}, {"class_name": "Conv2D", "config": {"name": "F_4_1", "trainable": true, "dtype": "float32", "filters": 64, "kernel_size": [3, 3], "strides": [1, 1], "padding": "same", "data_format": "channels_last", "dilation_rate": [1, 1], "groups": 1, "activation": "linear", "use_bias": true, "kernel_initializer": {"class_name": "RandomUniform", "config": {"minval": -0.05, "maxval": 0.05, "seed": null}}, "bias_initializer": {"class_name": "Zeros", "config": {}}, "kernel_regularizer": null, "bias_regularizer": null, "activity_regularizer": null, "kernel_constraint": null, "bias_constraint": null}, "name": "F_4_1", "inbound_nodes": [[["LRL_3", 0, 0, {}]]]}, {"class_name": "Activation", "config": {"name": "F_4_1_Relu", "trainable": true, "dtype": "float32", "activation": "relu"}, "name": "F_4_1_Relu", "inbound_nodes": [[["F_4_1", 0, 0, {}]]]}, {"class_name": "Concatenate", "config": {"name": "RDB_Concat_4_1", "trainable": true, "dtype": "float32", "axis": 3}, "name": "RDB_Concat_4_1", "inbound_nodes": [[["LRL_3", 0, 0, {}], ["F_4_1_Relu", 0, 0, {}]]]}, {"class_name": "Conv2D", "config": {"name": "F_4_2", "trainable": true, "dtype": "float32", "filters": 64, "kernel_size": [3, 3], "strides": [1, 1], "padding": "same", "data_format": "channels_last", "dilation_rate": [1, 1], "groups": 1, "activation": "linear", "use_bias": true, "kernel_initializer": {"class_name": "RandomUniform", "config": {"minval": -0.05, "maxval": 0.05, "seed": null}}, "bias_initializer": {"class_name": "Zeros", "config": {}}, "kernel_regularizer": null, "bias_regularizer": null, "activity_regularizer": null, "kernel_constraint": null, "bias_constraint": null}, "name": "F_4_2", "inbound_nodes": [[["RDB_Concat_4_1", 0, 0, {}]]]}, {"class_name": "Activation", "config": {"name": "F_4_2_Relu", "trainable": true, "dtype": "float32", "activation": "relu"}, "name": "F_4_2_Relu", "inbound_nodes": [[["F_4_2", 0, 0, {}]]]}, {"class_name": "Concatenate", "config": {"name": "RDB_Concat_4_2", "trainable": true, "dtype": "float32", "axis": 3}, "name": "RDB_Concat_4_2", "inbound_nodes": [[["RDB_Concat_4_1", 0, 0, {}], ["F_4_2_Relu", 0, 0, {}]]]}, {"class_name": "Conv2D", "config": {"name": "F_4_3", "trainable": true, "dtype": "float32", "filters": 64, "kernel_size": [3, 3], "strides": [1, 1], "padding": "same", "data_format": "channels_last", "dilation_rate": [1, 1], "groups": 1, "activation": "linear", "use_bias": true, "kernel_initializer": {"class_name": "RandomUniform", "config": {"minval": -0.05, "maxval": 0.05, "seed": null}}, "bias_initializer": {"class_name": "Zeros", "config": {}}, "kernel_regularizer": null, "bias_regularizer": null, "activity_regularizer": null, "kernel_constraint": null, "bias_constraint": null}, "name": "F_4_3", "inbound_nodes": [[["RDB_Concat_4_2", 0, 0, {}]]]}, {"class_name": "Activation", "config": {"name": "F_4_3_Relu", "trainable": true, "dtype": "float32", "activation": "relu"}, "name": "F_4_3_Relu", "inbound_nodes": [[["F_4_3", 0, 0, {}]]]}, {"class_name": "Concatenate", "config": {"name": "RDB_Concat_4_3", "trainable": true, "dtype": "float32", "axis": 3}, "name": "RDB_Concat_4_3", "inbound_nodes": [[["RDB_Concat_4_2", 0, 0, {}], ["F_4_3_Relu", 0, 0, {}]]]}, {"class_name": "Conv2D", "config": {"name": "LFF_4", "trainable": true, "dtype": "float32", "filters": 64, "kernel_size": [1, 1], "strides": [1, 1], "padding": "valid", "data_format": "channels_last", "dilation_rate": [1, 1], "groups": 1, "activation": "linear", "use_bias": true, "kernel_initializer": {"class_name": "RandomUniform", "config": {"minval": -0.05, "maxval": 0.05, "seed": null}}, "bias_initializer": {"class_name": "Zeros", "config": {}}, "kernel_regularizer": null, "bias_regularizer": null, "activity_regularizer": null, "kernel_constraint": null, "bias_constraint": null}, "name": "LFF_4", "inbound_nodes": [[["RDB_Concat_4_3", 0, 0, {}]]]}, {"class_name": "Add", "config": {"name": "LRL_4", "trainable": true, "dtype": "float32"}, "name": "LRL_4", "inbound_nodes": [[["LFF_4", 0, 0, {}], ["LRL_3", 0, 0, {}]]]}, {"class_name": "Conv2D", "config": {"name": "F_5_1", "trainable": true, "dtype": "float32", "filters": 64, "kernel_size": [3, 3], "strides": [1, 1], "padding": "same", "data_format": "channels_last", "dilation_rate": [1, 1], "groups": 1, "activation": "linear", "use_bias": true, "kernel_initializer": {"class_name": "RandomUniform", "config": {"minval": -0.05, "maxval": 0.05, "seed": null}}, "bias_initializer": {"class_name": "Zeros", "config": {}}, "kernel_regularizer": null, "bias_regularizer": null, "activity_regularizer": null, "kernel_constraint": null, "bias_constraint": null}, "name": "F_5_1", "inbound_nodes": [[["LRL_4", 0, 0, {}]]]}, {"class_name": "Activation", "config": {"name": "F_5_1_Relu", "trainable": true, "dtype": "float32", "activation": "relu"}, "name": "F_5_1_Relu", "inbound_nodes": [[["F_5_1", 0, 0, {}]]]}, {"class_name": "Concatenate", "config": {"name": "RDB_Concat_5_1", "trainable": true, "dtype": "float32", "axis": 3}, "name": "RDB_Concat_5_1", "inbound_nodes": [[["LRL_4", 0, 0, {}], ["F_5_1_Relu", 0, 0, {}]]]}, {"class_name": "Conv2D", "config": {"name": "F_5_2", "trainable": true, "dtype": "float32", "filters": 64, "kernel_size": [3, 3], "strides": [1, 1], "padding": "same", "data_format": "channels_last", "dilation_rate": [1, 1], "groups": 1, "activation": "linear", "use_bias": true, "kernel_initializer": {"class_name": "RandomUniform", "config": {"minval": -0.05, "maxval": 0.05, "seed": null}}, "bias_initializer": {"class_name": "Zeros", "config": {}}, "kernel_regularizer": null, "bias_regularizer": null, "activity_regularizer": null, "kernel_constraint": null, "bias_constraint": null}, "name": "F_5_2", "inbound_nodes": [[["RDB_Concat_5_1", 0, 0, {}]]]}, {"class_name": "Activation", "config": {"name": "F_5_2_Relu", "trainable": true, "dtype": "float32", "activation": "relu"}, "name": "F_5_2_Relu", "inbound_nodes": [[["F_5_2", 0, 0, {}]]]}, {"class_name": "Concatenate", "config": {"name": "RDB_Concat_5_2", "trainable": true, "dtype": "float32", "axis": 3}, "name": "RDB_Concat_5_2", "inbound_nodes": [[["RDB_Concat_5_1", 0, 0, {}], ["F_5_2_Relu", 0, 0, {}]]]}, {"class_name": "Conv2D", "config": {"name": "F_5_3", "trainable": true, "dtype": "float32", "filters": 64, "kernel_size": [3, 3], "strides": [1, 1], "padding": "same", "data_format": "channels_last", "dilation_rate": [1, 1], "groups": 1, "activation": "linear", "use_bias": true, "kernel_initializer": {"class_name": "RandomUniform", "config": {"minval": -0.05, "maxval": 0.05, "seed": null}}, "bias_initializer": {"class_name": "Zeros", "config": {}}, "kernel_regularizer": null, "bias_regularizer": null, "activity_regularizer": null, "kernel_constraint": null, "bias_constraint": null}, "name": "F_5_3", "inbound_nodes": [[["RDB_Concat_5_2", 0, 0, {}]]]}, {"class_name": "Activation", "config": {"name": "F_5_3_Relu", "trainable": true, "dtype": "float32", "activation": "relu"}, "name": "F_5_3_Relu", "inbound_nodes": [[["F_5_3", 0, 0, {}]]]}, {"class_name": "Concatenate", "config": {"name": "RDB_Concat_5_3", "trainable": true, "dtype": "float32", "axis": 3}, "name": "RDB_Concat_5_3", "inbound_nodes": [[["RDB_Concat_5_2", 0, 0, {}], ["F_5_3_Relu", 0, 0, {}]]]}, {"class_name": "Conv2D", "config": {"name": "LFF_5", "trainable": true, "dtype": "float32", "filters": 64, "kernel_size": [1, 1], "strides": [1, 1], "padding": "valid", "data_format": "channels_last", "dilation_rate": [1, 1], "groups": 1, "activation": "linear", "use_bias": true, "kernel_initializer": {"class_name": "RandomUniform", "config": {"minval": -0.05, "maxval": 0.05, "seed": null}}, "bias_initializer": {"class_name": "Zeros", "config": {}}, "kernel_regularizer": null, "bias_regularizer": null, "activity_regularizer": null, "kernel_constraint": null, "bias_constraint": null}, "name": "LFF_5", "inbound_nodes": [[["RDB_Concat_5_3", 0, 0, {}]]]}, {"class_name": "Add", "config": {"name": "LRL_5", "trainable": true, "dtype": "float32"}, "name": "LRL_5", "inbound_nodes": [[["LFF_5", 0, 0, {}], ["LRL_4", 0, 0, {}]]]}, {"class_name": "Conv2D", "config": {"name": "F_6_1", "trainable": true, "dtype": "float32", "filters": 64, "kernel_size": [3, 3], "strides": [1, 1], "padding": "same", "data_format": "channels_last", "dilation_rate": [1, 1], "groups": 1, "activation": "linear", "use_bias": true, "kernel_initializer": {"class_name": "RandomUniform", "config": {"minval": -0.05, "maxval": 0.05, "seed": null}}, "bias_initializer": {"class_name": "Zeros", "config": {}}, "kernel_regularizer": null, "bias_regularizer": null, "activity_regularizer": null, "kernel_constraint": null, "bias_constraint": null}, "name": "F_6_1", "inbound_nodes": [[["LRL_5", 0, 0, {}]]]}, {"class_name": "Activation", "config": {"name": "F_6_1_Relu", "trainable": true, "dtype": "float32", "activation": "relu"}, "name": "F_6_1_Relu", "inbound_nodes": [[["F_6_1", 0, 0, {}]]]}, {"class_name": "Concatenate", "config": {"name": "RDB_Concat_6_1", "trainable": true, "dtype": "float32", "axis": 3}, "name": "RDB_Concat_6_1", "inbound_nodes": [[["LRL_5", 0, 0, {}], ["F_6_1_Relu", 0, 0, {}]]]}, {"class_name": "Conv2D", "config": {"name": "F_6_2", "trainable": true, "dtype": "float32", "filters": 64, "kernel_size": [3, 3], "strides": [1, 1], "padding": "same", "data_format": "channels_last", "dilation_rate": [1, 1], "groups": 1, "activation": "linear", "use_bias": true, "kernel_initializer": {"class_name": "RandomUniform", "config": {"minval": -0.05, "maxval": 0.05, "seed": null}}, "bias_initializer": {"class_name": "Zeros", "config": {}}, "kernel_regularizer": null, "bias_regularizer": null, "activity_regularizer": null, "kernel_constraint": null, "bias_constraint": null}, "name": "F_6_2", "inbound_nodes": [[["RDB_Concat_6_1", 0, 0, {}]]]}, {"class_name": "Activation", "config": {"name": "F_6_2_Relu", "trainable": true, "dtype": "float32", "activation": "relu"}, "name": "F_6_2_Relu", "inbound_nodes": [[["F_6_2", 0, 0, {}]]]}, {"class_name": "Concatenate", "config": {"name": "RDB_Concat_6_2", "trainable": true, "dtype": "float32", "axis": 3}, "name": "RDB_Concat_6_2", "inbound_nodes": [[["RDB_Concat_6_1", 0, 0, {}], ["F_6_2_Relu", 0, 0, {}]]]}, {"class_name": "Conv2D", "config": {"name": "F_6_3", "trainable": true, "dtype": "float32", "filters": 64, "kernel_size": [3, 3], "strides": [1, 1], "padding": "same", "data_format": "channels_last", "dilation_rate": [1, 1], "groups": 1, "activation": "linear", "use_bias": true, "kernel_initializer": {"class_name": "RandomUniform", "config": {"minval": -0.05, "maxval": 0.05, "seed": null}}, "bias_initializer": {"class_name": "Zeros", "config": {}}, "kernel_regularizer": null, "bias_regularizer": null, "activity_regularizer": null, "kernel_constraint": null, "bias_constraint": null}, "name": "F_6_3", "inbound_nodes": [[["RDB_Concat_6_2", 0, 0, {}]]]}, {"class_name": "Activation", "config": {"name": "F_6_3_Relu", "trainable": true, "dtype": "float32", "activation": "relu"}, "name": "F_6_3_Relu", "inbound_nodes": [[["F_6_3", 0, 0, {}]]]}, {"class_name": "Concatenate", "config": {"name": "RDB_Concat_6_3", "trainable": true, "dtype": "float32", "axis": 3}, "name": "RDB_Concat_6_3", "inbound_nodes": [[["RDB_Concat_6_2", 0, 0, {}], ["F_6_3_Relu", 0, 0, {}]]]}, {"class_name": "Conv2D", "config": {"name": "LFF_6", "trainable": true, "dtype": "float32", "filters": 64, "kernel_size": [1, 1], "strides": [1, 1], "padding": "valid", "data_format": "channels_last", "dilation_rate": [1, 1], "groups": 1, "activation": "linear", "use_bias": true, "kernel_initializer": {"class_name": "RandomUniform", "config": {"minval": -0.05, "maxval": 0.05, "seed": null}}, "bias_initializer": {"class_name": "Zeros", "config": {}}, "kernel_regularizer": null, "bias_regularizer": null, "activity_regularizer": null, "kernel_constraint": null, "bias_constraint": null}, "name": "LFF_6", "inbound_nodes": [[["RDB_Concat_6_3", 0, 0, {}]]]}, {"class_name": "Add", "config": {"name": "LRL_6", "trainable": true, "dtype": "float32"}, "name": "LRL_6", "inbound_nodes": [[["LFF_6", 0, 0, {}], ["LRL_5", 0, 0, {}]]]}, {"class_name": "Conv2D", "config": {"name": "F_7_1", "trainable": true, "dtype": "float32", "filters": 64, "kernel_size": [3, 3], "strides": [1, 1], "padding": "same", "data_format": "channels_last", "dilation_rate": [1, 1], "groups": 1, "activation": "linear", "use_bias": true, "kernel_initializer": {"class_name": "RandomUniform", "config": {"minval": -0.05, "maxval": 0.05, "seed": null}}, "bias_initializer": {"class_name": "Zeros", "config": {}}, "kernel_regularizer": null, "bias_regularizer": null, "activity_regularizer": null, "kernel_constraint": null, "bias_constraint": null}, "name": "F_7_1", "inbound_nodes": [[["LRL_6", 0, 0, {}]]]}, {"class_name": "Activation", "config": {"name": "F_7_1_Relu", "trainable": true, "dtype": "float32", "activation": "relu"}, "name": "F_7_1_Relu", "inbound_nodes": [[["F_7_1", 0, 0, {}]]]}, {"class_name": "Concatenate", "config": {"name": "RDB_Concat_7_1", "trainable": true, "dtype": "float32", "axis": 3}, "name": "RDB_Concat_7_1", "inbound_nodes": [[["LRL_6", 0, 0, {}], ["F_7_1_Relu", 0, 0, {}]]]}, {"class_name": "Conv2D", "config": {"name": "F_7_2", "trainable": true, "dtype": "float32", "filters": 64, "kernel_size": [3, 3], "strides": [1, 1], "padding": "same", "data_format": "channels_last", "dilation_rate": [1, 1], "groups": 1, "activation": "linear", "use_bias": true, "kernel_initializer": {"class_name": "RandomUniform", "config": {"minval": -0.05, "maxval": 0.05, "seed": null}}, "bias_initializer": {"class_name": "Zeros", "config": {}}, "kernel_regularizer": null, "bias_regularizer": null, "activity_regularizer": null, "kernel_constraint": null, "bias_constraint": null}, "name": "F_7_2", "inbound_nodes": [[["RDB_Concat_7_1", 0, 0, {}]]]}, {"class_name": "Activation", "config": {"name": "F_7_2_Relu", "trainable": true, "dtype": "float32", "activation": "relu"}, "name": "F_7_2_Relu", "inbound_nodes": [[["F_7_2", 0, 0, {}]]]}, {"class_name": "Concatenate", "config": {"name": "RDB_Concat_7_2", "trainable": true, "dtype": "float32", "axis": 3}, "name": "RDB_Concat_7_2", "inbound_nodes": [[["RDB_Concat_7_1", 0, 0, {}], ["F_7_2_Relu", 0, 0, {}]]]}, {"class_name": "Conv2D", "config": {"name": "F_7_3", "trainable": true, "dtype": "float32", "filters": 64, "kernel_size": [3, 3], "strides": [1, 1], "padding": "same", "data_format": "channels_last", "dilation_rate": [1, 1], "groups": 1, "activation": "linear", "use_bias": true, "kernel_initializer": {"class_name": "RandomUniform", "config": {"minval": -0.05, "maxval": 0.05, "seed": null}}, "bias_initializer": {"class_name": "Zeros", "config": {}}, "kernel_regularizer": null, "bias_regularizer": null, "activity_regularizer": null, "kernel_constraint": null, "bias_constraint": null}, "name": "F_7_3", "inbound_nodes": [[["RDB_Concat_7_2", 0, 0, {}]]]}, {"class_name": "Activation", "config": {"name": "F_7_3_Relu", "trainable": true, "dtype": "float32", "activation": "relu"}, "name": "F_7_3_Relu", "inbound_nodes": [[["F_7_3", 0, 0, {}]]]}, {"class_name": "Concatenate", "config": {"name": "RDB_Concat_7_3", "trainable": true, "dtype": "float32", "axis": 3}, "name": "RDB_Concat_7_3", "inbound_nodes": [[["RDB_Concat_7_2", 0, 0, {}], ["F_7_3_Relu", 0, 0, {}]]]}, {"class_name": "Conv2D", "config": {"name": "LFF_7", "trainable": true, "dtype": "float32", "filters": 64, "kernel_size": [1, 1], "strides": [1, 1], "padding": "valid", "data_format": "channels_last", "dilation_rate": [1, 1], "groups": 1, "activation": "linear", "use_bias": true, "kernel_initializer": {"class_name": "RandomUniform", "config": {"minval": -0.05, "maxval": 0.05, "seed": null}}, "bias_initializer": {"class_name": "Zeros", "config": {}}, "kernel_regularizer": null, "bias_regularizer": null, "activity_regularizer": null, "kernel_constraint": null, "bias_constraint": null}, "name": "LFF_7", "inbound_nodes": [[["RDB_Concat_7_3", 0, 0, {}]]]}, {"class_name": "Add", "config": {"name": "LRL_7", "trainable": true, "dtype": "float32"}, "name": "LRL_7", "inbound_nodes": [[["LFF_7", 0, 0, {}], ["LRL_6", 0, 0, {}]]]}, {"class_name": "Conv2D", "config": {"name": "F_8_1", "trainable": true, "dtype": "float32", "filters": 64, "kernel_size": [3, 3], "strides": [1, 1], "padding": "same", "data_format": "channels_last", "dilation_rate": [1, 1], "groups": 1, "activation": "linear", "use_bias": true, "kernel_initializer": {"class_name": "RandomUniform", "config": {"minval": -0.05, "maxval": 0.05, "seed": null}}, "bias_initializer": {"class_name": "Zeros", "config": {}}, "kernel_regularizer": null, "bias_regularizer": null, "activity_regularizer": null, "kernel_constraint": null, "bias_constraint": null}, "name": "F_8_1", "inbound_nodes": [[["LRL_7", 0, 0, {}]]]}, {"class_name": "Activation", "config": {"name": "F_8_1_Relu", "trainable": true, "dtype": "float32", "activation": "relu"}, "name": "F_8_1_Relu", "inbound_nodes": [[["F_8_1", 0, 0, {}]]]}, {"class_name": "Concatenate", "config": {"name": "RDB_Concat_8_1", "trainable": true, "dtype": "float32", "axis": 3}, "name": "RDB_Concat_8_1", "inbound_nodes": [[["LRL_7", 0, 0, {}], ["F_8_1_Relu", 0, 0, {}]]]}, {"class_name": "Conv2D", "config": {"name": "F_8_2", "trainable": true, "dtype": "float32", "filters": 64, "kernel_size": [3, 3], "strides": [1, 1], "padding": "same", "data_format": "channels_last", "dilation_rate": [1, 1], "groups": 1, "activation": "linear", "use_bias": true, "kernel_initializer": {"class_name": "RandomUniform", "config": {"minval": -0.05, "maxval": 0.05, "seed": null}}, "bias_initializer": {"class_name": "Zeros", "config": {}}, "kernel_regularizer": null, "bias_regularizer": null, "activity_regularizer": null, "kernel_constraint": null, "bias_constraint": null}, "name": "F_8_2", "inbound_nodes": [[["RDB_Concat_8_1", 0, 0, {}]]]}, {"class_name": "Activation", "config": {"name": "F_8_2_Relu", "trainable": true, "dtype": "float32", "activation": "relu"}, "name": "F_8_2_Relu", "inbound_nodes": [[["F_8_2", 0, 0, {}]]]}, {"class_name": "Concatenate", "config": {"name": "RDB_Concat_8_2", "trainable": true, "dtype": "float32", "axis": 3}, "name": "RDB_Concat_8_2", "inbound_nodes": [[["RDB_Concat_8_1", 0, 0, {}], ["F_8_2_Relu", 0, 0, {}]]]}, {"class_name": "Conv2D", "config": {"name": "F_8_3", "trainable": true, "dtype": "float32", "filters": 64, "kernel_size": [3, 3], "strides": [1, 1], "padding": "same", "data_format": "channels_last", "dilation_rate": [1, 1], "groups": 1, "activation": "linear", "use_bias": true, "kernel_initializer": {"class_name": "RandomUniform", "config": {"minval": -0.05, "maxval": 0.05, "seed": null}}, "bias_initializer": {"class_name": "Zeros", "config": {}}, "kernel_regularizer": null, "bias_regularizer": null, "activity_regularizer": null, "kernel_constraint": null, "bias_constraint": null}, "name": "F_8_3", "inbound_nodes": [[["RDB_Concat_8_2", 0, 0, {}]]]}, {"class_name": "Activation", "config": {"name": "F_8_3_Relu", "trainable": true, "dtype": "float32", "activation": "relu"}, "name": "F_8_3_Relu", "inbound_nodes": [[["F_8_3", 0, 0, {}]]]}, {"class_name": "Concatenate", "config": {"name": "RDB_Concat_8_3", "trainable": true, "dtype": "float32", "axis": 3}, "name": "RDB_Concat_8_3", "inbound_nodes": [[["RDB_Concat_8_2", 0, 0, {}], ["F_8_3_Relu", 0, 0, {}]]]}, {"class_name": "Conv2D", "config": {"name": "LFF_8", "trainable": true, "dtype": "float32", "filters": 64, "kernel_size": [1, 1], "strides": [1, 1], "padding": "valid", "data_format": "channels_last", "dilation_rate": [1, 1], "groups": 1, "activation": "linear", "use_bias": true, "kernel_initializer": {"class_name": "RandomUniform", "config": {"minval": -0.05, "maxval": 0.05, "seed": null}}, "bias_initializer": {"class_name": "Zeros", "config": {}}, "kernel_regularizer": null, "bias_regularizer": null, "activity_regularizer": null, "kernel_constraint": null, "bias_constraint": null}, "name": "LFF_8", "inbound_nodes": [[["RDB_Concat_8_3", 0, 0, {}]]]}, {"class_name": "Add", "config": {"name": "LRL_8", "trainable": true, "dtype": "float32"}, "name": "LRL_8", "inbound_nodes": [[["LFF_8", 0, 0, {}], ["LRL_7", 0, 0, {}]]]}, {"class_name": "Conv2D", "config": {"name": "F_9_1", "trainable": true, "dtype": "float32", "filters": 64, "kernel_size": [3, 3], "strides": [1, 1], "padding": "same", "data_format": "channels_last", "dilation_rate": [1, 1], "groups": 1, "activation": "linear", "use_bias": true, "kernel_initializer": {"class_name": "RandomUniform", "config": {"minval": -0.05, "maxval": 0.05, "seed": null}}, "bias_initializer": {"class_name": "Zeros", "config": {}}, "kernel_regularizer": null, "bias_regularizer": null, "activity_regularizer": null, "kernel_constraint": null, "bias_constraint": null}, "name": "F_9_1", "inbound_nodes": [[["LRL_8", 0, 0, {}]]]}, {"class_name": "Activation", "config": {"name": "F_9_1_Relu", "trainable": true, "dtype": "float32", "activation": "relu"}, "name": "F_9_1_Relu", "inbound_nodes": [[["F_9_1", 0, 0, {}]]]}, {"class_name": "Concatenate", "config": {"name": "RDB_Concat_9_1", "trainable": true, "dtype": "float32", "axis": 3}, "name": "RDB_Concat_9_1", "inbound_nodes": [[["LRL_8", 0, 0, {}], ["F_9_1_Relu", 0, 0, {}]]]}, {"class_name": "Conv2D", "config": {"name": "F_9_2", "trainable": true, "dtype": "float32", "filters": 64, "kernel_size": [3, 3], "strides": [1, 1], "padding": "same", "data_format": "channels_last", "dilation_rate": [1, 1], "groups": 1, "activation": "linear", "use_bias": true, "kernel_initializer": {"class_name": "RandomUniform", "config": {"minval": -0.05, "maxval": 0.05, "seed": null}}, "bias_initializer": {"class_name": "Zeros", "config": {}}, "kernel_regularizer": null, "bias_regularizer": null, "activity_regularizer": null, "kernel_constraint": null, "bias_constraint": null}, "name": "F_9_2", "inbound_nodes": [[["RDB_Concat_9_1", 0, 0, {}]]]}, {"class_name": "Activation", "config": {"name": "F_9_2_Relu", "trainable": true, "dtype": "float32", "activation": "relu"}, "name": "F_9_2_Relu", "inbound_nodes": [[["F_9_2", 0, 0, {}]]]}, {"class_name": "Concatenate", "config": {"name": "RDB_Concat_9_2", "trainable": true, "dtype": "float32", "axis": 3}, "name": "RDB_Concat_9_2", "inbound_nodes": [[["RDB_Concat_9_1", 0, 0, {}], ["F_9_2_Relu", 0, 0, {}]]]}, {"class_name": "Conv2D", "config": {"name": "F_9_3", "trainable": true, "dtype": "float32", "filters": 64, "kernel_size": [3, 3], "strides": [1, 1], "padding": "same", "data_format": "channels_last", "dilation_rate": [1, 1], "groups": 1, "activation": "linear", "use_bias": true, "kernel_initializer": {"class_name": "RandomUniform", "config": {"minval": -0.05, "maxval": 0.05, "seed": null}}, "bias_initializer": {"class_name": "Zeros", "config": {}}, "kernel_regularizer": null, "bias_regularizer": null, "activity_regularizer": null, "kernel_constraint": null, "bias_constraint": null}, "name": "F_9_3", "inbound_nodes": [[["RDB_Concat_9_2", 0, 0, {}]]]}, {"class_name": "Activation", "config": {"name": "F_9_3_Relu", "trainable": true, "dtype": "float32", "activation": "relu"}, "name": "F_9_3_Relu", "inbound_nodes": [[["F_9_3", 0, 0, {}]]]}, {"class_name": "Concatenate", "config": {"name": "RDB_Concat_9_3", "trainable": true, "dtype": "float32", "axis": 3}, "name": "RDB_Concat_9_3", "inbound_nodes": [[["RDB_Concat_9_2", 0, 0, {}], ["F_9_3_Relu", 0, 0, {}]]]}, {"class_name": "Conv2D", "config": {"name": "LFF_9", "trainable": true, "dtype": "float32", "filters": 64, "kernel_size": [1, 1], "strides": [1, 1], "padding": "valid", "data_format": "channels_last", "dilation_rate": [1, 1], "groups": 1, "activation": "linear", "use_bias": true, "kernel_initializer": {"class_name": "RandomUniform", "config": {"minval": -0.05, "maxval": 0.05, "seed": null}}, "bias_initializer": {"class_name": "Zeros", "config": {}}, "kernel_regularizer": null, "bias_regularizer": null, "activity_regularizer": null, "kernel_constraint": null, "bias_constraint": null}, "name": "LFF_9", "inbound_nodes": [[["RDB_Concat_9_3", 0, 0, {}]]]}, {"class_name": "Add", "config": {"name": "LRL_9", "trainable": true, "dtype": "float32"}, "name": "LRL_9", "inbound_nodes": [[["LFF_9", 0, 0, {}], ["LRL_8", 0, 0, {}]]]}, {"class_name": "Conv2D", "config": {"name": "F_10_1", "trainable": true, "dtype": "float32", "filters": 64, "kernel_size": [3, 3], "strides": [1, 1], "padding": "same", "data_format": "channels_last", "dilation_rate": [1, 1], "groups": 1, "activation": "linear", "use_bias": true, "kernel_initializer": {"class_name": "RandomUniform", "config": {"minval": -0.05, "maxval": 0.05, "seed": null}}, "bias_initializer": {"class_name": "Zeros", "config": {}}, "kernel_regularizer": null, "bias_regularizer": null, "activity_regularizer": null, "kernel_constraint": null, "bias_constraint": null}, "name": "F_10_1", "inbound_nodes": [[["LRL_9", 0, 0, {}]]]}, {"class_name": "Activation", "config": {"name": "F_10_1_Relu", "trainable": true, "dtype": "float32", "activation": "relu"}, "name": "F_10_1_Relu", "inbound_nodes": [[["F_10_1", 0, 0, {}]]]}, {"class_name": "Concatenate", "config": {"name": "RDB_Concat_10_1", "trainable": true, "dtype": "float32", "axis": 3}, "name": "RDB_Concat_10_1", "inbound_nodes": [[["LRL_9", 0, 0, {}], ["F_10_1_Relu", 0, 0, {}]]]}, {"class_name": "Conv2D", "config": {"name": "F_10_2", "trainable": true, "dtype": "float32", "filters": 64, "kernel_size": [3, 3], "strides": [1, 1], "padding": "same", "data_format": "channels_last", "dilation_rate": [1, 1], "groups": 1, "activation": "linear", "use_bias": true, "kernel_initializer": {"class_name": "RandomUniform", "config": {"minval": -0.05, "maxval": 0.05, "seed": null}}, "bias_initializer": {"class_name": "Zeros", "config": {}}, "kernel_regularizer": null, "bias_regularizer": null, "activity_regularizer": null, "kernel_constraint": null, "bias_constraint": null}, "name": "F_10_2", "inbound_nodes": [[["RDB_Concat_10_1", 0, 0, {}]]]}, {"class_name": "Activation", "config": {"name": "F_10_2_Relu", "trainable": true, "dtype": "float32", "activation": "relu"}, "name": "F_10_2_Relu", "inbound_nodes": [[["F_10_2", 0, 0, {}]]]}, {"class_name": "Concatenate", "config": {"name": "RDB_Concat_10_2", "trainable": true, "dtype": "float32", "axis": 3}, "name": "RDB_Concat_10_2", "inbound_nodes": [[["RDB_Concat_10_1", 0, 0, {}], ["F_10_2_Relu", 0, 0, {}]]]}, {"class_name": "Conv2D", "config": {"name": "F_10_3", "trainable": true, "dtype": "float32", "filters": 64, "kernel_size": [3, 3], "strides": [1, 1], "padding": "same", "data_format": "channels_last", "dilation_rate": [1, 1], "groups": 1, "activation": "linear", "use_bias": true, "kernel_initializer": {"class_name": "RandomUniform", "config": {"minval": -0.05, "maxval": 0.05, "seed": null}}, "bias_initializer": {"class_name": "Zeros", "config": {}}, "kernel_regularizer": null, "bias_regularizer": null, "activity_regularizer": null, "kernel_constraint": null, "bias_constraint": null}, "name": "F_10_3", "inbound_nodes": [[["RDB_Concat_10_2", 0, 0, {}]]]}, {"class_name": "Activation", "config": {"name": "F_10_3_Relu", "trainable": true, "dtype": "float32", "activation": "relu"}, "name": "F_10_3_Relu", "inbound_nodes": [[["F_10_3", 0, 0, {}]]]}, {"class_name": "Concatenate", "config": {"name": "RDB_Concat_10_3", "trainable": true, "dtype": "float32", "axis": 3}, "name": "RDB_Concat_10_3", "inbound_nodes": [[["RDB_Concat_10_2", 0, 0, {}], ["F_10_3_Relu", 0, 0, {}]]]}, {"class_name": "Conv2D", "config": {"name": "LFF_10", "trainable": true, "dtype": "float32", "filters": 64, "kernel_size": [1, 1], "strides": [1, 1], "padding": "valid", "data_format": "channels_last", "dilation_rate": [1, 1], "groups": 1, "activation": "linear", "use_bias": true, "kernel_initializer": {"class_name": "RandomUniform", "config": {"minval": -0.05, "maxval": 0.05, "seed": null}}, "bias_initializer": {"class_name": "Zeros", "config": {}}, "kernel_regularizer": null, "bias_regularizer": null, "activity_regularizer": null, "kernel_constraint": null, "bias_constraint": null}, "name": "LFF_10", "inbound_nodes": [[["RDB_Concat_10_3", 0, 0, {}]]]}, {"class_name": "Add", "config": {"name": "LRL_10", "trainable": true, "dtype": "float32"}, "name": "LRL_10", "inbound_nodes": [[["LFF_10", 0, 0, {}], ["LRL_9", 0, 0, {}]]]}, {"class_name": "Concatenate", "config": {"name": "LRLs_Concat", "trainable": true, "dtype": "float32", "axis": 3}, "name": "LRLs_Concat", "inbound_nodes": [[["LRL_1", 0, 0, {}], ["LRL_2", 0, 0, {}], ["LRL_3", 0, 0, {}], ["LRL_4", 0, 0, {}], ["LRL_5", 0, 0, {}], ["LRL_6", 0, 0, {}], ["LRL_7", 0, 0, {}], ["LRL_8", 0, 0, {}], ["LRL_9", 0, 0, {}], ["LRL_10", 0, 0, {}]]]}, {"class_name": "Conv2D", "config": {"name": "GFF_1", "trainable": true, "dtype": "float32", "filters": 64, "kernel_size": [1, 1], "strides": [1, 1], "padding": "same", "data_format": "channels_last", "dilation_rate": [1, 1], "groups": 1, "activation": "linear", "use_bias": true, "kernel_initializer": {"class_name": "RandomUniform", "config": {"minval": -0.05, "maxval": 0.05, "seed": null}}, "bias_initializer": {"class_name": "Zeros", "config": {}}, "kernel_regularizer": null, "bias_regularizer": null, "activity_regularizer": null, "kernel_constraint": null, "bias_constraint": null}, "name": "GFF_1", "inbound_nodes": [[["LRLs_Concat", 0, 0, {}]]]}, {"class_name": "Conv2D", "config": {"name": "GFF_2", "trainable": true, "dtype": "float32", "filters": 64, "kernel_size": [3, 3], "strides": [1, 1], "padding": "same", "data_format": "channels_last", "dilation_rate": [1, 1], "groups": 1, "activation": "linear", "use_bias": true, "kernel_initializer": {"class_name": "RandomUniform", "config": {"minval": -0.05, "maxval": 0.05, "seed": null}}, "bias_initializer": {"class_name": "Zeros", "config": {}}, "kernel_regularizer": null, "bias_regularizer": null, "activity_regularizer": null, "kernel_constraint": null, "bias_constraint": null}, "name": "GFF_2", "inbound_nodes": [[["GFF_1", 0, 0, {}]]]}, {"class_name": "Add", "config": {"name": "FDF", "trainable": true, "dtype": "float32"}, "name": "FDF", "inbound_nodes": [[["GFF_2", 0, 0, {}], ["F_m1", 0, 0, {}]]]}, {"class_name": "Conv2D", "config": {"name": "UPN1", "trainable": true, "dtype": "float32", "filters": 64, "kernel_size": [5, 5], "strides": [1, 1], "padding": "same", "data_format": "channels_last", "dilation_rate": [1, 1], "groups": 1, "activation": "linear", "use_bias": true, "kernel_initializer": {"class_name": "RandomUniform", "config": {"minval": -0.05, "maxval": 0.05, "seed": null}}, "bias_initializer": {"class_name": "Zeros", "config": {}}, "kernel_regularizer": null, "bias_regularizer": null, "activity_regularizer": null, "kernel_constraint": null, "bias_constraint": null}, "name": "UPN1", "inbound_nodes": [[["FDF", 0, 0, {}]]]}, {"class_name": "Activation", "config": {"name": "UPN1_Relu", "trainable": true, "dtype": "float32", "activation": "relu"}, "name": "UPN1_Relu", "inbound_nodes": [[["UPN1", 0, 0, {}]]]}, {"class_name": "Conv2D", "config": {"name": "UPN2", "trainable": true, "dtype": "float32", "filters": 32, "kernel_size": [3, 3], "strides": [1, 1], "padding": "same", "data_format": "channels_last", "dilation_rate": [1, 1], "groups": 1, "activation": "linear", "use_bias": true, "kernel_initializer": {"class_name": "RandomUniform", "config": {"minval": -0.05, "maxval": 0.05, "seed": null}}, "bias_initializer": {"class_name": "Zeros", "config": {}}, "kernel_regularizer": null, "bias_regularizer": null, "activity_regularizer": null, "kernel_constraint": null, "bias_constraint": null}, "name": "UPN2", "inbound_nodes": [[["UPN1_Relu", 0, 0, {}]]]}, {"class_name": "Activation", "config": {"name": "UPN2_Relu", "trainable": true, "dtype": "float32", "activation": "relu"}, "name": "UPN2_Relu", "inbound_nodes": [[["UPN2", 0, 0, {}]]]}, {"class_name": "Conv2D", "config": {"name": "UPN3", "trainable": true, "dtype": "float32", "filters": 12, "kernel_size": [3, 3], "strides": [1, 1], "padding": "same", "data_format": "channels_last", "dilation_rate": [1, 1], "groups": 1, "activation": "linear", "use_bias": true, "kernel_initializer": {"class_name": "RandomUniform", "config": {"minval": -0.05, "maxval": 0.05, "seed": null}}, "bias_initializer": {"class_name": "Zeros", "config": {}}, "kernel_regularizer": null, "bias_regularizer": null, "activity_regularizer": null, "kernel_constraint": null, "bias_constraint": null}, "name": "UPN3", "inbound_nodes": [[["UPN2_Relu", 0, 0, {}]]]}, {"class_name": "UpSampling2D", "config": {"name": "UPsample", "trainable": true, "dtype": "float32", "size": [2, 2], "data_format": "channels_last", "interpolation": "nearest"}, "name": "UPsample", "inbound_nodes": [[["UPN3", 0, 0, {}]]]}, {"class_name": "Conv2D", "config": {"name": "SR", "trainable": true, "dtype": "float32", "filters": 3, "kernel_size": [3, 3], "strides": [1, 1], "padding": "same", "data_format": "channels_last", "dilation_rate": [1, 1], "groups": 1, "activation": "linear", "use_bias": true, "kernel_initializer": {"class_name": "RandomUniform", "config": {"minval": -0.05, "maxval": 0.05, "seed": null}}, "bias_initializer": {"class_name": "Zeros", "config": {}}, "kernel_regularizer": null, "bias_regularizer": null, "activity_regularizer": null, "kernel_constraint": null, "bias_constraint": null}, "name": "SR", "inbound_nodes": [[["UPsample", 0, 0, {}]]]}], "input_layers": [["LR", 0, 0]], "output_layers": [["SR", 0, 0]]}}}, "weightsManifest": [{"paths": ["group1-shard1of1.bin"], "weights": [{"name": "F_0/kernel", "shape": [3, 3, 64, 64], "dtype": "float32", "quantization": {"dtype": "uint8", "min": -0.099113690765465, "scale": 0.0007683231842284109, "original_dtype": "float32"}}, {"name": "F_0/bias", "shape": [64], "dtype": "float32", "quantization": {"dtype": "uint8", "min": -0.010305984493564157, "scale": 9.040337275056278e-05, "original_dtype": "float32"}}, {"name": "F_10_1/kernel", "shape": [3, 3, 64, 64], "dtype": "float32", "quantization": {"dtype": "uint8", "min": -0.13718751733209572, "scale": 0.0010802166719062656, "original_dtype": "float32"}}, {"name": "F_10_1/bias", "shape": [64], "dtype": "float32", "quantization": {"dtype": "uint8", "min": -0.04829616011211685, "scale": 0.0002698109503470215, "original_dtype": "float32"}}, {"name": "F_10_2/kernel", "shape": [3, 3, 128, 64], "dtype": "float32", "quantization": {"dtype": "uint8", "min": -0.20653138861936682, "scale": 0.001665575714672313, "original_dtype": "float32"}}, {"name": "F_10_2/bias", "shape": [64], "dtype": "float32", "quantization": {"dtype": "uint8", "min": -0.02878549307876942, "scale": 0.00026902329980158337, "original_dtype": "float32"}}, {"name": "F_10_3/kernel", "shape": [3, 3, 192, 64], "dtype": "float32", "quantization": {"dtype": "uint8", "min": -0.19306722458671122, "scale": 0.0014626304892932668, "original_dtype": "float32"}}, {"name": "F_10_3/bias", "shape": [64], "dtype": "float32", "quantization": {"dtype": "uint8", "min": -0.03472242478062125, "scale": 0.0002755747998462004, "original_dtype": "float32"}}, {"name": "F_1_1/kernel", "shape": [3, 3, 64, 64], "dtype": "float32", "quantization": {"dtype": "uint8", "min": -0.10858236560050179, "scale": 0.0008164087639135472, "original_dtype": "float32"}}, {"name": "F_1_1/bias", "shape": [64], "dtype": "float32", "quantization": {"dtype": "uint8", "min": -0.025447772837737026, "scale": 0.00018048065842366686, "original_dtype": "float32"}}, {"name": "F_1_2/kernel", "shape": [3, 3, 128, 64], "dtype": "float32", "quantization": {"dtype": "uint8", "min": -0.13669962999867458, "scale": 0.001129749008253509, "original_dtype": "float32"}}, {"name": "F_1_2/bias", "shape": [64], "dtype": "float32", "quantization": {"dtype": "uint8", "min": -0.028089368109609564, "scale": 0.00017127663481469248, "original_dtype": "float32"}}, {"name": "F_1_3/kernel", "shape": [3, 3, 192, 64], "dtype": "float32", "quantization": {"dtype": "uint8", "min": -0.13996553689825766, "scale": 0.0011861486177818447, "original_dtype": "float32"}}, {"name": "F_1_3/bias", "shape": [64], "dtype": "float32", "quantization": {"dtype": "uint8", "min": -0.024502895334187674, "scale": 0.00016335263556125116, "original_dtype": "float32"}}, {"name": "F_2_1/kernel", "shape": [3, 3, 64, 64], "dtype": "float32", "quantization": {"dtype": "uint8", "min": -0.11920426578498354, "scale": 0.0008575846459351334, "original_dtype": "float32"}}, {"name": "F_2_1/bias", "shape": [64], "dtype": "float32", "quantization": {"dtype": "uint8", "min": -0.036861257444994126, "scale": 0.0001798110119268006, "original_dtype": "float32"}}, {"name": "F_2_2/kernel", "shape": [3, 3, 128, 64], "dtype": "float32", "quantization": {"dtype": "uint8", "min": -0.14936368447892806, "scale": 0.001234410615528331, "original_dtype": "float32"}}, {"name": "F_2_2/bias", "shape": [64], "dtype": "float32", "quantization": {"dtype": "uint8", "min": -0.024780181839185605, "scale": 0.00016520121226123736, "original_dtype": "float32"}}, {"name": "F_2_3/kernel", "shape": [3, 3, 192, 64], "dtype": "float32", "quantization": {"dtype": "uint8", "min": -0.15045439700285593, "scale": 0.0013082991043726602, "original_dtype": "float32"}}, {"name": "F_2_3/bias", "shape": [64], "dtype": "float32", "quantization": {"dtype": "uint8", "min": -0.03629682467629512, "scale": 0.00019410066671815573, "original_dtype": "float32"}}, {"name": "F_3_1/kernel", "shape": [3, 3, 64, 64], "dtype": "float32", "quantization": {"dtype": "uint8", "min": -0.11680005087571986, "scale": 0.0008916034417993882, "original_dtype": "float32"}}, {"name": "F_3_1/bias", "shape": [64], "dtype": "float32", "quantization": {"dtype": "uint8", "min": -0.03594940550187055, "scale": 0.0001872364869889091, "original_dtype": "float32"}}, {"name": "F_3_2/kernel", "shape": [3, 3, 128, 64], "dtype": "float32", "quantization": {"dtype": "uint8", "min": -0.1252491209729045, "scale": 0.001001992967783236, "original_dtype": "float32"}}, {"name": "F_3_2/bias", "shape": [64], "dtype": "float32", "quantization": {"dtype": "uint8", "min": -0.02566919063455334, "scale": 0.000157479697144499, "original_dtype": "float32"}}, {"name": "F_3_3/kernel", "shape": [3, 3, 192, 64], "dtype": "float32", "quantization": {"dtype": "uint8", "min": -0.14725068573858224, "scale": 0.0012478871672761207, "original_dtype": "float32"}}, {"name": "F_3_3/bias", "shape": [64], "dtype": "float32", "quantization": {"dtype": "uint8", "min": -0.03763546700425008, "scale": 0.00022009045031725193, "original_dtype": "float32"}}, {"name": "F_4_1/kernel", "shape": [3, 3, 64, 64], "dtype": "float32", "quantization": {"dtype": "uint8", "min": -0.10978463809279834, "scale": 0.0009383302401093876, "original_dtype": "float32"}}, {"name": "F_4_1/bias", "shape": [64], "dtype": "float32", "quantization": {"dtype": "uint8", "min": -0.04020221516416938, "scale": 0.00020202118172949436, "original_dtype": "float32"}}, {"name": "F_4_2/kernel", "shape": [3, 3, 128, 64], "dtype": "float32", "quantization": {"dtype": "uint8", "min": -0.13859129784738317, "scale": 0.0010266022062769124, "original_dtype": "float32"}}, {"name": "F_4_2/bias", "shape": [64], "dtype": "float32", "quantization": {"dtype": "uint8", "min": -0.03997776989332017, "scale": 0.0001988943775787073, "original_dtype": "float32"}}, {"name": "F_4_3/kernel", "shape": [3, 3, 192, 64], "dtype": "float32", "quantization": {"dtype": "uint8", "min": -0.1621478032247693, "scale": 0.001183560607480068, "original_dtype": "float32"}}, {"name": "F_4_3/bias", "shape": [64], "dtype": "float32", "quantization": {"dtype": "uint8", "min": -0.03826749382869286, "scale": 0.00020247351232112622, "original_dtype": "float32"}}, {"name": "F_5_1/kernel", "shape": [3, 3, 64, 64], "dtype": "float32", "quantization": {"dtype": "uint8", "min": -0.1146485191934249, "scale": 0.0008685493878289765, "original_dtype": "float32"}}, {"name": "F_5_1/bias", "shape": [64], "dtype": "float32", "quantization": {"dtype": "uint8", "min": -0.04269167430260602, "scale": 0.00023717596834781123, "original_dtype": "float32"}}, {"name": "F_5_2/kernel", "shape": [3, 3, 128, 64], "dtype": "float32", "quantization": {"dtype": "uint8", "min": -0.15021642919848946, "scale": 0.0011294468360788681, "original_dtype": "float32"}}, {"name": "F_5_2/bias", "shape": [64], "dtype": "float32", "quantization": {"dtype": "uint8", "min": -0.03400325249223148, "scale": 0.00021521045881159166, "original_dtype": "float32"}}, {"name": "F_5_3/kernel", "shape": [3, 3, 192, 64], "dtype": "float32", "quantization": {"dtype": "uint8", "min": -0.1611258648774203, "scale": 0.0012490377122280644, "original_dtype": "float32"}}, {"name": "F_5_3/bias", "shape": [64], "dtype": "float32", "quantization": {"dtype": "uint8", "min": -0.054691364988684654, "scale": 0.00028046853840351104, "original_dtype": "float32"}}, {"name": "F_6_1/kernel", "shape": [3, 3, 64, 64], "dtype": "float32", "quantization": {"dtype": "uint8", "min": -0.1040545283579359, "scale": 0.0008970217961891025, "original_dtype": "float32"}}, {"name": "F_6_1/bias", "shape": [64], "dtype": "float32", "quantization": {"dtype": "uint8", "min": -0.05319049975597391, "scale": 0.000258206309495019, "original_dtype": "float32"}}, {"name": "F_6_2/kernel", "shape": [3, 3, 128, 64], "dtype": "float32", "quantization": {"dtype": "uint8", "min": -0.14885696324647643, "scale": 0.0011108728600483315, "original_dtype": "float32"}}, {"name": "F_6_2/bias", "shape": [64], "dtype": "float32", "quantization": {"dtype": "uint8", "min": -0.035605348617422816, "scale": 0.00019891256210850735, "original_dtype": "float32"}}, {"name": "F_6_3/kernel", "shape": [3, 3, 192, 64], "dtype": "float32", "quantization": {"dtype": "uint8", "min": -0.14703229636538262, "scale": 0.0011055059877096438, "original_dtype": "float32"}}, {"name": "F_6_3/bias", "shape": [64], "dtype": "float32", "quantization": {"dtype": "uint8", "min": -0.04047407329666848, "scale": 0.00021996778965580697, "original_dtype": "float32"}}, {"name": "F_7_1/kernel", "shape": [3, 3, 64, 64], "dtype": "float32", "quantization": {"dtype": "uint8", "min": -0.1240024487177531, "scale": 0.001042037384182799, "original_dtype": "float32"}}, {"name": "F_7_1/bias", "shape": [64], "dtype": "float32", "quantization": {"dtype": "uint8", "min": -0.0490080330740003, "scale": 0.00026348404878494784, "original_dtype": "float32"}}, {"name": "F_7_2/kernel", "shape": [3, 3, 128, 64], "dtype": "float32", "quantization": {"dtype": "uint8", "min": -0.17238033168456132, "scale": 0.0011492022112304088, "original_dtype": "float32"}}, {"name": "F_7_2/bias", "shape": [64], "dtype": "float32", "quantization": {"dtype": "uint8", "min": -0.032250373810529705, "scale": 0.0002107867569315667, "original_dtype": "float32"}}, {"name": "F_7_3/kernel", "shape": [3, 3, 192, 64], "dtype": "float32", "quantization": {"dtype": "uint8", "min": -0.177399803610409, "scale": 0.0013859359657063203, "original_dtype": "float32"}}, {"name": "F_7_3/bias", "shape": [64], "dtype": "float32", "quantization": {"dtype": "uint8", "min": -0.04115001642528702, "scale": 0.00025401244706967297, "original_dtype": "float32"}}, {"name": "F_8_1/kernel", "shape": [3, 3, 64, 64], "dtype": "float32", "quantization": {"dtype": "uint8", "min": -0.11800581216812134, "scale": 0.0009833817680676778, "original_dtype": "float32"}}, {"name": "F_8_1/bias", "shape": [64], "dtype": "float32", "quantization": {"dtype": "uint8", "min": -0.03802471046208167, "scale": 0.00023328043228270962, "original_dtype": "float32"}}, {"name": "F_8_2/kernel", "shape": [3, 3, 128, 64], "dtype": "float32", "quantization": {"dtype": "uint8", "min": -0.1720293237882502, "scale": 0.0018497776751424753, "original_dtype": "float32"}}, {"name": "F_8_2/bias", "shape": [64], "dtype": "float32", "quantization": {"dtype": "uint8", "min": -0.026514702158815722, "scale": 0.000215566684218014, "original_dtype": "float32"}}, {"name": "F_8_3/kernel", "shape": [3, 3, 192, 64], "dtype": "float32", "quantization": {"dtype": "uint8", "min": -0.18288410650748835, "scale": 0.0017091972570793302, "original_dtype": "float32"}}, {"name": "F_8_3/bias", "shape": [64], "dtype": "float32", "quantization": {"dtype": "uint8", "min": -0.02811159447712057, "scale": 0.0002602925414548201, "original_dtype": "float32"}}, {"name": "F_9_1/kernel", "shape": [3, 3, 64, 64], "dtype": "float32", "quantization": {"dtype": "uint8", "min": -0.12407073130210239, "scale": 0.0009925658504168192, "original_dtype": "float32"}}, {"name": "F_9_1/bias", "shape": [64], "dtype": "float32", "quantization": {"dtype": "uint8", "min": -0.03709461101714302, "scale": 0.0002472974067809535, "original_dtype": "float32"}}, {"name": "F_9_2/kernel", "shape": [3, 3, 128, 64], "dtype": "float32", "quantization": {"dtype": "uint8", "min": -0.20221344162436095, "scale": 0.0014978773453656366, "original_dtype": "float32"}}, {"name": "F_9_2/bias", "shape": [64], "dtype": "float32", "quantization": {"dtype": "uint8", "min": -0.04333539206315489, "scale": 0.0002691639258581049, "original_dtype": "float32"}}, {"name": "F_9_3/kernel", "shape": [3, 3, 192, 64], "dtype": "float32", "quantization": {"dtype": "uint8", "min": -0.17496712125983893, "scale": 0.0014460092666102391, "original_dtype": "float32"}}, {"name": "F_9_3/bias", "shape": [64], "dtype": "float32", "quantization": {"dtype": "uint8", "min": -0.029108540100209853, "scale": 0.00024257116750174876, "original_dtype": "float32"}}, {"name": "F_m1/kernel", "shape": [3, 3, 3, 64], "dtype": "float32", "quantization": {"dtype": "uint8", "min": -0.07729959838530596, "scale": 0.0006183967870824477, "original_dtype": "float32"}}, {"name": "F_m1/bias", "shape": [64], "dtype": "float32", "quantization": {"dtype": "uint8", "min": -0.027931811514438368, "scale": 0.00021001362040931103, "original_dtype": "float32"}}, {"name": "GFF_1/kernel", "shape": [1, 1, 640, 64], "dtype": "float32", "quantization": {"dtype": "uint8", "min": -0.09089644936954273, "scale": 0.0007101285106995526, "original_dtype": "float32"}}, {"name": "GFF_1/bias", "shape": [64], "dtype": "float32", "quantization": {"dtype": "uint8", "min": -0.008205354907641224, "scale": 7.26137602446126e-05, "original_dtype": "float32"}}, {"name": "GFF_2/kernel", "shape": [3, 3, 64, 64], "dtype": "float32", "quantization": {"dtype": "uint8", "min": -0.11685984099612517, "scale": 0.0007790656066408345, "original_dtype": "float32"}}, {"name": "GFF_2/bias", "shape": [64], "dtype": "float32", "quantization": {"dtype": "uint8", "min": -0.024759099544847715, "scale": 0.00019045461188344395, "original_dtype": "float32"}}, {"name": "LFF_1/kernel", "shape": [1, 1, 256, 64], "dtype": "float32", "quantization": {"dtype": "uint8", "min": -0.12158093060932908, "scale": 0.0009352379277640698, "original_dtype": "float32"}}, {"name": "LFF_1/bias", "shape": [64], "dtype": "float32", "quantization": {"dtype": "uint8", "min": -0.011548915680717019, "scale": 8.020080333831263e-05, "original_dtype": "float32"}}, {"name": "LFF_10/kernel", "shape": [1, 1, 256, 64], "dtype": "float32", "quantization": {"dtype": "uint8", "min": -0.11230527069054398, "scale": 0.0008638866976195691, "original_dtype": "float32"}}, {"name": "LFF_10/bias", "shape": [64], "dtype": "float32", "quantization": {"dtype": "uint8", "min": -0.012472110636094038, "scale": 8.484429004145604e-05, "original_dtype": "float32"}}, {"name": "LFF_2/kernel", "shape": [1, 1, 256, 64], "dtype": "float32", "quantization": {"dtype": "uint8", "min": -0.11464537802864523, "scale": 0.0009098839526082955, "original_dtype": "float32"}}, {"name": "LFF_2/bias", "shape": [64], "dtype": "float32", "quantization": {"dtype": "uint8", "min": -0.012948982096185871, "scale": 9.315814457687677e-05, "original_dtype": "float32"}}, {"name": "LFF_3/kernel", "shape": [1, 1, 256, 64], "dtype": "float32", "quantization": {"dtype": "uint8", "min": -0.12174550470183877, "scale": 0.0009153797346002915, "original_dtype": "float32"}}, {"name": "LFF_3/bias", "shape": [64], "dtype": "float32", "quantization": {"dtype": "uint8", "min": -0.01354285797067717, "scale": 8.909774980708665e-05, "original_dtype": "float32"}}, {"name": "LFF_4/kernel", "shape": [1, 1, 256, 64], "dtype": "float32", "quantization": {"dtype": "uint8", "min": -0.11253517252557417, "scale": 0.0008656551732736475, "original_dtype": "float32"}}, {"name": "LFF_4/bias", "shape": [64], "dtype": "float32", "quantization": {"dtype": "uint8", "min": -0.014785173002119158, "scale": 9.538821291689779e-05, "original_dtype": "float32"}}, {"name": "LFF_5/kernel", "shape": [1, 1, 256, 64], "dtype": "float32", "quantization": {"dtype": "uint8", "min": -0.1042497333358316, "scale": 0.0011583303703981288, "original_dtype": "float32"}}, {"name": "LFF_5/bias", "shape": [64], "dtype": "float32", "quantization": {"dtype": "uint8", "min": -0.013987564514665042, "scale": 9.451057104503407e-05, "original_dtype": "float32"}}, {"name": "LFF_6/kernel", "shape": [1, 1, 256, 64], "dtype": "float32", "quantization": {"dtype": "uint8", "min": -0.10711858231647342, "scale": 0.0008569486585317873, "original_dtype": "float32"}}, {"name": "LFF_6/bias", "shape": [64], "dtype": "float32", "quantization": {"dtype": "uint8", "min": -0.009738773052745005, "scale": 6.670392501880141e-05, "original_dtype": "float32"}}, {"name": "LFF_7/kernel", "shape": [1, 1, 256, 64], "dtype": "float32", "quantization": {"dtype": "uint8", "min": -0.1575608756612329, "scale": 0.0010791840798714581, "original_dtype": "float32"}}, {"name": "LFF_7/bias", "shape": [64], "dtype": "float32", "quantization": {"dtype": "uint8", "min": -0.006305847170890546, "scale": 5.94891242536844e-05, "original_dtype": "float32"}}, {"name": "LFF_8/kernel", "shape": [1, 1, 256, 64], "dtype": "float32", "quantization": {"dtype": "uint8", "min": -0.11949492631589664, "scale": 0.0010213241565461251, "original_dtype": "float32"}}, {"name": "LFF_8/bias", "shape": [64], "dtype": "float32", "quantization": {"dtype": "uint8", "min": -0.0133325593472988, "scale": 8.948026407583087e-05, "original_dtype": "float32"}}, {"name": "LFF_9/kernel", "shape": [1, 1, 256, 64], "dtype": "float32", "quantization": {"dtype": "uint8", "min": -0.12313493525280672, "scale": 0.0009328404185818691, "original_dtype": "float32"}}, {"name": "LFF_9/bias", "shape": [64], "dtype": "float32", "quantization": {"dtype": "uint8", "min": -0.01127693124992006, "scale": 8.415620335761239e-05, "original_dtype": "float32"}}, {"name": "SR/kernel", "shape": [3, 3, 12, 3], "dtype": "float32", "quantization": {"dtype": "uint8", "min": -0.09164506141461579, "scale": 0.0006995806214856167, "original_dtype": "float32"}}, {"name": "SR/bias", "shape": [3], "dtype": "float32", "quantization": {"dtype": "uint8", "min": 0.013361109420657158, "scale": 7.035100430834527e-05, "original_dtype": "float32"}}, {"name": "UPN1/kernel", "shape": [5, 5, 64, 64], "dtype": "float32", "quantization": {"dtype": "uint8", "min": -0.15526582849960702, "scale": 0.0011333272153255987, "original_dtype": "float32"}}, {"name": "UPN1/bias", "shape": [64], "dtype": "float32", "quantization": {"dtype": "uint8", "min": -0.027620304448931824, "scale": 0.00027620304448931825, "original_dtype": "float32"}}, {"name": "UPN2/kernel", "shape": [3, 3, 64, 32], "dtype": "float32", "quantization": {"dtype": "uint8", "min": -0.16397442256703096, "scale": 0.001138711267826604, "original_dtype": "float32"}}, {"name": "UPN2/bias", "shape": [32], "dtype": "float32", "quantization": {"dtype": "uint8", "min": -0.004623906047759103, "scale": 0.00015944503612962422, "original_dtype": "float32"}}, {"name": "UPN3/kernel", "shape": [3, 3, 32, 12], "dtype": "float32", "quantization": {"dtype": "uint8", "min": -0.1120229591925939, "scale": 0.0009182209769884746, "original_dtype": "float32"}}, {"name": "UPN3/bias", "shape": [12], "dtype": "float32", "quantization": {"dtype": "uint8", "min": -0.048756926229187085, "scale": 0.00028183194352131264, "original_dtype": "float32"}}]}]}