{"format": "layers-model", "generatedBy": "keras v2.10.0", "convertedBy": "TensorFlow.js Converter v1.2.6", "modelTopology": {"keras_version": "2.10.0", "backend": "tensorflow", "model_config": {"class_name": "Functional", "config": {"name": "generator", "layers": [{"class_name": "InputLayer", "config": {"batch_input_shape": [null, null, null, 3], "dtype": "float32", "sparse": false, "ragged": false, "name": "LR_input"}, "name": "LR_input", "inbound_nodes": []}, {"class_name": "Conv2D", "config": {"name": "Pre_blocks_conv", "trainable": true, "dtype": "float32", "filters": 64, "kernel_size": [3, 3], "strides": [1, 1], "padding": "same", "data_format": "channels_last", "dilation_rate": [1, 1], "groups": 1, "activation": "linear", "use_bias": true, "kernel_initializer": {"class_name": "RandomUniform", "config": {"minval": -0.05, "maxval": 0.05, "seed": null}, "shared_object_id": 1}, "bias_initializer": {"class_name": "Zeros", "config": {}}, "kernel_regularizer": null, "bias_regularizer": null, "activity_regularizer": null, "kernel_constraint": null, "bias_constraint": null}, "name": "Pre_blocks_conv", "inbound_nodes": [[["LR_input", 0, 0, {}]]]}, {"class_name": "Conv2D", "config": {"name": "F_1_1_1", "trainable": true, "dtype": "float32", "filters": 32, "kernel_size": [3, 3], "strides": [1, 1], "padding": "same", "data_format": "channels_last", "dilation_rate": [1, 1], "groups": 1, "activation": "linear", "use_bias": true, "kernel_initializer": {"class_name": "RandomUniform", "config": {"minval": -0.05, "maxval": 0.05, "seed": null}, "shared_object_id": 1}, "bias_initializer": {"class_name": "Zeros", "config": {}}, "kernel_regularizer": null, "bias_regularizer": null, "activity_regularizer": null, "kernel_constraint": null, "bias_constraint": null}, "name": "F_1_1_1", "inbound_nodes": [[["Pre_blocks_conv", 0, 0, {}]]]}, {"class_name": "Activation", "config": {"name": "F_1_1_1_Relu", "trainable": true, "dtype": "float32", "activation": "relu"}, "name": "F_1_1_1_Relu", "inbound_nodes": [[["F_1_1_1", 0, 0, {}]]]}, {"class_name": "Concatenate", "config": {"name": "RDB_Concat_1_1_1", "trainable": true, "dtype": "float32", "axis": 3}, "name": "RDB_Concat_1_1_1", "inbound_nodes": [[["Pre_blocks_conv", 0, 0, {}], ["F_1_1_1_Relu", 0, 0, {}]]]}, {"class_name": "Conv2D", "config": {"name": "F_1_1_2", "trainable": true, "dtype": "float32", "filters": 32, "kernel_size": [3, 3], "strides": [1, 1], "padding": "same", "data_format": "channels_last", "dilation_rate": [1, 1], "groups": 1, "activation": "linear", "use_bias": true, "kernel_initializer": {"class_name": "RandomUniform", "config": {"minval": -0.05, "maxval": 0.05, "seed": null}, "shared_object_id": 1}, "bias_initializer": {"class_name": "Zeros", "config": {}}, "kernel_regularizer": null, "bias_regularizer": null, "activity_regularizer": null, "kernel_constraint": null, "bias_constraint": null}, "name": "F_1_1_2", "inbound_nodes": [[["RDB_Concat_1_1_1", 0, 0, {}]]]}, {"class_name": "Activation", "config": {"name": "F_1_1_2_Relu", "trainable": true, "dtype": "float32", "activation": "relu"}, "name": "F_1_1_2_Relu", "inbound_nodes": [[["F_1_1_2", 0, 0, {}]]]}, {"class_name": "Concatenate", "config": {"name": "RDB_Concat_1_1_2", "trainable": true, "dtype": "float32", "axis": 3}, "name": "RDB_Concat_1_1_2", "inbound_nodes": [[["RDB_Concat_1_1_1", 0, 0, {}], ["F_1_1_2_Relu", 0, 0, {}]]]}, {"class_name": "Conv2D", "config": {"name": "F_1_1_3", "trainable": true, "dtype": "float32", "filters": 32, "kernel_size": [3, 3], "strides": [1, 1], "padding": "same", "data_format": "channels_last", "dilation_rate": [1, 1], "groups": 1, "activation": "linear", "use_bias": true, "kernel_initializer": {"class_name": "RandomUniform", "config": {"minval": -0.05, "maxval": 0.05, "seed": null}, "shared_object_id": 1}, "bias_initializer": {"class_name": "Zeros", "config": {}}, "kernel_regularizer": null, "bias_regularizer": null, "activity_regularizer": null, "kernel_constraint": null, "bias_constraint": null}, "name": "F_1_1_3", "inbound_nodes": [[["RDB_Concat_1_1_2", 0, 0, {}]]]}, {"class_name": "Activation", "config": {"name": "F_1_1_3_Relu", "trainable": true, "dtype": "float32", "activation": "relu"}, "name": "F_1_1_3_Relu", "inbound_nodes": [[["F_1_1_3", 0, 0, {}]]]}, {"class_name": "Concatenate", "config": {"name": "RDB_Concat_1_1_3", "trainable": true, "dtype": "float32", "axis": 3}, "name": "RDB_Concat_1_1_3", "inbound_nodes": [[["RDB_Concat_1_1_2", 0, 0, {}], ["F_1_1_3_Relu", 0, 0, {}]]]}, {"class_name": "Conv2D", "config": {"name": "F_1_1_4", "trainable": true, "dtype": "float32", "filters": 32, "kernel_size": [3, 3], "strides": [1, 1], "padding": "same", "data_format": "channels_last", "dilation_rate": [1, 1], "groups": 1, "activation": "linear", "use_bias": true, "kernel_initializer": {"class_name": "RandomUniform", "config": {"minval": -0.05, "maxval": 0.05, "seed": null}, "shared_object_id": 1}, "bias_initializer": {"class_name": "Zeros", "config": {}}, "kernel_regularizer": null, "bias_regularizer": null, "activity_regularizer": null, "kernel_constraint": null, "bias_constraint": null}, "name": "F_1_1_4", "inbound_nodes": [[["RDB_Concat_1_1_3", 0, 0, {}]]]}, {"class_name": "Activation", "config": {"name": "F_1_1_4_Relu", "trainable": true, "dtype": "float32", "activation": "relu"}, "name": "F_1_1_4_Relu", "inbound_nodes": [[["F_1_1_4", 0, 0, {}]]]}, {"class_name": "Concatenate", "config": {"name": "RDB_Concat_1_1_4", "trainable": true, "dtype": "float32", "axis": 3}, "name": "RDB_Concat_1_1_4", "inbound_nodes": [[["RDB_Concat_1_1_3", 0, 0, {}], ["F_1_1_4_Relu", 0, 0, {}]]]}, {"class_name": "Conv2D", "config": {"name": "LFF_1_1", "trainable": true, "dtype": "float32", "filters": 64, "kernel_size": [3, 3], "strides": [1, 1], "padding": "same", "data_format": "channels_last", "dilation_rate": [1, 1], "groups": 1, "activation": "linear", "use_bias": true, "kernel_initializer": {"class_name": "RandomUniform", "config": {"minval": -0.05, "maxval": 0.05, "seed": null}, "shared_object_id": 1}, "bias_initializer": {"class_name": "Zeros", "config": {}}, "kernel_regularizer": null, "bias_regularizer": null, "activity_regularizer": null, "kernel_constraint": null, "bias_constraint": null}, "name": "LFF_1_1", "inbound_nodes": [[["RDB_Concat_1_1_4", 0, 0, {}]]]}, {"class_name": "MultiplyBeta", "config": {"name": "multiply_beta", "trainable": true, "dtype": "float32", "beta": 0.2}, "name": "multiply_beta", "inbound_nodes": [[["LFF_1_1", 0, 0, {}]]]}, {"class_name": "Add", "config": {"name": "LRL_1_1", "trainable": true, "dtype": "float32"}, "name": "LRL_1_1", "inbound_nodes": [[["Pre_blocks_conv", 0, 0, {}], ["multiply_beta", 0, 0, {}]]]}, {"class_name": "Conv2D", "config": {"name": "F_1_2_1", "trainable": true, "dtype": "float32", "filters": 32, "kernel_size": [3, 3], "strides": [1, 1], "padding": "same", "data_format": "channels_last", "dilation_rate": [1, 1], "groups": 1, "activation": "linear", "use_bias": true, "kernel_initializer": {"class_name": "RandomUniform", "config": {"minval": -0.05, "maxval": 0.05, "seed": null}, "shared_object_id": 1}, "bias_initializer": {"class_name": "Zeros", "config": {}}, "kernel_regularizer": null, "bias_regularizer": null, "activity_regularizer": null, "kernel_constraint": null, "bias_constraint": null}, "name": "F_1_2_1", "inbound_nodes": [[["LRL_1_1", 0, 0, {}]]]}, {"class_name": "Activation", "config": {"name": "F_1_2_1_Relu", "trainable": true, "dtype": "float32", "activation": "relu"}, "name": "F_1_2_1_Relu", "inbound_nodes": [[["F_1_2_1", 0, 0, {}]]]}, {"class_name": "Concatenate", "config": {"name": "RDB_Concat_1_2_1", "trainable": true, "dtype": "float32", "axis": 3}, "name": "RDB_Concat_1_2_1", "inbound_nodes": [[["LRL_1_1", 0, 0, {}], ["F_1_2_1_Relu", 0, 0, {}]]]}, {"class_name": "Conv2D", "config": {"name": "F_1_2_2", "trainable": true, "dtype": "float32", "filters": 32, "kernel_size": [3, 3], "strides": [1, 1], "padding": "same", "data_format": "channels_last", "dilation_rate": [1, 1], "groups": 1, "activation": "linear", "use_bias": true, "kernel_initializer": {"class_name": "RandomUniform", "config": {"minval": -0.05, "maxval": 0.05, "seed": null}, "shared_object_id": 1}, "bias_initializer": {"class_name": "Zeros", "config": {}}, "kernel_regularizer": null, "bias_regularizer": null, "activity_regularizer": null, "kernel_constraint": null, "bias_constraint": null}, "name": "F_1_2_2", "inbound_nodes": [[["RDB_Concat_1_2_1", 0, 0, {}]]]}, {"class_name": "Activation", "config": {"name": "F_1_2_2_Relu", "trainable": true, "dtype": "float32", "activation": "relu"}, "name": "F_1_2_2_Relu", "inbound_nodes": [[["F_1_2_2", 0, 0, {}]]]}, {"class_name": "Concatenate", "config": {"name": "RDB_Concat_1_2_2", "trainable": true, "dtype": "float32", "axis": 3}, "name": "RDB_Concat_1_2_2", "inbound_nodes": [[["RDB_Concat_1_2_1", 0, 0, {}], ["F_1_2_2_Relu", 0, 0, {}]]]}, {"class_name": "Conv2D", "config": {"name": "F_1_2_3", "trainable": true, "dtype": "float32", "filters": 32, "kernel_size": [3, 3], "strides": [1, 1], "padding": "same", "data_format": "channels_last", "dilation_rate": [1, 1], "groups": 1, "activation": "linear", "use_bias": true, "kernel_initializer": {"class_name": "RandomUniform", "config": {"minval": -0.05, "maxval": 0.05, "seed": null}, "shared_object_id": 1}, "bias_initializer": {"class_name": "Zeros", "config": {}}, "kernel_regularizer": null, "bias_regularizer": null, "activity_regularizer": null, "kernel_constraint": null, "bias_constraint": null}, "name": "F_1_2_3", "inbound_nodes": [[["RDB_Concat_1_2_2", 0, 0, {}]]]}, {"class_name": "Activation", "config": {"name": "F_1_2_3_Relu", "trainable": true, "dtype": "float32", "activation": "relu"}, "name": "F_1_2_3_Relu", "inbound_nodes": [[["F_1_2_3", 0, 0, {}]]]}, {"class_name": "Concatenate", "config": {"name": "RDB_Concat_1_2_3", "trainable": true, "dtype": "float32", "axis": 3}, "name": "RDB_Concat_1_2_3", "inbound_nodes": [[["RDB_Concat_1_2_2", 0, 0, {}], ["F_1_2_3_Relu", 0, 0, {}]]]}, {"class_name": "Conv2D", "config": {"name": "F_1_2_4", "trainable": true, "dtype": "float32", "filters": 32, "kernel_size": [3, 3], "strides": [1, 1], "padding": "same", "data_format": "channels_last", "dilation_rate": [1, 1], "groups": 1, "activation": "linear", "use_bias": true, "kernel_initializer": {"class_name": "RandomUniform", "config": {"minval": -0.05, "maxval": 0.05, "seed": null}, "shared_object_id": 1}, "bias_initializer": {"class_name": "Zeros", "config": {}}, "kernel_regularizer": null, "bias_regularizer": null, "activity_regularizer": null, "kernel_constraint": null, "bias_constraint": null}, "name": "F_1_2_4", "inbound_nodes": [[["RDB_Concat_1_2_3", 0, 0, {}]]]}, {"class_name": "Activation", "config": {"name": "F_1_2_4_Relu", "trainable": true, "dtype": "float32", "activation": "relu"}, "name": "F_1_2_4_Relu", "inbound_nodes": [[["F_1_2_4", 0, 0, {}]]]}, {"class_name": "Concatenate", "config": {"name": "RDB_Concat_1_2_4", "trainable": true, "dtype": "float32", "axis": 3}, "name": "RDB_Concat_1_2_4", "inbound_nodes": [[["RDB_Concat_1_2_3", 0, 0, {}], ["F_1_2_4_Relu", 0, 0, {}]]]}, {"class_name": "Conv2D", "config": {"name": "LFF_1_2", "trainable": true, "dtype": "float32", "filters": 64, "kernel_size": [3, 3], "strides": [1, 1], "padding": "same", "data_format": "channels_last", "dilation_rate": [1, 1], "groups": 1, "activation": "linear", "use_bias": true, "kernel_initializer": {"class_name": "RandomUniform", "config": {"minval": -0.05, "maxval": 0.05, "seed": null}, "shared_object_id": 1}, "bias_initializer": {"class_name": "Zeros", "config": {}}, "kernel_regularizer": null, "bias_regularizer": null, "activity_regularizer": null, "kernel_constraint": null, "bias_constraint": null}, "name": "LFF_1_2", "inbound_nodes": [[["RDB_Concat_1_2_4", 0, 0, {}]]]}, {"class_name": "MultiplyBeta", "config": {"name": "multiply_beta_1", "trainable": true, "dtype": "float32", "beta": 0.2}, "name": "multiply_beta_1", "inbound_nodes": [[["LFF_1_2", 0, 0, {}]]]}, {"class_name": "Add", "config": {"name": "LRL_1_2", "trainable": true, "dtype": "float32"}, "name": "LRL_1_2", "inbound_nodes": [[["LRL_1_1", 0, 0, {}], ["multiply_beta_1", 0, 0, {}]]]}, {"class_name": "Conv2D", "config": {"name": "F_1_3_1", "trainable": true, "dtype": "float32", "filters": 32, "kernel_size": [3, 3], "strides": [1, 1], "padding": "same", "data_format": "channels_last", "dilation_rate": [1, 1], "groups": 1, "activation": "linear", "use_bias": true, "kernel_initializer": {"class_name": "RandomUniform", "config": {"minval": -0.05, "maxval": 0.05, "seed": null}, "shared_object_id": 1}, "bias_initializer": {"class_name": "Zeros", "config": {}}, "kernel_regularizer": null, "bias_regularizer": null, "activity_regularizer": null, "kernel_constraint": null, "bias_constraint": null}, "name": "F_1_3_1", "inbound_nodes": [[["LRL_1_2", 0, 0, {}]]]}, {"class_name": "Activation", "config": {"name": "F_1_3_1_Relu", "trainable": true, "dtype": "float32", "activation": "relu"}, "name": "F_1_3_1_Relu", "inbound_nodes": [[["F_1_3_1", 0, 0, {}]]]}, {"class_name": "Concatenate", "config": {"name": "RDB_Concat_1_3_1", "trainable": true, "dtype": "float32", "axis": 3}, "name": "RDB_Concat_1_3_1", "inbound_nodes": [[["LRL_1_2", 0, 0, {}], ["F_1_3_1_Relu", 0, 0, {}]]]}, {"class_name": "Conv2D", "config": {"name": "F_1_3_2", "trainable": true, "dtype": "float32", "filters": 32, "kernel_size": [3, 3], "strides": [1, 1], "padding": "same", "data_format": "channels_last", "dilation_rate": [1, 1], "groups": 1, "activation": "linear", "use_bias": true, "kernel_initializer": {"class_name": "RandomUniform", "config": {"minval": -0.05, "maxval": 0.05, "seed": null}, "shared_object_id": 1}, "bias_initializer": {"class_name": "Zeros", "config": {}}, "kernel_regularizer": null, "bias_regularizer": null, "activity_regularizer": null, "kernel_constraint": null, "bias_constraint": null}, "name": "F_1_3_2", "inbound_nodes": [[["RDB_Concat_1_3_1", 0, 0, {}]]]}, {"class_name": "Activation", "config": {"name": "F_1_3_2_Relu", "trainable": true, "dtype": "float32", "activation": "relu"}, "name": "F_1_3_2_Relu", "inbound_nodes": [[["F_1_3_2", 0, 0, {}]]]}, {"class_name": "Concatenate", "config": {"name": "RDB_Concat_1_3_2", "trainable": true, "dtype": "float32", "axis": 3}, "name": "RDB_Concat_1_3_2", "inbound_nodes": [[["RDB_Concat_1_3_1", 0, 0, {}], ["F_1_3_2_Relu", 0, 0, {}]]]}, {"class_name": "Conv2D", "config": {"name": "F_1_3_3", "trainable": true, "dtype": "float32", "filters": 32, "kernel_size": [3, 3], "strides": [1, 1], "padding": "same", "data_format": "channels_last", "dilation_rate": [1, 1], "groups": 1, "activation": "linear", "use_bias": true, "kernel_initializer": {"class_name": "RandomUniform", "config": {"minval": -0.05, "maxval": 0.05, "seed": null}, "shared_object_id": 1}, "bias_initializer": {"class_name": "Zeros", "config": {}}, "kernel_regularizer": null, "bias_regularizer": null, "activity_regularizer": null, "kernel_constraint": null, "bias_constraint": null}, "name": "F_1_3_3", "inbound_nodes": [[["RDB_Concat_1_3_2", 0, 0, {}]]]}, {"class_name": "Activation", "config": {"name": "F_1_3_3_Relu", "trainable": true, "dtype": "float32", "activation": "relu"}, "name": "F_1_3_3_Relu", "inbound_nodes": [[["F_1_3_3", 0, 0, {}]]]}, {"class_name": "Concatenate", "config": {"name": "RDB_Concat_1_3_3", "trainable": true, "dtype": "float32", "axis": 3}, "name": "RDB_Concat_1_3_3", "inbound_nodes": [[["RDB_Concat_1_3_2", 0, 0, {}], ["F_1_3_3_Relu", 0, 0, {}]]]}, {"class_name": "Conv2D", "config": {"name": "F_1_3_4", "trainable": true, "dtype": "float32", "filters": 32, "kernel_size": [3, 3], "strides": [1, 1], "padding": "same", "data_format": "channels_last", "dilation_rate": [1, 1], "groups": 1, "activation": "linear", "use_bias": true, "kernel_initializer": {"class_name": "RandomUniform", "config": {"minval": -0.05, "maxval": 0.05, "seed": null}, "shared_object_id": 1}, "bias_initializer": {"class_name": "Zeros", "config": {}}, "kernel_regularizer": null, "bias_regularizer": null, "activity_regularizer": null, "kernel_constraint": null, "bias_constraint": null}, "name": "F_1_3_4", "inbound_nodes": [[["RDB_Concat_1_3_3", 0, 0, {}]]]}, {"class_name": "Activation", "config": {"name": "F_1_3_4_Relu", "trainable": true, "dtype": "float32", "activation": "relu"}, "name": "F_1_3_4_Relu", "inbound_nodes": [[["F_1_3_4", 0, 0, {}]]]}, {"class_name": "Concatenate", "config": {"name": "RDB_Concat_1_3_4", "trainable": true, "dtype": "float32", "axis": 3}, "name": "RDB_Concat_1_3_4", "inbound_nodes": [[["RDB_Concat_1_3_3", 0, 0, {}], ["F_1_3_4_Relu", 0, 0, {}]]]}, {"class_name": "Conv2D", "config": {"name": "LFF_1_3", "trainable": true, "dtype": "float32", "filters": 64, "kernel_size": [3, 3], "strides": [1, 1], "padding": "same", "data_format": "channels_last", "dilation_rate": [1, 1], "groups": 1, "activation": "linear", "use_bias": true, "kernel_initializer": {"class_name": "RandomUniform", "config": {"minval": -0.05, "maxval": 0.05, "seed": null}, "shared_object_id": 1}, "bias_initializer": {"class_name": "Zeros", "config": {}}, "kernel_regularizer": null, "bias_regularizer": null, "activity_regularizer": null, "kernel_constraint": null, "bias_constraint": null}, "name": "LFF_1_3", "inbound_nodes": [[["RDB_Concat_1_3_4", 0, 0, {}]]]}, {"class_name": "MultiplyBeta", "config": {"name": "multiply_beta_2", "trainable": true, "dtype": "float32", "beta": 0.2}, "name": "multiply_beta_2", "inbound_nodes": [[["LFF_1_3", 0, 0, {}]]]}, {"class_name": "Add", "config": {"name": "LRL_1_3", "trainable": true, "dtype": "float32"}, "name": "LRL_1_3", "inbound_nodes": [[["LRL_1_2", 0, 0, {}], ["multiply_beta_2", 0, 0, {}]]]}, {"class_name": "MultiplyBeta", "config": {"name": "multiply_beta_3", "trainable": true, "dtype": "float32", "beta": 0.2}, "name": "multiply_beta_3", "inbound_nodes": [[["LRL_1_3", 0, 0, {}]]]}, {"class_name": "Add", "config": {"name": "RRDB_1_out", "trainable": true, "dtype": "float32"}, "name": "RRDB_1_out", "inbound_nodes": [[["Pre_blocks_conv", 0, 0, {}], ["multiply_beta_3", 0, 0, {}]]]}, {"class_name": "Conv2D", "config": {"name": "F_2_1_1", "trainable": true, "dtype": "float32", "filters": 32, "kernel_size": [3, 3], "strides": [1, 1], "padding": "same", "data_format": "channels_last", "dilation_rate": [1, 1], "groups": 1, "activation": "linear", "use_bias": true, "kernel_initializer": {"class_name": "RandomUniform", "config": {"minval": -0.05, "maxval": 0.05, "seed": null}, "shared_object_id": 1}, "bias_initializer": {"class_name": "Zeros", "config": {}}, "kernel_regularizer": null, "bias_regularizer": null, "activity_regularizer": null, "kernel_constraint": null, "bias_constraint": null}, "name": "F_2_1_1", "inbound_nodes": [[["RRDB_1_out", 0, 0, {}]]]}, {"class_name": "Activation", "config": {"name": "F_2_1_1_Relu", "trainable": true, "dtype": "float32", "activation": "relu"}, "name": "F_2_1_1_Relu", "inbound_nodes": [[["F_2_1_1", 0, 0, {}]]]}, {"class_name": "Concatenate", "config": {"name": "RDB_Concat_2_1_1", "trainable": true, "dtype": "float32", "axis": 3}, "name": "RDB_Concat_2_1_1", "inbound_nodes": [[["RRDB_1_out", 0, 0, {}], ["F_2_1_1_Relu", 0, 0, {}]]]}, {"class_name": "Conv2D", "config": {"name": "F_2_1_2", "trainable": true, "dtype": "float32", "filters": 32, "kernel_size": [3, 3], "strides": [1, 1], "padding": "same", "data_format": "channels_last", "dilation_rate": [1, 1], "groups": 1, "activation": "linear", "use_bias": true, "kernel_initializer": {"class_name": "RandomUniform", "config": {"minval": -0.05, "maxval": 0.05, "seed": null}, "shared_object_id": 1}, "bias_initializer": {"class_name": "Zeros", "config": {}}, "kernel_regularizer": null, "bias_regularizer": null, "activity_regularizer": null, "kernel_constraint": null, "bias_constraint": null}, "name": "F_2_1_2", "inbound_nodes": [[["RDB_Concat_2_1_1", 0, 0, {}]]]}, {"class_name": "Activation", "config": {"name": "F_2_1_2_Relu", "trainable": true, "dtype": "float32", "activation": "relu"}, "name": "F_2_1_2_Relu", "inbound_nodes": [[["F_2_1_2", 0, 0, {}]]]}, {"class_name": "Concatenate", "config": {"name": "RDB_Concat_2_1_2", "trainable": true, "dtype": "float32", "axis": 3}, "name": "RDB_Concat_2_1_2", "inbound_nodes": [[["RDB_Concat_2_1_1", 0, 0, {}], ["F_2_1_2_Relu", 0, 0, {}]]]}, {"class_name": "Conv2D", "config": {"name": "F_2_1_3", "trainable": true, "dtype": "float32", "filters": 32, "kernel_size": [3, 3], "strides": [1, 1], "padding": "same", "data_format": "channels_last", "dilation_rate": [1, 1], "groups": 1, "activation": "linear", "use_bias": true, "kernel_initializer": {"class_name": "RandomUniform", "config": {"minval": -0.05, "maxval": 0.05, "seed": null}, "shared_object_id": 1}, "bias_initializer": {"class_name": "Zeros", "config": {}}, "kernel_regularizer": null, "bias_regularizer": null, "activity_regularizer": null, "kernel_constraint": null, "bias_constraint": null}, "name": "F_2_1_3", "inbound_nodes": [[["RDB_Concat_2_1_2", 0, 0, {}]]]}, {"class_name": "Activation", "config": {"name": "F_2_1_3_Relu", "trainable": true, "dtype": "float32", "activation": "relu"}, "name": "F_2_1_3_Relu", "inbound_nodes": [[["F_2_1_3", 0, 0, {}]]]}, {"class_name": "Concatenate", "config": {"name": "RDB_Concat_2_1_3", "trainable": true, "dtype": "float32", "axis": 3}, "name": "RDB_Concat_2_1_3", "inbound_nodes": [[["RDB_Concat_2_1_2", 0, 0, {}], ["F_2_1_3_Relu", 0, 0, {}]]]}, {"class_name": "Conv2D", "config": {"name": "F_2_1_4", "trainable": true, "dtype": "float32", "filters": 32, "kernel_size": [3, 3], "strides": [1, 1], "padding": "same", "data_format": "channels_last", "dilation_rate": [1, 1], "groups": 1, "activation": "linear", "use_bias": true, "kernel_initializer": {"class_name": "RandomUniform", "config": {"minval": -0.05, "maxval": 0.05, "seed": null}, "shared_object_id": 1}, "bias_initializer": {"class_name": "Zeros", "config": {}}, "kernel_regularizer": null, "bias_regularizer": null, "activity_regularizer": null, "kernel_constraint": null, "bias_constraint": null}, "name": "F_2_1_4", "inbound_nodes": [[["RDB_Concat_2_1_3", 0, 0, {}]]]}, {"class_name": "Activation", "config": {"name": "F_2_1_4_Relu", "trainable": true, "dtype": "float32", "activation": "relu"}, "name": "F_2_1_4_Relu", "inbound_nodes": [[["F_2_1_4", 0, 0, {}]]]}, {"class_name": "Concatenate", "config": {"name": "RDB_Concat_2_1_4", "trainable": true, "dtype": "float32", "axis": 3}, "name": "RDB_Concat_2_1_4", "inbound_nodes": [[["RDB_Concat_2_1_3", 0, 0, {}], ["F_2_1_4_Relu", 0, 0, {}]]]}, {"class_name": "Conv2D", "config": {"name": "LFF_2_1", "trainable": true, "dtype": "float32", "filters": 64, "kernel_size": [3, 3], "strides": [1, 1], "padding": "same", "data_format": "channels_last", "dilation_rate": [1, 1], "groups": 1, "activation": "linear", "use_bias": true, "kernel_initializer": {"class_name": "RandomUniform", "config": {"minval": -0.05, "maxval": 0.05, "seed": null}, "shared_object_id": 1}, "bias_initializer": {"class_name": "Zeros", "config": {}}, "kernel_regularizer": null, "bias_regularizer": null, "activity_regularizer": null, "kernel_constraint": null, "bias_constraint": null}, "name": "LFF_2_1", "inbound_nodes": [[["RDB_Concat_2_1_4", 0, 0, {}]]]}, {"class_name": "MultiplyBeta", "config": {"name": "multiply_beta_4", "trainable": true, "dtype": "float32", "beta": 0.2}, "name": "multiply_beta_4", "inbound_nodes": [[["LFF_2_1", 0, 0, {}]]]}, {"class_name": "Add", "config": {"name": "LRL_2_1", "trainable": true, "dtype": "float32"}, "name": "LRL_2_1", "inbound_nodes": [[["RRDB_1_out", 0, 0, {}], ["multiply_beta_4", 0, 0, {}]]]}, {"class_name": "Conv2D", "config": {"name": "F_2_2_1", "trainable": true, "dtype": "float32", "filters": 32, "kernel_size": [3, 3], "strides": [1, 1], "padding": "same", "data_format": "channels_last", "dilation_rate": [1, 1], "groups": 1, "activation": "linear", "use_bias": true, "kernel_initializer": {"class_name": "RandomUniform", "config": {"minval": -0.05, "maxval": 0.05, "seed": null}, "shared_object_id": 1}, "bias_initializer": {"class_name": "Zeros", "config": {}}, "kernel_regularizer": null, "bias_regularizer": null, "activity_regularizer": null, "kernel_constraint": null, "bias_constraint": null}, "name": "F_2_2_1", "inbound_nodes": [[["LRL_2_1", 0, 0, {}]]]}, {"class_name": "Activation", "config": {"name": "F_2_2_1_Relu", "trainable": true, "dtype": "float32", "activation": "relu"}, "name": "F_2_2_1_Relu", "inbound_nodes": [[["F_2_2_1", 0, 0, {}]]]}, {"class_name": "Concatenate", "config": {"name": "RDB_Concat_2_2_1", "trainable": true, "dtype": "float32", "axis": 3}, "name": "RDB_Concat_2_2_1", "inbound_nodes": [[["LRL_2_1", 0, 0, {}], ["F_2_2_1_Relu", 0, 0, {}]]]}, {"class_name": "Conv2D", "config": {"name": "F_2_2_2", "trainable": true, "dtype": "float32", "filters": 32, "kernel_size": [3, 3], "strides": [1, 1], "padding": "same", "data_format": "channels_last", "dilation_rate": [1, 1], "groups": 1, "activation": "linear", "use_bias": true, "kernel_initializer": {"class_name": "RandomUniform", "config": {"minval": -0.05, "maxval": 0.05, "seed": null}, "shared_object_id": 1}, "bias_initializer": {"class_name": "Zeros", "config": {}}, "kernel_regularizer": null, "bias_regularizer": null, "activity_regularizer": null, "kernel_constraint": null, "bias_constraint": null}, "name": "F_2_2_2", "inbound_nodes": [[["RDB_Concat_2_2_1", 0, 0, {}]]]}, {"class_name": "Activation", "config": {"name": "F_2_2_2_Relu", "trainable": true, "dtype": "float32", "activation": "relu"}, "name": "F_2_2_2_Relu", "inbound_nodes": [[["F_2_2_2", 0, 0, {}]]]}, {"class_name": "Concatenate", "config": {"name": "RDB_Concat_2_2_2", "trainable": true, "dtype": "float32", "axis": 3}, "name": "RDB_Concat_2_2_2", "inbound_nodes": [[["RDB_Concat_2_2_1", 0, 0, {}], ["F_2_2_2_Relu", 0, 0, {}]]]}, {"class_name": "Conv2D", "config": {"name": "F_2_2_3", "trainable": true, "dtype": "float32", "filters": 32, "kernel_size": [3, 3], "strides": [1, 1], "padding": "same", "data_format": "channels_last", "dilation_rate": [1, 1], "groups": 1, "activation": "linear", "use_bias": true, "kernel_initializer": {"class_name": "RandomUniform", "config": {"minval": -0.05, "maxval": 0.05, "seed": null}, "shared_object_id": 1}, "bias_initializer": {"class_name": "Zeros", "config": {}}, "kernel_regularizer": null, "bias_regularizer": null, "activity_regularizer": null, "kernel_constraint": null, "bias_constraint": null}, "name": "F_2_2_3", "inbound_nodes": [[["RDB_Concat_2_2_2", 0, 0, {}]]]}, {"class_name": "Activation", "config": {"name": "F_2_2_3_Relu", "trainable": true, "dtype": "float32", "activation": "relu"}, "name": "F_2_2_3_Relu", "inbound_nodes": [[["F_2_2_3", 0, 0, {}]]]}, {"class_name": "Concatenate", "config": {"name": "RDB_Concat_2_2_3", "trainable": true, "dtype": "float32", "axis": 3}, "name": "RDB_Concat_2_2_3", "inbound_nodes": [[["RDB_Concat_2_2_2", 0, 0, {}], ["F_2_2_3_Relu", 0, 0, {}]]]}, {"class_name": "Conv2D", "config": {"name": "F_2_2_4", "trainable": true, "dtype": "float32", "filters": 32, "kernel_size": [3, 3], "strides": [1, 1], "padding": "same", "data_format": "channels_last", "dilation_rate": [1, 1], "groups": 1, "activation": "linear", "use_bias": true, "kernel_initializer": {"class_name": "RandomUniform", "config": {"minval": -0.05, "maxval": 0.05, "seed": null}, "shared_object_id": 1}, "bias_initializer": {"class_name": "Zeros", "config": {}}, "kernel_regularizer": null, "bias_regularizer": null, "activity_regularizer": null, "kernel_constraint": null, "bias_constraint": null}, "name": "F_2_2_4", "inbound_nodes": [[["RDB_Concat_2_2_3", 0, 0, {}]]]}, {"class_name": "Activation", "config": {"name": "F_2_2_4_Relu", "trainable": true, "dtype": "float32", "activation": "relu"}, "name": "F_2_2_4_Relu", "inbound_nodes": [[["F_2_2_4", 0, 0, {}]]]}, {"class_name": "Concatenate", "config": {"name": "RDB_Concat_2_2_4", "trainable": true, "dtype": "float32", "axis": 3}, "name": "RDB_Concat_2_2_4", "inbound_nodes": [[["RDB_Concat_2_2_3", 0, 0, {}], ["F_2_2_4_Relu", 0, 0, {}]]]}, {"class_name": "Conv2D", "config": {"name": "LFF_2_2", "trainable": true, "dtype": "float32", "filters": 64, "kernel_size": [3, 3], "strides": [1, 1], "padding": "same", "data_format": "channels_last", "dilation_rate": [1, 1], "groups": 1, "activation": "linear", "use_bias": true, "kernel_initializer": {"class_name": "RandomUniform", "config": {"minval": -0.05, "maxval": 0.05, "seed": null}, "shared_object_id": 1}, "bias_initializer": {"class_name": "Zeros", "config": {}}, "kernel_regularizer": null, "bias_regularizer": null, "activity_regularizer": null, "kernel_constraint": null, "bias_constraint": null}, "name": "LFF_2_2", "inbound_nodes": [[["RDB_Concat_2_2_4", 0, 0, {}]]]}, {"class_name": "MultiplyBeta", "config": {"name": "multiply_beta_5", "trainable": true, "dtype": "float32", "beta": 0.2}, "name": "multiply_beta_5", "inbound_nodes": [[["LFF_2_2", 0, 0, {}]]]}, {"class_name": "Add", "config": {"name": "LRL_2_2", "trainable": true, "dtype": "float32"}, "name": "LRL_2_2", "inbound_nodes": [[["LRL_2_1", 0, 0, {}], ["multiply_beta_5", 0, 0, {}]]]}, {"class_name": "Conv2D", "config": {"name": "F_2_3_1", "trainable": true, "dtype": "float32", "filters": 32, "kernel_size": [3, 3], "strides": [1, 1], "padding": "same", "data_format": "channels_last", "dilation_rate": [1, 1], "groups": 1, "activation": "linear", "use_bias": true, "kernel_initializer": {"class_name": "RandomUniform", "config": {"minval": -0.05, "maxval": 0.05, "seed": null}, "shared_object_id": 1}, "bias_initializer": {"class_name": "Zeros", "config": {}}, "kernel_regularizer": null, "bias_regularizer": null, "activity_regularizer": null, "kernel_constraint": null, "bias_constraint": null}, "name": "F_2_3_1", "inbound_nodes": [[["LRL_2_2", 0, 0, {}]]]}, {"class_name": "Activation", "config": {"name": "F_2_3_1_Relu", "trainable": true, "dtype": "float32", "activation": "relu"}, "name": "F_2_3_1_Relu", "inbound_nodes": [[["F_2_3_1", 0, 0, {}]]]}, {"class_name": "Concatenate", "config": {"name": "RDB_Concat_2_3_1", "trainable": true, "dtype": "float32", "axis": 3}, "name": "RDB_Concat_2_3_1", "inbound_nodes": [[["LRL_2_2", 0, 0, {}], ["F_2_3_1_Relu", 0, 0, {}]]]}, {"class_name": "Conv2D", "config": {"name": "F_2_3_2", "trainable": true, "dtype": "float32", "filters": 32, "kernel_size": [3, 3], "strides": [1, 1], "padding": "same", "data_format": "channels_last", "dilation_rate": [1, 1], "groups": 1, "activation": "linear", "use_bias": true, "kernel_initializer": {"class_name": "RandomUniform", "config": {"minval": -0.05, "maxval": 0.05, "seed": null}, "shared_object_id": 1}, "bias_initializer": {"class_name": "Zeros", "config": {}}, "kernel_regularizer": null, "bias_regularizer": null, "activity_regularizer": null, "kernel_constraint": null, "bias_constraint": null}, "name": "F_2_3_2", "inbound_nodes": [[["RDB_Concat_2_3_1", 0, 0, {}]]]}, {"class_name": "Activation", "config": {"name": "F_2_3_2_Relu", "trainable": true, "dtype": "float32", "activation": "relu"}, "name": "F_2_3_2_Relu", "inbound_nodes": [[["F_2_3_2", 0, 0, {}]]]}, {"class_name": "Concatenate", "config": {"name": "RDB_Concat_2_3_2", "trainable": true, "dtype": "float32", "axis": 3}, "name": "RDB_Concat_2_3_2", "inbound_nodes": [[["RDB_Concat_2_3_1", 0, 0, {}], ["F_2_3_2_Relu", 0, 0, {}]]]}, {"class_name": "Conv2D", "config": {"name": "F_2_3_3", "trainable": true, "dtype": "float32", "filters": 32, "kernel_size": [3, 3], "strides": [1, 1], "padding": "same", "data_format": "channels_last", "dilation_rate": [1, 1], "groups": 1, "activation": "linear", "use_bias": true, "kernel_initializer": {"class_name": "RandomUniform", "config": {"minval": -0.05, "maxval": 0.05, "seed": null}, "shared_object_id": 1}, "bias_initializer": {"class_name": "Zeros", "config": {}}, "kernel_regularizer": null, "bias_regularizer": null, "activity_regularizer": null, "kernel_constraint": null, "bias_constraint": null}, "name": "F_2_3_3", "inbound_nodes": [[["RDB_Concat_2_3_2", 0, 0, {}]]]}, {"class_name": "Activation", "config": {"name": "F_2_3_3_Relu", "trainable": true, "dtype": "float32", "activation": "relu"}, "name": "F_2_3_3_Relu", "inbound_nodes": [[["F_2_3_3", 0, 0, {}]]]}, {"class_name": "Concatenate", "config": {"name": "RDB_Concat_2_3_3", "trainable": true, "dtype": "float32", "axis": 3}, "name": "RDB_Concat_2_3_3", "inbound_nodes": [[["RDB_Concat_2_3_2", 0, 0, {}], ["F_2_3_3_Relu", 0, 0, {}]]]}, {"class_name": "Conv2D", "config": {"name": "F_2_3_4", "trainable": true, "dtype": "float32", "filters": 32, "kernel_size": [3, 3], "strides": [1, 1], "padding": "same", "data_format": "channels_last", "dilation_rate": [1, 1], "groups": 1, "activation": "linear", "use_bias": true, "kernel_initializer": {"class_name": "RandomUniform", "config": {"minval": -0.05, "maxval": 0.05, "seed": null}, "shared_object_id": 1}, "bias_initializer": {"class_name": "Zeros", "config": {}}, "kernel_regularizer": null, "bias_regularizer": null, "activity_regularizer": null, "kernel_constraint": null, "bias_constraint": null}, "name": "F_2_3_4", "inbound_nodes": [[["RDB_Concat_2_3_3", 0, 0, {}]]]}, {"class_name": "Activation", "config": {"name": "F_2_3_4_Relu", "trainable": true, "dtype": "float32", "activation": "relu"}, "name": "F_2_3_4_Relu", "inbound_nodes": [[["F_2_3_4", 0, 0, {}]]]}, {"class_name": "Concatenate", "config": {"name": "RDB_Concat_2_3_4", "trainable": true, "dtype": "float32", "axis": 3}, "name": "RDB_Concat_2_3_4", "inbound_nodes": [[["RDB_Concat_2_3_3", 0, 0, {}], ["F_2_3_4_Relu", 0, 0, {}]]]}, {"class_name": "Conv2D", "config": {"name": "LFF_2_3", "trainable": true, "dtype": "float32", "filters": 64, "kernel_size": [3, 3], "strides": [1, 1], "padding": "same", "data_format": "channels_last", "dilation_rate": [1, 1], "groups": 1, "activation": "linear", "use_bias": true, "kernel_initializer": {"class_name": "RandomUniform", "config": {"minval": -0.05, "maxval": 0.05, "seed": null}, "shared_object_id": 1}, "bias_initializer": {"class_name": "Zeros", "config": {}}, "kernel_regularizer": null, "bias_regularizer": null, "activity_regularizer": null, "kernel_constraint": null, "bias_constraint": null}, "name": "LFF_2_3", "inbound_nodes": [[["RDB_Concat_2_3_4", 0, 0, {}]]]}, {"class_name": "MultiplyBeta", "config": {"name": "multiply_beta_6", "trainable": true, "dtype": "float32", "beta": 0.2}, "name": "multiply_beta_6", "inbound_nodes": [[["LFF_2_3", 0, 0, {}]]]}, {"class_name": "Add", "config": {"name": "LRL_2_3", "trainable": true, "dtype": "float32"}, "name": "LRL_2_3", "inbound_nodes": [[["LRL_2_2", 0, 0, {}], ["multiply_beta_6", 0, 0, {}]]]}, {"class_name": "MultiplyBeta", "config": {"name": "multiply_beta_7", "trainable": true, "dtype": "float32", "beta": 0.2}, "name": "multiply_beta_7", "inbound_nodes": [[["LRL_2_3", 0, 0, {}]]]}, {"class_name": "Add", "config": {"name": "RRDB_2_out", "trainable": true, "dtype": "float32"}, "name": "RRDB_2_out", "inbound_nodes": [[["RRDB_1_out", 0, 0, {}], ["multiply_beta_7", 0, 0, {}]]]}, {"class_name": "Conv2D", "config": {"name": "F_3_1_1", "trainable": true, "dtype": "float32", "filters": 32, "kernel_size": [3, 3], "strides": [1, 1], "padding": "same", "data_format": "channels_last", "dilation_rate": [1, 1], "groups": 1, "activation": "linear", "use_bias": true, "kernel_initializer": {"class_name": "RandomUniform", "config": {"minval": -0.05, "maxval": 0.05, "seed": null}, "shared_object_id": 1}, "bias_initializer": {"class_name": "Zeros", "config": {}}, "kernel_regularizer": null, "bias_regularizer": null, "activity_regularizer": null, "kernel_constraint": null, "bias_constraint": null}, "name": "F_3_1_1", "inbound_nodes": [[["RRDB_2_out", 0, 0, {}]]]}, {"class_name": "Activation", "config": {"name": "F_3_1_1_Relu", "trainable": true, "dtype": "float32", "activation": "relu"}, "name": "F_3_1_1_Relu", "inbound_nodes": [[["F_3_1_1", 0, 0, {}]]]}, {"class_name": "Concatenate", "config": {"name": "RDB_Concat_3_1_1", "trainable": true, "dtype": "float32", "axis": 3}, "name": "RDB_Concat_3_1_1", "inbound_nodes": [[["RRDB_2_out", 0, 0, {}], ["F_3_1_1_Relu", 0, 0, {}]]]}, {"class_name": "Conv2D", "config": {"name": "F_3_1_2", "trainable": true, "dtype": "float32", "filters": 32, "kernel_size": [3, 3], "strides": [1, 1], "padding": "same", "data_format": "channels_last", "dilation_rate": [1, 1], "groups": 1, "activation": "linear", "use_bias": true, "kernel_initializer": {"class_name": "RandomUniform", "config": {"minval": -0.05, "maxval": 0.05, "seed": null}, "shared_object_id": 1}, "bias_initializer": {"class_name": "Zeros", "config": {}}, "kernel_regularizer": null, "bias_regularizer": null, "activity_regularizer": null, "kernel_constraint": null, "bias_constraint": null}, "name": "F_3_1_2", "inbound_nodes": [[["RDB_Concat_3_1_1", 0, 0, {}]]]}, {"class_name": "Activation", "config": {"name": "F_3_1_2_Relu", "trainable": true, "dtype": "float32", "activation": "relu"}, "name": "F_3_1_2_Relu", "inbound_nodes": [[["F_3_1_2", 0, 0, {}]]]}, {"class_name": "Concatenate", "config": {"name": "RDB_Concat_3_1_2", "trainable": true, "dtype": "float32", "axis": 3}, "name": "RDB_Concat_3_1_2", "inbound_nodes": [[["RDB_Concat_3_1_1", 0, 0, {}], ["F_3_1_2_Relu", 0, 0, {}]]]}, {"class_name": "Conv2D", "config": {"name": "F_3_1_3", "trainable": true, "dtype": "float32", "filters": 32, "kernel_size": [3, 3], "strides": [1, 1], "padding": "same", "data_format": "channels_last", "dilation_rate": [1, 1], "groups": 1, "activation": "linear", "use_bias": true, "kernel_initializer": {"class_name": "RandomUniform", "config": {"minval": -0.05, "maxval": 0.05, "seed": null}, "shared_object_id": 1}, "bias_initializer": {"class_name": "Zeros", "config": {}}, "kernel_regularizer": null, "bias_regularizer": null, "activity_regularizer": null, "kernel_constraint": null, "bias_constraint": null}, "name": "F_3_1_3", "inbound_nodes": [[["RDB_Concat_3_1_2", 0, 0, {}]]]}, {"class_name": "Activation", "config": {"name": "F_3_1_3_Relu", "trainable": true, "dtype": "float32", "activation": "relu"}, "name": "F_3_1_3_Relu", "inbound_nodes": [[["F_3_1_3", 0, 0, {}]]]}, {"class_name": "Concatenate", "config": {"name": "RDB_Concat_3_1_3", "trainable": true, "dtype": "float32", "axis": 3}, "name": "RDB_Concat_3_1_3", "inbound_nodes": [[["RDB_Concat_3_1_2", 0, 0, {}], ["F_3_1_3_Relu", 0, 0, {}]]]}, {"class_name": "Conv2D", "config": {"name": "F_3_1_4", "trainable": true, "dtype": "float32", "filters": 32, "kernel_size": [3, 3], "strides": [1, 1], "padding": "same", "data_format": "channels_last", "dilation_rate": [1, 1], "groups": 1, "activation": "linear", "use_bias": true, "kernel_initializer": {"class_name": "RandomUniform", "config": {"minval": -0.05, "maxval": 0.05, "seed": null}, "shared_object_id": 1}, "bias_initializer": {"class_name": "Zeros", "config": {}}, "kernel_regularizer": null, "bias_regularizer": null, "activity_regularizer": null, "kernel_constraint": null, "bias_constraint": null}, "name": "F_3_1_4", "inbound_nodes": [[["RDB_Concat_3_1_3", 0, 0, {}]]]}, {"class_name": "Activation", "config": {"name": "F_3_1_4_Relu", "trainable": true, "dtype": "float32", "activation": "relu"}, "name": "F_3_1_4_Relu", "inbound_nodes": [[["F_3_1_4", 0, 0, {}]]]}, {"class_name": "Concatenate", "config": {"name": "RDB_Concat_3_1_4", "trainable": true, "dtype": "float32", "axis": 3}, "name": "RDB_Concat_3_1_4", "inbound_nodes": [[["RDB_Concat_3_1_3", 0, 0, {}], ["F_3_1_4_Relu", 0, 0, {}]]]}, {"class_name": "Conv2D", "config": {"name": "LFF_3_1", "trainable": true, "dtype": "float32", "filters": 64, "kernel_size": [3, 3], "strides": [1, 1], "padding": "same", "data_format": "channels_last", "dilation_rate": [1, 1], "groups": 1, "activation": "linear", "use_bias": true, "kernel_initializer": {"class_name": "RandomUniform", "config": {"minval": -0.05, "maxval": 0.05, "seed": null}, "shared_object_id": 1}, "bias_initializer": {"class_name": "Zeros", "config": {}}, "kernel_regularizer": null, "bias_regularizer": null, "activity_regularizer": null, "kernel_constraint": null, "bias_constraint": null}, "name": "LFF_3_1", "inbound_nodes": [[["RDB_Concat_3_1_4", 0, 0, {}]]]}, {"class_name": "MultiplyBeta", "config": {"name": "multiply_beta_8", "trainable": true, "dtype": "float32", "beta": 0.2}, "name": "multiply_beta_8", "inbound_nodes": [[["LFF_3_1", 0, 0, {}]]]}, {"class_name": "Add", "config": {"name": "LRL_3_1", "trainable": true, "dtype": "float32"}, "name": "LRL_3_1", "inbound_nodes": [[["RRDB_2_out", 0, 0, {}], ["multiply_beta_8", 0, 0, {}]]]}, {"class_name": "Conv2D", "config": {"name": "F_3_2_1", "trainable": true, "dtype": "float32", "filters": 32, "kernel_size": [3, 3], "strides": [1, 1], "padding": "same", "data_format": "channels_last", "dilation_rate": [1, 1], "groups": 1, "activation": "linear", "use_bias": true, "kernel_initializer": {"class_name": "RandomUniform", "config": {"minval": -0.05, "maxval": 0.05, "seed": null}, "shared_object_id": 1}, "bias_initializer": {"class_name": "Zeros", "config": {}}, "kernel_regularizer": null, "bias_regularizer": null, "activity_regularizer": null, "kernel_constraint": null, "bias_constraint": null}, "name": "F_3_2_1", "inbound_nodes": [[["LRL_3_1", 0, 0, {}]]]}, {"class_name": "Activation", "config": {"name": "F_3_2_1_Relu", "trainable": true, "dtype": "float32", "activation": "relu"}, "name": "F_3_2_1_Relu", "inbound_nodes": [[["F_3_2_1", 0, 0, {}]]]}, {"class_name": "Concatenate", "config": {"name": "RDB_Concat_3_2_1", "trainable": true, "dtype": "float32", "axis": 3}, "name": "RDB_Concat_3_2_1", "inbound_nodes": [[["LRL_3_1", 0, 0, {}], ["F_3_2_1_Relu", 0, 0, {}]]]}, {"class_name": "Conv2D", "config": {"name": "F_3_2_2", "trainable": true, "dtype": "float32", "filters": 32, "kernel_size": [3, 3], "strides": [1, 1], "padding": "same", "data_format": "channels_last", "dilation_rate": [1, 1], "groups": 1, "activation": "linear", "use_bias": true, "kernel_initializer": {"class_name": "RandomUniform", "config": {"minval": -0.05, "maxval": 0.05, "seed": null}, "shared_object_id": 1}, "bias_initializer": {"class_name": "Zeros", "config": {}}, "kernel_regularizer": null, "bias_regularizer": null, "activity_regularizer": null, "kernel_constraint": null, "bias_constraint": null}, "name": "F_3_2_2", "inbound_nodes": [[["RDB_Concat_3_2_1", 0, 0, {}]]]}, {"class_name": "Activation", "config": {"name": "F_3_2_2_Relu", "trainable": true, "dtype": "float32", "activation": "relu"}, "name": "F_3_2_2_Relu", "inbound_nodes": [[["F_3_2_2", 0, 0, {}]]]}, {"class_name": "Concatenate", "config": {"name": "RDB_Concat_3_2_2", "trainable": true, "dtype": "float32", "axis": 3}, "name": "RDB_Concat_3_2_2", "inbound_nodes": [[["RDB_Concat_3_2_1", 0, 0, {}], ["F_3_2_2_Relu", 0, 0, {}]]]}, {"class_name": "Conv2D", "config": {"name": "F_3_2_3", "trainable": true, "dtype": "float32", "filters": 32, "kernel_size": [3, 3], "strides": [1, 1], "padding": "same", "data_format": "channels_last", "dilation_rate": [1, 1], "groups": 1, "activation": "linear", "use_bias": true, "kernel_initializer": {"class_name": "RandomUniform", "config": {"minval": -0.05, "maxval": 0.05, "seed": null}, "shared_object_id": 1}, "bias_initializer": {"class_name": "Zeros", "config": {}}, "kernel_regularizer": null, "bias_regularizer": null, "activity_regularizer": null, "kernel_constraint": null, "bias_constraint": null}, "name": "F_3_2_3", "inbound_nodes": [[["RDB_Concat_3_2_2", 0, 0, {}]]]}, {"class_name": "Activation", "config": {"name": "F_3_2_3_Relu", "trainable": true, "dtype": "float32", "activation": "relu"}, "name": "F_3_2_3_Relu", "inbound_nodes": [[["F_3_2_3", 0, 0, {}]]]}, {"class_name": "Concatenate", "config": {"name": "RDB_Concat_3_2_3", "trainable": true, "dtype": "float32", "axis": 3}, "name": "RDB_Concat_3_2_3", "inbound_nodes": [[["RDB_Concat_3_2_2", 0, 0, {}], ["F_3_2_3_Relu", 0, 0, {}]]]}, {"class_name": "Conv2D", "config": {"name": "F_3_2_4", "trainable": true, "dtype": "float32", "filters": 32, "kernel_size": [3, 3], "strides": [1, 1], "padding": "same", "data_format": "channels_last", "dilation_rate": [1, 1], "groups": 1, "activation": "linear", "use_bias": true, "kernel_initializer": {"class_name": "RandomUniform", "config": {"minval": -0.05, "maxval": 0.05, "seed": null}, "shared_object_id": 1}, "bias_initializer": {"class_name": "Zeros", "config": {}}, "kernel_regularizer": null, "bias_regularizer": null, "activity_regularizer": null, "kernel_constraint": null, "bias_constraint": null}, "name": "F_3_2_4", "inbound_nodes": [[["RDB_Concat_3_2_3", 0, 0, {}]]]}, {"class_name": "Activation", "config": {"name": "F_3_2_4_Relu", "trainable": true, "dtype": "float32", "activation": "relu"}, "name": "F_3_2_4_Relu", "inbound_nodes": [[["F_3_2_4", 0, 0, {}]]]}, {"class_name": "Concatenate", "config": {"name": "RDB_Concat_3_2_4", "trainable": true, "dtype": "float32", "axis": 3}, "name": "RDB_Concat_3_2_4", "inbound_nodes": [[["RDB_Concat_3_2_3", 0, 0, {}], ["F_3_2_4_Relu", 0, 0, {}]]]}, {"class_name": "Conv2D", "config": {"name": "LFF_3_2", "trainable": true, "dtype": "float32", "filters": 64, "kernel_size": [3, 3], "strides": [1, 1], "padding": "same", "data_format": "channels_last", "dilation_rate": [1, 1], "groups": 1, "activation": "linear", "use_bias": true, "kernel_initializer": {"class_name": "RandomUniform", "config": {"minval": -0.05, "maxval": 0.05, "seed": null}, "shared_object_id": 1}, "bias_initializer": {"class_name": "Zeros", "config": {}}, "kernel_regularizer": null, "bias_regularizer": null, "activity_regularizer": null, "kernel_constraint": null, "bias_constraint": null}, "name": "LFF_3_2", "inbound_nodes": [[["RDB_Concat_3_2_4", 0, 0, {}]]]}, {"class_name": "MultiplyBeta", "config": {"name": "multiply_beta_9", "trainable": true, "dtype": "float32", "beta": 0.2}, "name": "multiply_beta_9", "inbound_nodes": [[["LFF_3_2", 0, 0, {}]]]}, {"class_name": "Add", "config": {"name": "LRL_3_2", "trainable": true, "dtype": "float32"}, "name": "LRL_3_2", "inbound_nodes": [[["LRL_3_1", 0, 0, {}], ["multiply_beta_9", 0, 0, {}]]]}, {"class_name": "Conv2D", "config": {"name": "F_3_3_1", "trainable": true, "dtype": "float32", "filters": 32, "kernel_size": [3, 3], "strides": [1, 1], "padding": "same", "data_format": "channels_last", "dilation_rate": [1, 1], "groups": 1, "activation": "linear", "use_bias": true, "kernel_initializer": {"class_name": "RandomUniform", "config": {"minval": -0.05, "maxval": 0.05, "seed": null}, "shared_object_id": 1}, "bias_initializer": {"class_name": "Zeros", "config": {}}, "kernel_regularizer": null, "bias_regularizer": null, "activity_regularizer": null, "kernel_constraint": null, "bias_constraint": null}, "name": "F_3_3_1", "inbound_nodes": [[["LRL_3_2", 0, 0, {}]]]}, {"class_name": "Activation", "config": {"name": "F_3_3_1_Relu", "trainable": true, "dtype": "float32", "activation": "relu"}, "name": "F_3_3_1_Relu", "inbound_nodes": [[["F_3_3_1", 0, 0, {}]]]}, {"class_name": "Concatenate", "config": {"name": "RDB_Concat_3_3_1", "trainable": true, "dtype": "float32", "axis": 3}, "name": "RDB_Concat_3_3_1", "inbound_nodes": [[["LRL_3_2", 0, 0, {}], ["F_3_3_1_Relu", 0, 0, {}]]]}, {"class_name": "Conv2D", "config": {"name": "F_3_3_2", "trainable": true, "dtype": "float32", "filters": 32, "kernel_size": [3, 3], "strides": [1, 1], "padding": "same", "data_format": "channels_last", "dilation_rate": [1, 1], "groups": 1, "activation": "linear", "use_bias": true, "kernel_initializer": {"class_name": "RandomUniform", "config": {"minval": -0.05, "maxval": 0.05, "seed": null}, "shared_object_id": 1}, "bias_initializer": {"class_name": "Zeros", "config": {}}, "kernel_regularizer": null, "bias_regularizer": null, "activity_regularizer": null, "kernel_constraint": null, "bias_constraint": null}, "name": "F_3_3_2", "inbound_nodes": [[["RDB_Concat_3_3_1", 0, 0, {}]]]}, {"class_name": "Activation", "config": {"name": "F_3_3_2_Relu", "trainable": true, "dtype": "float32", "activation": "relu"}, "name": "F_3_3_2_Relu", "inbound_nodes": [[["F_3_3_2", 0, 0, {}]]]}, {"class_name": "Concatenate", "config": {"name": "RDB_Concat_3_3_2", "trainable": true, "dtype": "float32", "axis": 3}, "name": "RDB_Concat_3_3_2", "inbound_nodes": [[["RDB_Concat_3_3_1", 0, 0, {}], ["F_3_3_2_Relu", 0, 0, {}]]]}, {"class_name": "Conv2D", "config": {"name": "F_3_3_3", "trainable": true, "dtype": "float32", "filters": 32, "kernel_size": [3, 3], "strides": [1, 1], "padding": "same", "data_format": "channels_last", "dilation_rate": [1, 1], "groups": 1, "activation": "linear", "use_bias": true, "kernel_initializer": {"class_name": "RandomUniform", "config": {"minval": -0.05, "maxval": 0.05, "seed": null}, "shared_object_id": 1}, "bias_initializer": {"class_name": "Zeros", "config": {}}, "kernel_regularizer": null, "bias_regularizer": null, "activity_regularizer": null, "kernel_constraint": null, "bias_constraint": null}, "name": "F_3_3_3", "inbound_nodes": [[["RDB_Concat_3_3_2", 0, 0, {}]]]}, {"class_name": "Activation", "config": {"name": "F_3_3_3_Relu", "trainable": true, "dtype": "float32", "activation": "relu"}, "name": "F_3_3_3_Relu", "inbound_nodes": [[["F_3_3_3", 0, 0, {}]]]}, {"class_name": "Concatenate", "config": {"name": "RDB_Concat_3_3_3", "trainable": true, "dtype": "float32", "axis": 3}, "name": "RDB_Concat_3_3_3", "inbound_nodes": [[["RDB_Concat_3_3_2", 0, 0, {}], ["F_3_3_3_Relu", 0, 0, {}]]]}, {"class_name": "Conv2D", "config": {"name": "F_3_3_4", "trainable": true, "dtype": "float32", "filters": 32, "kernel_size": [3, 3], "strides": [1, 1], "padding": "same", "data_format": "channels_last", "dilation_rate": [1, 1], "groups": 1, "activation": "linear", "use_bias": true, "kernel_initializer": {"class_name": "RandomUniform", "config": {"minval": -0.05, "maxval": 0.05, "seed": null}, "shared_object_id": 1}, "bias_initializer": {"class_name": "Zeros", "config": {}}, "kernel_regularizer": null, "bias_regularizer": null, "activity_regularizer": null, "kernel_constraint": null, "bias_constraint": null}, "name": "F_3_3_4", "inbound_nodes": [[["RDB_Concat_3_3_3", 0, 0, {}]]]}, {"class_name": "Activation", "config": {"name": "F_3_3_4_Relu", "trainable": true, "dtype": "float32", "activation": "relu"}, "name": "F_3_3_4_Relu", "inbound_nodes": [[["F_3_3_4", 0, 0, {}]]]}, {"class_name": "Concatenate", "config": {"name": "RDB_Concat_3_3_4", "trainable": true, "dtype": "float32", "axis": 3}, "name": "RDB_Concat_3_3_4", "inbound_nodes": [[["RDB_Concat_3_3_3", 0, 0, {}], ["F_3_3_4_Relu", 0, 0, {}]]]}, {"class_name": "Conv2D", "config": {"name": "LFF_3_3", "trainable": true, "dtype": "float32", "filters": 64, "kernel_size": [3, 3], "strides": [1, 1], "padding": "same", "data_format": "channels_last", "dilation_rate": [1, 1], "groups": 1, "activation": "linear", "use_bias": true, "kernel_initializer": {"class_name": "RandomUniform", "config": {"minval": -0.05, "maxval": 0.05, "seed": null}, "shared_object_id": 1}, "bias_initializer": {"class_name": "Zeros", "config": {}}, "kernel_regularizer": null, "bias_regularizer": null, "activity_regularizer": null, "kernel_constraint": null, "bias_constraint": null}, "name": "LFF_3_3", "inbound_nodes": [[["RDB_Concat_3_3_4", 0, 0, {}]]]}, {"class_name": "MultiplyBeta", "config": {"name": "multiply_beta_10", "trainable": true, "dtype": "float32", "beta": 0.2}, "name": "multiply_beta_10", "inbound_nodes": [[["LFF_3_3", 0, 0, {}]]]}, {"class_name": "Add", "config": {"name": "LRL_3_3", "trainable": true, "dtype": "float32"}, "name": "LRL_3_3", "inbound_nodes": [[["LRL_3_2", 0, 0, {}], ["multiply_beta_10", 0, 0, {}]]]}, {"class_name": "MultiplyBeta", "config": {"name": "multiply_beta_11", "trainable": true, "dtype": "float32", "beta": 0.2}, "name": "multiply_beta_11", "inbound_nodes": [[["LRL_3_3", 0, 0, {}]]]}, {"class_name": "Add", "config": {"name": "RRDB_3_out", "trainable": true, "dtype": "float32"}, "name": "RRDB_3_out", "inbound_nodes": [[["RRDB_2_out", 0, 0, {}], ["multiply_beta_11", 0, 0, {}]]]}, {"class_name": "Conv2D", "config": {"name": "F_4_1_1", "trainable": true, "dtype": "float32", "filters": 32, "kernel_size": [3, 3], "strides": [1, 1], "padding": "same", "data_format": "channels_last", "dilation_rate": [1, 1], "groups": 1, "activation": "linear", "use_bias": true, "kernel_initializer": {"class_name": "RandomUniform", "config": {"minval": -0.05, "maxval": 0.05, "seed": null}, "shared_object_id": 1}, "bias_initializer": {"class_name": "Zeros", "config": {}}, "kernel_regularizer": null, "bias_regularizer": null, "activity_regularizer": null, "kernel_constraint": null, "bias_constraint": null}, "name": "F_4_1_1", "inbound_nodes": [[["RRDB_3_out", 0, 0, {}]]]}, {"class_name": "Activation", "config": {"name": "F_4_1_1_Relu", "trainable": true, "dtype": "float32", "activation": "relu"}, "name": "F_4_1_1_Relu", "inbound_nodes": [[["F_4_1_1", 0, 0, {}]]]}, {"class_name": "Concatenate", "config": {"name": "RDB_Concat_4_1_1", "trainable": true, "dtype": "float32", "axis": 3}, "name": "RDB_Concat_4_1_1", "inbound_nodes": [[["RRDB_3_out", 0, 0, {}], ["F_4_1_1_Relu", 0, 0, {}]]]}, {"class_name": "Conv2D", "config": {"name": "F_4_1_2", "trainable": true, "dtype": "float32", "filters": 32, "kernel_size": [3, 3], "strides": [1, 1], "padding": "same", "data_format": "channels_last", "dilation_rate": [1, 1], "groups": 1, "activation": "linear", "use_bias": true, "kernel_initializer": {"class_name": "RandomUniform", "config": {"minval": -0.05, "maxval": 0.05, "seed": null}, "shared_object_id": 1}, "bias_initializer": {"class_name": "Zeros", "config": {}}, "kernel_regularizer": null, "bias_regularizer": null, "activity_regularizer": null, "kernel_constraint": null, "bias_constraint": null}, "name": "F_4_1_2", "inbound_nodes": [[["RDB_Concat_4_1_1", 0, 0, {}]]]}, {"class_name": "Activation", "config": {"name": "F_4_1_2_Relu", "trainable": true, "dtype": "float32", "activation": "relu"}, "name": "F_4_1_2_Relu", "inbound_nodes": [[["F_4_1_2", 0, 0, {}]]]}, {"class_name": "Concatenate", "config": {"name": "RDB_Concat_4_1_2", "trainable": true, "dtype": "float32", "axis": 3}, "name": "RDB_Concat_4_1_2", "inbound_nodes": [[["RDB_Concat_4_1_1", 0, 0, {}], ["F_4_1_2_Relu", 0, 0, {}]]]}, {"class_name": "Conv2D", "config": {"name": "F_4_1_3", "trainable": true, "dtype": "float32", "filters": 32, "kernel_size": [3, 3], "strides": [1, 1], "padding": "same", "data_format": "channels_last", "dilation_rate": [1, 1], "groups": 1, "activation": "linear", "use_bias": true, "kernel_initializer": {"class_name": "RandomUniform", "config": {"minval": -0.05, "maxval": 0.05, "seed": null}, "shared_object_id": 1}, "bias_initializer": {"class_name": "Zeros", "config": {}}, "kernel_regularizer": null, "bias_regularizer": null, "activity_regularizer": null, "kernel_constraint": null, "bias_constraint": null}, "name": "F_4_1_3", "inbound_nodes": [[["RDB_Concat_4_1_2", 0, 0, {}]]]}, {"class_name": "Activation", "config": {"name": "F_4_1_3_Relu", "trainable": true, "dtype": "float32", "activation": "relu"}, "name": "F_4_1_3_Relu", "inbound_nodes": [[["F_4_1_3", 0, 0, {}]]]}, {"class_name": "Concatenate", "config": {"name": "RDB_Concat_4_1_3", "trainable": true, "dtype": "float32", "axis": 3}, "name": "RDB_Concat_4_1_3", "inbound_nodes": [[["RDB_Concat_4_1_2", 0, 0, {}], ["F_4_1_3_Relu", 0, 0, {}]]]}, {"class_name": "Conv2D", "config": {"name": "F_4_1_4", "trainable": true, "dtype": "float32", "filters": 32, "kernel_size": [3, 3], "strides": [1, 1], "padding": "same", "data_format": "channels_last", "dilation_rate": [1, 1], "groups": 1, "activation": "linear", "use_bias": true, "kernel_initializer": {"class_name": "RandomUniform", "config": {"minval": -0.05, "maxval": 0.05, "seed": null}, "shared_object_id": 1}, "bias_initializer": {"class_name": "Zeros", "config": {}}, "kernel_regularizer": null, "bias_regularizer": null, "activity_regularizer": null, "kernel_constraint": null, "bias_constraint": null}, "name": "F_4_1_4", "inbound_nodes": [[["RDB_Concat_4_1_3", 0, 0, {}]]]}, {"class_name": "Activation", "config": {"name": "F_4_1_4_Relu", "trainable": true, "dtype": "float32", "activation": "relu"}, "name": "F_4_1_4_Relu", "inbound_nodes": [[["F_4_1_4", 0, 0, {}]]]}, {"class_name": "Concatenate", "config": {"name": "RDB_Concat_4_1_4", "trainable": true, "dtype": "float32", "axis": 3}, "name": "RDB_Concat_4_1_4", "inbound_nodes": [[["RDB_Concat_4_1_3", 0, 0, {}], ["F_4_1_4_Relu", 0, 0, {}]]]}, {"class_name": "Conv2D", "config": {"name": "LFF_4_1", "trainable": true, "dtype": "float32", "filters": 64, "kernel_size": [3, 3], "strides": [1, 1], "padding": "same", "data_format": "channels_last", "dilation_rate": [1, 1], "groups": 1, "activation": "linear", "use_bias": true, "kernel_initializer": {"class_name": "RandomUniform", "config": {"minval": -0.05, "maxval": 0.05, "seed": null}, "shared_object_id": 1}, "bias_initializer": {"class_name": "Zeros", "config": {}}, "kernel_regularizer": null, "bias_regularizer": null, "activity_regularizer": null, "kernel_constraint": null, "bias_constraint": null}, "name": "LFF_4_1", "inbound_nodes": [[["RDB_Concat_4_1_4", 0, 0, {}]]]}, {"class_name": "MultiplyBeta", "config": {"name": "multiply_beta_12", "trainable": true, "dtype": "float32", "beta": 0.2}, "name": "multiply_beta_12", "inbound_nodes": [[["LFF_4_1", 0, 0, {}]]]}, {"class_name": "Add", "config": {"name": "LRL_4_1", "trainable": true, "dtype": "float32"}, "name": "LRL_4_1", "inbound_nodes": [[["RRDB_3_out", 0, 0, {}], ["multiply_beta_12", 0, 0, {}]]]}, {"class_name": "Conv2D", "config": {"name": "F_4_2_1", "trainable": true, "dtype": "float32", "filters": 32, "kernel_size": [3, 3], "strides": [1, 1], "padding": "same", "data_format": "channels_last", "dilation_rate": [1, 1], "groups": 1, "activation": "linear", "use_bias": true, "kernel_initializer": {"class_name": "RandomUniform", "config": {"minval": -0.05, "maxval": 0.05, "seed": null}, "shared_object_id": 1}, "bias_initializer": {"class_name": "Zeros", "config": {}}, "kernel_regularizer": null, "bias_regularizer": null, "activity_regularizer": null, "kernel_constraint": null, "bias_constraint": null}, "name": "F_4_2_1", "inbound_nodes": [[["LRL_4_1", 0, 0, {}]]]}, {"class_name": "Activation", "config": {"name": "F_4_2_1_Relu", "trainable": true, "dtype": "float32", "activation": "relu"}, "name": "F_4_2_1_Relu", "inbound_nodes": [[["F_4_2_1", 0, 0, {}]]]}, {"class_name": "Concatenate", "config": {"name": "RDB_Concat_4_2_1", "trainable": true, "dtype": "float32", "axis": 3}, "name": "RDB_Concat_4_2_1", "inbound_nodes": [[["LRL_4_1", 0, 0, {}], ["F_4_2_1_Relu", 0, 0, {}]]]}, {"class_name": "Conv2D", "config": {"name": "F_4_2_2", "trainable": true, "dtype": "float32", "filters": 32, "kernel_size": [3, 3], "strides": [1, 1], "padding": "same", "data_format": "channels_last", "dilation_rate": [1, 1], "groups": 1, "activation": "linear", "use_bias": true, "kernel_initializer": {"class_name": "RandomUniform", "config": {"minval": -0.05, "maxval": 0.05, "seed": null}, "shared_object_id": 1}, "bias_initializer": {"class_name": "Zeros", "config": {}}, "kernel_regularizer": null, "bias_regularizer": null, "activity_regularizer": null, "kernel_constraint": null, "bias_constraint": null}, "name": "F_4_2_2", "inbound_nodes": [[["RDB_Concat_4_2_1", 0, 0, {}]]]}, {"class_name": "Activation", "config": {"name": "F_4_2_2_Relu", "trainable": true, "dtype": "float32", "activation": "relu"}, "name": "F_4_2_2_Relu", "inbound_nodes": [[["F_4_2_2", 0, 0, {}]]]}, {"class_name": "Concatenate", "config": {"name": "RDB_Concat_4_2_2", "trainable": true, "dtype": "float32", "axis": 3}, "name": "RDB_Concat_4_2_2", "inbound_nodes": [[["RDB_Concat_4_2_1", 0, 0, {}], ["F_4_2_2_Relu", 0, 0, {}]]]}, {"class_name": "Conv2D", "config": {"name": "F_4_2_3", "trainable": true, "dtype": "float32", "filters": 32, "kernel_size": [3, 3], "strides": [1, 1], "padding": "same", "data_format": "channels_last", "dilation_rate": [1, 1], "groups": 1, "activation": "linear", "use_bias": true, "kernel_initializer": {"class_name": "RandomUniform", "config": {"minval": -0.05, "maxval": 0.05, "seed": null}, "shared_object_id": 1}, "bias_initializer": {"class_name": "Zeros", "config": {}}, "kernel_regularizer": null, "bias_regularizer": null, "activity_regularizer": null, "kernel_constraint": null, "bias_constraint": null}, "name": "F_4_2_3", "inbound_nodes": [[["RDB_Concat_4_2_2", 0, 0, {}]]]}, {"class_name": "Activation", "config": {"name": "F_4_2_3_Relu", "trainable": true, "dtype": "float32", "activation": "relu"}, "name": "F_4_2_3_Relu", "inbound_nodes": [[["F_4_2_3", 0, 0, {}]]]}, {"class_name": "Concatenate", "config": {"name": "RDB_Concat_4_2_3", "trainable": true, "dtype": "float32", "axis": 3}, "name": "RDB_Concat_4_2_3", "inbound_nodes": [[["RDB_Concat_4_2_2", 0, 0, {}], ["F_4_2_3_Relu", 0, 0, {}]]]}, {"class_name": "Conv2D", "config": {"name": "F_4_2_4", "trainable": true, "dtype": "float32", "filters": 32, "kernel_size": [3, 3], "strides": [1, 1], "padding": "same", "data_format": "channels_last", "dilation_rate": [1, 1], "groups": 1, "activation": "linear", "use_bias": true, "kernel_initializer": {"class_name": "RandomUniform", "config": {"minval": -0.05, "maxval": 0.05, "seed": null}, "shared_object_id": 1}, "bias_initializer": {"class_name": "Zeros", "config": {}}, "kernel_regularizer": null, "bias_regularizer": null, "activity_regularizer": null, "kernel_constraint": null, "bias_constraint": null}, "name": "F_4_2_4", "inbound_nodes": [[["RDB_Concat_4_2_3", 0, 0, {}]]]}, {"class_name": "Activation", "config": {"name": "F_4_2_4_Relu", "trainable": true, "dtype": "float32", "activation": "relu"}, "name": "F_4_2_4_Relu", "inbound_nodes": [[["F_4_2_4", 0, 0, {}]]]}, {"class_name": "Concatenate", "config": {"name": "RDB_Concat_4_2_4", "trainable": true, "dtype": "float32", "axis": 3}, "name": "RDB_Concat_4_2_4", "inbound_nodes": [[["RDB_Concat_4_2_3", 0, 0, {}], ["F_4_2_4_Relu", 0, 0, {}]]]}, {"class_name": "Conv2D", "config": {"name": "LFF_4_2", "trainable": true, "dtype": "float32", "filters": 64, "kernel_size": [3, 3], "strides": [1, 1], "padding": "same", "data_format": "channels_last", "dilation_rate": [1, 1], "groups": 1, "activation": "linear", "use_bias": true, "kernel_initializer": {"class_name": "RandomUniform", "config": {"minval": -0.05, "maxval": 0.05, "seed": null}, "shared_object_id": 1}, "bias_initializer": {"class_name": "Zeros", "config": {}}, "kernel_regularizer": null, "bias_regularizer": null, "activity_regularizer": null, "kernel_constraint": null, "bias_constraint": null}, "name": "LFF_4_2", "inbound_nodes": [[["RDB_Concat_4_2_4", 0, 0, {}]]]}, {"class_name": "MultiplyBeta", "config": {"name": "multiply_beta_13", "trainable": true, "dtype": "float32", "beta": 0.2}, "name": "multiply_beta_13", "inbound_nodes": [[["LFF_4_2", 0, 0, {}]]]}, {"class_name": "Add", "config": {"name": "LRL_4_2", "trainable": true, "dtype": "float32"}, "name": "LRL_4_2", "inbound_nodes": [[["LRL_4_1", 0, 0, {}], ["multiply_beta_13", 0, 0, {}]]]}, {"class_name": "Conv2D", "config": {"name": "F_4_3_1", "trainable": true, "dtype": "float32", "filters": 32, "kernel_size": [3, 3], "strides": [1, 1], "padding": "same", "data_format": "channels_last", "dilation_rate": [1, 1], "groups": 1, "activation": "linear", "use_bias": true, "kernel_initializer": {"class_name": "RandomUniform", "config": {"minval": -0.05, "maxval": 0.05, "seed": null}, "shared_object_id": 1}, "bias_initializer": {"class_name": "Zeros", "config": {}}, "kernel_regularizer": null, "bias_regularizer": null, "activity_regularizer": null, "kernel_constraint": null, "bias_constraint": null}, "name": "F_4_3_1", "inbound_nodes": [[["LRL_4_2", 0, 0, {}]]]}, {"class_name": "Activation", "config": {"name": "F_4_3_1_Relu", "trainable": true, "dtype": "float32", "activation": "relu"}, "name": "F_4_3_1_Relu", "inbound_nodes": [[["F_4_3_1", 0, 0, {}]]]}, {"class_name": "Concatenate", "config": {"name": "RDB_Concat_4_3_1", "trainable": true, "dtype": "float32", "axis": 3}, "name": "RDB_Concat_4_3_1", "inbound_nodes": [[["LRL_4_2", 0, 0, {}], ["F_4_3_1_Relu", 0, 0, {}]]]}, {"class_name": "Conv2D", "config": {"name": "F_4_3_2", "trainable": true, "dtype": "float32", "filters": 32, "kernel_size": [3, 3], "strides": [1, 1], "padding": "same", "data_format": "channels_last", "dilation_rate": [1, 1], "groups": 1, "activation": "linear", "use_bias": true, "kernel_initializer": {"class_name": "RandomUniform", "config": {"minval": -0.05, "maxval": 0.05, "seed": null}, "shared_object_id": 1}, "bias_initializer": {"class_name": "Zeros", "config": {}}, "kernel_regularizer": null, "bias_regularizer": null, "activity_regularizer": null, "kernel_constraint": null, "bias_constraint": null}, "name": "F_4_3_2", "inbound_nodes": [[["RDB_Concat_4_3_1", 0, 0, {}]]]}, {"class_name": "Activation", "config": {"name": "F_4_3_2_Relu", "trainable": true, "dtype": "float32", "activation": "relu"}, "name": "F_4_3_2_Relu", "inbound_nodes": [[["F_4_3_2", 0, 0, {}]]]}, {"class_name": "Concatenate", "config": {"name": "RDB_Concat_4_3_2", "trainable": true, "dtype": "float32", "axis": 3}, "name": "RDB_Concat_4_3_2", "inbound_nodes": [[["RDB_Concat_4_3_1", 0, 0, {}], ["F_4_3_2_Relu", 0, 0, {}]]]}, {"class_name": "Conv2D", "config": {"name": "F_4_3_3", "trainable": true, "dtype": "float32", "filters": 32, "kernel_size": [3, 3], "strides": [1, 1], "padding": "same", "data_format": "channels_last", "dilation_rate": [1, 1], "groups": 1, "activation": "linear", "use_bias": true, "kernel_initializer": {"class_name": "RandomUniform", "config": {"minval": -0.05, "maxval": 0.05, "seed": null}, "shared_object_id": 1}, "bias_initializer": {"class_name": "Zeros", "config": {}}, "kernel_regularizer": null, "bias_regularizer": null, "activity_regularizer": null, "kernel_constraint": null, "bias_constraint": null}, "name": "F_4_3_3", "inbound_nodes": [[["RDB_Concat_4_3_2", 0, 0, {}]]]}, {"class_name": "Activation", "config": {"name": "F_4_3_3_Relu", "trainable": true, "dtype": "float32", "activation": "relu"}, "name": "F_4_3_3_Relu", "inbound_nodes": [[["F_4_3_3", 0, 0, {}]]]}, {"class_name": "Concatenate", "config": {"name": "RDB_Concat_4_3_3", "trainable": true, "dtype": "float32", "axis": 3}, "name": "RDB_Concat_4_3_3", "inbound_nodes": [[["RDB_Concat_4_3_2", 0, 0, {}], ["F_4_3_3_Relu", 0, 0, {}]]]}, {"class_name": "Conv2D", "config": {"name": "F_4_3_4", "trainable": true, "dtype": "float32", "filters": 32, "kernel_size": [3, 3], "strides": [1, 1], "padding": "same", "data_format": "channels_last", "dilation_rate": [1, 1], "groups": 1, "activation": "linear", "use_bias": true, "kernel_initializer": {"class_name": "RandomUniform", "config": {"minval": -0.05, "maxval": 0.05, "seed": null}, "shared_object_id": 1}, "bias_initializer": {"class_name": "Zeros", "config": {}}, "kernel_regularizer": null, "bias_regularizer": null, "activity_regularizer": null, "kernel_constraint": null, "bias_constraint": null}, "name": "F_4_3_4", "inbound_nodes": [[["RDB_Concat_4_3_3", 0, 0, {}]]]}, {"class_name": "Activation", "config": {"name": "F_4_3_4_Relu", "trainable": true, "dtype": "float32", "activation": "relu"}, "name": "F_4_3_4_Relu", "inbound_nodes": [[["F_4_3_4", 0, 0, {}]]]}, {"class_name": "Concatenate", "config": {"name": "RDB_Concat_4_3_4", "trainable": true, "dtype": "float32", "axis": 3}, "name": "RDB_Concat_4_3_4", "inbound_nodes": [[["RDB_Concat_4_3_3", 0, 0, {}], ["F_4_3_4_Relu", 0, 0, {}]]]}, {"class_name": "Conv2D", "config": {"name": "LFF_4_3", "trainable": true, "dtype": "float32", "filters": 64, "kernel_size": [3, 3], "strides": [1, 1], "padding": "same", "data_format": "channels_last", "dilation_rate": [1, 1], "groups": 1, "activation": "linear", "use_bias": true, "kernel_initializer": {"class_name": "RandomUniform", "config": {"minval": -0.05, "maxval": 0.05, "seed": null}, "shared_object_id": 1}, "bias_initializer": {"class_name": "Zeros", "config": {}}, "kernel_regularizer": null, "bias_regularizer": null, "activity_regularizer": null, "kernel_constraint": null, "bias_constraint": null}, "name": "LFF_4_3", "inbound_nodes": [[["RDB_Concat_4_3_4", 0, 0, {}]]]}, {"class_name": "MultiplyBeta", "config": {"name": "multiply_beta_14", "trainable": true, "dtype": "float32", "beta": 0.2}, "name": "multiply_beta_14", "inbound_nodes": [[["LFF_4_3", 0, 0, {}]]]}, {"class_name": "Add", "config": {"name": "LRL_4_3", "trainable": true, "dtype": "float32"}, "name": "LRL_4_3", "inbound_nodes": [[["LRL_4_2", 0, 0, {}], ["multiply_beta_14", 0, 0, {}]]]}, {"class_name": "MultiplyBeta", "config": {"name": "multiply_beta_15", "trainable": true, "dtype": "float32", "beta": 0.2}, "name": "multiply_beta_15", "inbound_nodes": [[["LRL_4_3", 0, 0, {}]]]}, {"class_name": "Add", "config": {"name": "RRDB_4_out", "trainable": true, "dtype": "float32"}, "name": "RRDB_4_out", "inbound_nodes": [[["RRDB_3_out", 0, 0, {}], ["multiply_beta_15", 0, 0, {}]]]}, {"class_name": "Conv2D", "config": {"name": "F_5_1_1", "trainable": true, "dtype": "float32", "filters": 32, "kernel_size": [3, 3], "strides": [1, 1], "padding": "same", "data_format": "channels_last", "dilation_rate": [1, 1], "groups": 1, "activation": "linear", "use_bias": true, "kernel_initializer": {"class_name": "RandomUniform", "config": {"minval": -0.05, "maxval": 0.05, "seed": null}, "shared_object_id": 1}, "bias_initializer": {"class_name": "Zeros", "config": {}}, "kernel_regularizer": null, "bias_regularizer": null, "activity_regularizer": null, "kernel_constraint": null, "bias_constraint": null}, "name": "F_5_1_1", "inbound_nodes": [[["RRDB_4_out", 0, 0, {}]]]}, {"class_name": "Activation", "config": {"name": "F_5_1_1_Relu", "trainable": true, "dtype": "float32", "activation": "relu"}, "name": "F_5_1_1_Relu", "inbound_nodes": [[["F_5_1_1", 0, 0, {}]]]}, {"class_name": "Concatenate", "config": {"name": "RDB_Concat_5_1_1", "trainable": true, "dtype": "float32", "axis": 3}, "name": "RDB_Concat_5_1_1", "inbound_nodes": [[["RRDB_4_out", 0, 0, {}], ["F_5_1_1_Relu", 0, 0, {}]]]}, {"class_name": "Conv2D", "config": {"name": "F_5_1_2", "trainable": true, "dtype": "float32", "filters": 32, "kernel_size": [3, 3], "strides": [1, 1], "padding": "same", "data_format": "channels_last", "dilation_rate": [1, 1], "groups": 1, "activation": "linear", "use_bias": true, "kernel_initializer": {"class_name": "RandomUniform", "config": {"minval": -0.05, "maxval": 0.05, "seed": null}, "shared_object_id": 1}, "bias_initializer": {"class_name": "Zeros", "config": {}}, "kernel_regularizer": null, "bias_regularizer": null, "activity_regularizer": null, "kernel_constraint": null, "bias_constraint": null}, "name": "F_5_1_2", "inbound_nodes": [[["RDB_Concat_5_1_1", 0, 0, {}]]]}, {"class_name": "Activation", "config": {"name": "F_5_1_2_Relu", "trainable": true, "dtype": "float32", "activation": "relu"}, "name": "F_5_1_2_Relu", "inbound_nodes": [[["F_5_1_2", 0, 0, {}]]]}, {"class_name": "Concatenate", "config": {"name": "RDB_Concat_5_1_2", "trainable": true, "dtype": "float32", "axis": 3}, "name": "RDB_Concat_5_1_2", "inbound_nodes": [[["RDB_Concat_5_1_1", 0, 0, {}], ["F_5_1_2_Relu", 0, 0, {}]]]}, {"class_name": "Conv2D", "config": {"name": "F_5_1_3", "trainable": true, "dtype": "float32", "filters": 32, "kernel_size": [3, 3], "strides": [1, 1], "padding": "same", "data_format": "channels_last", "dilation_rate": [1, 1], "groups": 1, "activation": "linear", "use_bias": true, "kernel_initializer": {"class_name": "RandomUniform", "config": {"minval": -0.05, "maxval": 0.05, "seed": null}, "shared_object_id": 1}, "bias_initializer": {"class_name": "Zeros", "config": {}}, "kernel_regularizer": null, "bias_regularizer": null, "activity_regularizer": null, "kernel_constraint": null, "bias_constraint": null}, "name": "F_5_1_3", "inbound_nodes": [[["RDB_Concat_5_1_2", 0, 0, {}]]]}, {"class_name": "Activation", "config": {"name": "F_5_1_3_Relu", "trainable": true, "dtype": "float32", "activation": "relu"}, "name": "F_5_1_3_Relu", "inbound_nodes": [[["F_5_1_3", 0, 0, {}]]]}, {"class_name": "Concatenate", "config": {"name": "RDB_Concat_5_1_3", "trainable": true, "dtype": "float32", "axis": 3}, "name": "RDB_Concat_5_1_3", "inbound_nodes": [[["RDB_Concat_5_1_2", 0, 0, {}], ["F_5_1_3_Relu", 0, 0, {}]]]}, {"class_name": "Conv2D", "config": {"name": "F_5_1_4", "trainable": true, "dtype": "float32", "filters": 32, "kernel_size": [3, 3], "strides": [1, 1], "padding": "same", "data_format": "channels_last", "dilation_rate": [1, 1], "groups": 1, "activation": "linear", "use_bias": true, "kernel_initializer": {"class_name": "RandomUniform", "config": {"minval": -0.05, "maxval": 0.05, "seed": null}, "shared_object_id": 1}, "bias_initializer": {"class_name": "Zeros", "config": {}}, "kernel_regularizer": null, "bias_regularizer": null, "activity_regularizer": null, "kernel_constraint": null, "bias_constraint": null}, "name": "F_5_1_4", "inbound_nodes": [[["RDB_Concat_5_1_3", 0, 0, {}]]]}, {"class_name": "Activation", "config": {"name": "F_5_1_4_Relu", "trainable": true, "dtype": "float32", "activation": "relu"}, "name": "F_5_1_4_Relu", "inbound_nodes": [[["F_5_1_4", 0, 0, {}]]]}, {"class_name": "Concatenate", "config": {"name": "RDB_Concat_5_1_4", "trainable": true, "dtype": "float32", "axis": 3}, "name": "RDB_Concat_5_1_4", "inbound_nodes": [[["RDB_Concat_5_1_3", 0, 0, {}], ["F_5_1_4_Relu", 0, 0, {}]]]}, {"class_name": "Conv2D", "config": {"name": "LFF_5_1", "trainable": true, "dtype": "float32", "filters": 64, "kernel_size": [3, 3], "strides": [1, 1], "padding": "same", "data_format": "channels_last", "dilation_rate": [1, 1], "groups": 1, "activation": "linear", "use_bias": true, "kernel_initializer": {"class_name": "RandomUniform", "config": {"minval": -0.05, "maxval": 0.05, "seed": null}, "shared_object_id": 1}, "bias_initializer": {"class_name": "Zeros", "config": {}}, "kernel_regularizer": null, "bias_regularizer": null, "activity_regularizer": null, "kernel_constraint": null, "bias_constraint": null}, "name": "LFF_5_1", "inbound_nodes": [[["RDB_Concat_5_1_4", 0, 0, {}]]]}, {"class_name": "MultiplyBeta", "config": {"name": "multiply_beta_16", "trainable": true, "dtype": "float32", "beta": 0.2}, "name": "multiply_beta_16", "inbound_nodes": [[["LFF_5_1", 0, 0, {}]]]}, {"class_name": "Add", "config": {"name": "LRL_5_1", "trainable": true, "dtype": "float32"}, "name": "LRL_5_1", "inbound_nodes": [[["RRDB_4_out", 0, 0, {}], ["multiply_beta_16", 0, 0, {}]]]}, {"class_name": "Conv2D", "config": {"name": "F_5_2_1", "trainable": true, "dtype": "float32", "filters": 32, "kernel_size": [3, 3], "strides": [1, 1], "padding": "same", "data_format": "channels_last", "dilation_rate": [1, 1], "groups": 1, "activation": "linear", "use_bias": true, "kernel_initializer": {"class_name": "RandomUniform", "config": {"minval": -0.05, "maxval": 0.05, "seed": null}, "shared_object_id": 1}, "bias_initializer": {"class_name": "Zeros", "config": {}}, "kernel_regularizer": null, "bias_regularizer": null, "activity_regularizer": null, "kernel_constraint": null, "bias_constraint": null}, "name": "F_5_2_1", "inbound_nodes": [[["LRL_5_1", 0, 0, {}]]]}, {"class_name": "Activation", "config": {"name": "F_5_2_1_Relu", "trainable": true, "dtype": "float32", "activation": "relu"}, "name": "F_5_2_1_Relu", "inbound_nodes": [[["F_5_2_1", 0, 0, {}]]]}, {"class_name": "Concatenate", "config": {"name": "RDB_Concat_5_2_1", "trainable": true, "dtype": "float32", "axis": 3}, "name": "RDB_Concat_5_2_1", "inbound_nodes": [[["LRL_5_1", 0, 0, {}], ["F_5_2_1_Relu", 0, 0, {}]]]}, {"class_name": "Conv2D", "config": {"name": "F_5_2_2", "trainable": true, "dtype": "float32", "filters": 32, "kernel_size": [3, 3], "strides": [1, 1], "padding": "same", "data_format": "channels_last", "dilation_rate": [1, 1], "groups": 1, "activation": "linear", "use_bias": true, "kernel_initializer": {"class_name": "RandomUniform", "config": {"minval": -0.05, "maxval": 0.05, "seed": null}, "shared_object_id": 1}, "bias_initializer": {"class_name": "Zeros", "config": {}}, "kernel_regularizer": null, "bias_regularizer": null, "activity_regularizer": null, "kernel_constraint": null, "bias_constraint": null}, "name": "F_5_2_2", "inbound_nodes": [[["RDB_Concat_5_2_1", 0, 0, {}]]]}, {"class_name": "Activation", "config": {"name": "F_5_2_2_Relu", "trainable": true, "dtype": "float32", "activation": "relu"}, "name": "F_5_2_2_Relu", "inbound_nodes": [[["F_5_2_2", 0, 0, {}]]]}, {"class_name": "Concatenate", "config": {"name": "RDB_Concat_5_2_2", "trainable": true, "dtype": "float32", "axis": 3}, "name": "RDB_Concat_5_2_2", "inbound_nodes": [[["RDB_Concat_5_2_1", 0, 0, {}], ["F_5_2_2_Relu", 0, 0, {}]]]}, {"class_name": "Conv2D", "config": {"name": "F_5_2_3", "trainable": true, "dtype": "float32", "filters": 32, "kernel_size": [3, 3], "strides": [1, 1], "padding": "same", "data_format": "channels_last", "dilation_rate": [1, 1], "groups": 1, "activation": "linear", "use_bias": true, "kernel_initializer": {"class_name": "RandomUniform", "config": {"minval": -0.05, "maxval": 0.05, "seed": null}, "shared_object_id": 1}, "bias_initializer": {"class_name": "Zeros", "config": {}}, "kernel_regularizer": null, "bias_regularizer": null, "activity_regularizer": null, "kernel_constraint": null, "bias_constraint": null}, "name": "F_5_2_3", "inbound_nodes": [[["RDB_Concat_5_2_2", 0, 0, {}]]]}, {"class_name": "Activation", "config": {"name": "F_5_2_3_Relu", "trainable": true, "dtype": "float32", "activation": "relu"}, "name": "F_5_2_3_Relu", "inbound_nodes": [[["F_5_2_3", 0, 0, {}]]]}, {"class_name": "Concatenate", "config": {"name": "RDB_Concat_5_2_3", "trainable": true, "dtype": "float32", "axis": 3}, "name": "RDB_Concat_5_2_3", "inbound_nodes": [[["RDB_Concat_5_2_2", 0, 0, {}], ["F_5_2_3_Relu", 0, 0, {}]]]}, {"class_name": "Conv2D", "config": {"name": "F_5_2_4", "trainable": true, "dtype": "float32", "filters": 32, "kernel_size": [3, 3], "strides": [1, 1], "padding": "same", "data_format": "channels_last", "dilation_rate": [1, 1], "groups": 1, "activation": "linear", "use_bias": true, "kernel_initializer": {"class_name": "RandomUniform", "config": {"minval": -0.05, "maxval": 0.05, "seed": null}, "shared_object_id": 1}, "bias_initializer": {"class_name": "Zeros", "config": {}}, "kernel_regularizer": null, "bias_regularizer": null, "activity_regularizer": null, "kernel_constraint": null, "bias_constraint": null}, "name": "F_5_2_4", "inbound_nodes": [[["RDB_Concat_5_2_3", 0, 0, {}]]]}, {"class_name": "Activation", "config": {"name": "F_5_2_4_Relu", "trainable": true, "dtype": "float32", "activation": "relu"}, "name": "F_5_2_4_Relu", "inbound_nodes": [[["F_5_2_4", 0, 0, {}]]]}, {"class_name": "Concatenate", "config": {"name": "RDB_Concat_5_2_4", "trainable": true, "dtype": "float32", "axis": 3}, "name": "RDB_Concat_5_2_4", "inbound_nodes": [[["RDB_Concat_5_2_3", 0, 0, {}], ["F_5_2_4_Relu", 0, 0, {}]]]}, {"class_name": "Conv2D", "config": {"name": "LFF_5_2", "trainable": true, "dtype": "float32", "filters": 64, "kernel_size": [3, 3], "strides": [1, 1], "padding": "same", "data_format": "channels_last", "dilation_rate": [1, 1], "groups": 1, "activation": "linear", "use_bias": true, "kernel_initializer": {"class_name": "RandomUniform", "config": {"minval": -0.05, "maxval": 0.05, "seed": null}, "shared_object_id": 1}, "bias_initializer": {"class_name": "Zeros", "config": {}}, "kernel_regularizer": null, "bias_regularizer": null, "activity_regularizer": null, "kernel_constraint": null, "bias_constraint": null}, "name": "LFF_5_2", "inbound_nodes": [[["RDB_Concat_5_2_4", 0, 0, {}]]]}, {"class_name": "MultiplyBeta", "config": {"name": "multiply_beta_17", "trainable": true, "dtype": "float32", "beta": 0.2}, "name": "multiply_beta_17", "inbound_nodes": [[["LFF_5_2", 0, 0, {}]]]}, {"class_name": "Add", "config": {"name": "LRL_5_2", "trainable": true, "dtype": "float32"}, "name": "LRL_5_2", "inbound_nodes": [[["LRL_5_1", 0, 0, {}], ["multiply_beta_17", 0, 0, {}]]]}, {"class_name": "Conv2D", "config": {"name": "F_5_3_1", "trainable": true, "dtype": "float32", "filters": 32, "kernel_size": [3, 3], "strides": [1, 1], "padding": "same", "data_format": "channels_last", "dilation_rate": [1, 1], "groups": 1, "activation": "linear", "use_bias": true, "kernel_initializer": {"class_name": "RandomUniform", "config": {"minval": -0.05, "maxval": 0.05, "seed": null}, "shared_object_id": 1}, "bias_initializer": {"class_name": "Zeros", "config": {}}, "kernel_regularizer": null, "bias_regularizer": null, "activity_regularizer": null, "kernel_constraint": null, "bias_constraint": null}, "name": "F_5_3_1", "inbound_nodes": [[["LRL_5_2", 0, 0, {}]]]}, {"class_name": "Activation", "config": {"name": "F_5_3_1_Relu", "trainable": true, "dtype": "float32", "activation": "relu"}, "name": "F_5_3_1_Relu", "inbound_nodes": [[["F_5_3_1", 0, 0, {}]]]}, {"class_name": "Concatenate", "config": {"name": "RDB_Concat_5_3_1", "trainable": true, "dtype": "float32", "axis": 3}, "name": "RDB_Concat_5_3_1", "inbound_nodes": [[["LRL_5_2", 0, 0, {}], ["F_5_3_1_Relu", 0, 0, {}]]]}, {"class_name": "Conv2D", "config": {"name": "F_5_3_2", "trainable": true, "dtype": "float32", "filters": 32, "kernel_size": [3, 3], "strides": [1, 1], "padding": "same", "data_format": "channels_last", "dilation_rate": [1, 1], "groups": 1, "activation": "linear", "use_bias": true, "kernel_initializer": {"class_name": "RandomUniform", "config": {"minval": -0.05, "maxval": 0.05, "seed": null}, "shared_object_id": 1}, "bias_initializer": {"class_name": "Zeros", "config": {}}, "kernel_regularizer": null, "bias_regularizer": null, "activity_regularizer": null, "kernel_constraint": null, "bias_constraint": null}, "name": "F_5_3_2", "inbound_nodes": [[["RDB_Concat_5_3_1", 0, 0, {}]]]}, {"class_name": "Activation", "config": {"name": "F_5_3_2_Relu", "trainable": true, "dtype": "float32", "activation": "relu"}, "name": "F_5_3_2_Relu", "inbound_nodes": [[["F_5_3_2", 0, 0, {}]]]}, {"class_name": "Concatenate", "config": {"name": "RDB_Concat_5_3_2", "trainable": true, "dtype": "float32", "axis": 3}, "name": "RDB_Concat_5_3_2", "inbound_nodes": [[["RDB_Concat_5_3_1", 0, 0, {}], ["F_5_3_2_Relu", 0, 0, {}]]]}, {"class_name": "Conv2D", "config": {"name": "F_5_3_3", "trainable": true, "dtype": "float32", "filters": 32, "kernel_size": [3, 3], "strides": [1, 1], "padding": "same", "data_format": "channels_last", "dilation_rate": [1, 1], "groups": 1, "activation": "linear", "use_bias": true, "kernel_initializer": {"class_name": "RandomUniform", "config": {"minval": -0.05, "maxval": 0.05, "seed": null}, "shared_object_id": 1}, "bias_initializer": {"class_name": "Zeros", "config": {}}, "kernel_regularizer": null, "bias_regularizer": null, "activity_regularizer": null, "kernel_constraint": null, "bias_constraint": null}, "name": "F_5_3_3", "inbound_nodes": [[["RDB_Concat_5_3_2", 0, 0, {}]]]}, {"class_name": "Activation", "config": {"name": "F_5_3_3_Relu", "trainable": true, "dtype": "float32", "activation": "relu"}, "name": "F_5_3_3_Relu", "inbound_nodes": [[["F_5_3_3", 0, 0, {}]]]}, {"class_name": "Concatenate", "config": {"name": "RDB_Concat_5_3_3", "trainable": true, "dtype": "float32", "axis": 3}, "name": "RDB_Concat_5_3_3", "inbound_nodes": [[["RDB_Concat_5_3_2", 0, 0, {}], ["F_5_3_3_Relu", 0, 0, {}]]]}, {"class_name": "Conv2D", "config": {"name": "F_5_3_4", "trainable": true, "dtype": "float32", "filters": 32, "kernel_size": [3, 3], "strides": [1, 1], "padding": "same", "data_format": "channels_last", "dilation_rate": [1, 1], "groups": 1, "activation": "linear", "use_bias": true, "kernel_initializer": {"class_name": "RandomUniform", "config": {"minval": -0.05, "maxval": 0.05, "seed": null}, "shared_object_id": 1}, "bias_initializer": {"class_name": "Zeros", "config": {}}, "kernel_regularizer": null, "bias_regularizer": null, "activity_regularizer": null, "kernel_constraint": null, "bias_constraint": null}, "name": "F_5_3_4", "inbound_nodes": [[["RDB_Concat_5_3_3", 0, 0, {}]]]}, {"class_name": "Activation", "config": {"name": "F_5_3_4_Relu", "trainable": true, "dtype": "float32", "activation": "relu"}, "name": "F_5_3_4_Relu", "inbound_nodes": [[["F_5_3_4", 0, 0, {}]]]}, {"class_name": "Concatenate", "config": {"name": "RDB_Concat_5_3_4", "trainable": true, "dtype": "float32", "axis": 3}, "name": "RDB_Concat_5_3_4", "inbound_nodes": [[["RDB_Concat_5_3_3", 0, 0, {}], ["F_5_3_4_Relu", 0, 0, {}]]]}, {"class_name": "Conv2D", "config": {"name": "LFF_5_3", "trainable": true, "dtype": "float32", "filters": 64, "kernel_size": [3, 3], "strides": [1, 1], "padding": "same", "data_format": "channels_last", "dilation_rate": [1, 1], "groups": 1, "activation": "linear", "use_bias": true, "kernel_initializer": {"class_name": "RandomUniform", "config": {"minval": -0.05, "maxval": 0.05, "seed": null}, "shared_object_id": 1}, "bias_initializer": {"class_name": "Zeros", "config": {}}, "kernel_regularizer": null, "bias_regularizer": null, "activity_regularizer": null, "kernel_constraint": null, "bias_constraint": null}, "name": "LFF_5_3", "inbound_nodes": [[["RDB_Concat_5_3_4", 0, 0, {}]]]}, {"class_name": "MultiplyBeta", "config": {"name": "multiply_beta_18", "trainable": true, "dtype": "float32", "beta": 0.2}, "name": "multiply_beta_18", "inbound_nodes": [[["LFF_5_3", 0, 0, {}]]]}, {"class_name": "Add", "config": {"name": "LRL_5_3", "trainable": true, "dtype": "float32"}, "name": "LRL_5_3", "inbound_nodes": [[["LRL_5_2", 0, 0, {}], ["multiply_beta_18", 0, 0, {}]]]}, {"class_name": "MultiplyBeta", "config": {"name": "multiply_beta_19", "trainable": true, "dtype": "float32", "beta": 0.2}, "name": "multiply_beta_19", "inbound_nodes": [[["LRL_5_3", 0, 0, {}]]]}, {"class_name": "Add", "config": {"name": "RRDB_5_out", "trainable": true, "dtype": "float32"}, "name": "RRDB_5_out", "inbound_nodes": [[["RRDB_4_out", 0, 0, {}], ["multiply_beta_19", 0, 0, {}]]]}, {"class_name": "Conv2D", "config": {"name": "F_6_1_1", "trainable": true, "dtype": "float32", "filters": 32, "kernel_size": [3, 3], "strides": [1, 1], "padding": "same", "data_format": "channels_last", "dilation_rate": [1, 1], "groups": 1, "activation": "linear", "use_bias": true, "kernel_initializer": {"class_name": "RandomUniform", "config": {"minval": -0.05, "maxval": 0.05, "seed": null}, "shared_object_id": 1}, "bias_initializer": {"class_name": "Zeros", "config": {}}, "kernel_regularizer": null, "bias_regularizer": null, "activity_regularizer": null, "kernel_constraint": null, "bias_constraint": null}, "name": "F_6_1_1", "inbound_nodes": [[["RRDB_5_out", 0, 0, {}]]]}, {"class_name": "Activation", "config": {"name": "F_6_1_1_Relu", "trainable": true, "dtype": "float32", "activation": "relu"}, "name": "F_6_1_1_Relu", "inbound_nodes": [[["F_6_1_1", 0, 0, {}]]]}, {"class_name": "Concatenate", "config": {"name": "RDB_Concat_6_1_1", "trainable": true, "dtype": "float32", "axis": 3}, "name": "RDB_Concat_6_1_1", "inbound_nodes": [[["RRDB_5_out", 0, 0, {}], ["F_6_1_1_Relu", 0, 0, {}]]]}, {"class_name": "Conv2D", "config": {"name": "F_6_1_2", "trainable": true, "dtype": "float32", "filters": 32, "kernel_size": [3, 3], "strides": [1, 1], "padding": "same", "data_format": "channels_last", "dilation_rate": [1, 1], "groups": 1, "activation": "linear", "use_bias": true, "kernel_initializer": {"class_name": "RandomUniform", "config": {"minval": -0.05, "maxval": 0.05, "seed": null}, "shared_object_id": 1}, "bias_initializer": {"class_name": "Zeros", "config": {}}, "kernel_regularizer": null, "bias_regularizer": null, "activity_regularizer": null, "kernel_constraint": null, "bias_constraint": null}, "name": "F_6_1_2", "inbound_nodes": [[["RDB_Concat_6_1_1", 0, 0, {}]]]}, {"class_name": "Activation", "config": {"name": "F_6_1_2_Relu", "trainable": true, "dtype": "float32", "activation": "relu"}, "name": "F_6_1_2_Relu", "inbound_nodes": [[["F_6_1_2", 0, 0, {}]]]}, {"class_name": "Concatenate", "config": {"name": "RDB_Concat_6_1_2", "trainable": true, "dtype": "float32", "axis": 3}, "name": "RDB_Concat_6_1_2", "inbound_nodes": [[["RDB_Concat_6_1_1", 0, 0, {}], ["F_6_1_2_Relu", 0, 0, {}]]]}, {"class_name": "Conv2D", "config": {"name": "F_6_1_3", "trainable": true, "dtype": "float32", "filters": 32, "kernel_size": [3, 3], "strides": [1, 1], "padding": "same", "data_format": "channels_last", "dilation_rate": [1, 1], "groups": 1, "activation": "linear", "use_bias": true, "kernel_initializer": {"class_name": "RandomUniform", "config": {"minval": -0.05, "maxval": 0.05, "seed": null}, "shared_object_id": 1}, "bias_initializer": {"class_name": "Zeros", "config": {}}, "kernel_regularizer": null, "bias_regularizer": null, "activity_regularizer": null, "kernel_constraint": null, "bias_constraint": null}, "name": "F_6_1_3", "inbound_nodes": [[["RDB_Concat_6_1_2", 0, 0, {}]]]}, {"class_name": "Activation", "config": {"name": "F_6_1_3_Relu", "trainable": true, "dtype": "float32", "activation": "relu"}, "name": "F_6_1_3_Relu", "inbound_nodes": [[["F_6_1_3", 0, 0, {}]]]}, {"class_name": "Concatenate", "config": {"name": "RDB_Concat_6_1_3", "trainable": true, "dtype": "float32", "axis": 3}, "name": "RDB_Concat_6_1_3", "inbound_nodes": [[["RDB_Concat_6_1_2", 0, 0, {}], ["F_6_1_3_Relu", 0, 0, {}]]]}, {"class_name": "Conv2D", "config": {"name": "F_6_1_4", "trainable": true, "dtype": "float32", "filters": 32, "kernel_size": [3, 3], "strides": [1, 1], "padding": "same", "data_format": "channels_last", "dilation_rate": [1, 1], "groups": 1, "activation": "linear", "use_bias": true, "kernel_initializer": {"class_name": "RandomUniform", "config": {"minval": -0.05, "maxval": 0.05, "seed": null}, "shared_object_id": 1}, "bias_initializer": {"class_name": "Zeros", "config": {}}, "kernel_regularizer": null, "bias_regularizer": null, "activity_regularizer": null, "kernel_constraint": null, "bias_constraint": null}, "name": "F_6_1_4", "inbound_nodes": [[["RDB_Concat_6_1_3", 0, 0, {}]]]}, {"class_name": "Activation", "config": {"name": "F_6_1_4_Relu", "trainable": true, "dtype": "float32", "activation": "relu"}, "name": "F_6_1_4_Relu", "inbound_nodes": [[["F_6_1_4", 0, 0, {}]]]}, {"class_name": "Concatenate", "config": {"name": "RDB_Concat_6_1_4", "trainable": true, "dtype": "float32", "axis": 3}, "name": "RDB_Concat_6_1_4", "inbound_nodes": [[["RDB_Concat_6_1_3", 0, 0, {}], ["F_6_1_4_Relu", 0, 0, {}]]]}, {"class_name": "Conv2D", "config": {"name": "LFF_6_1", "trainable": true, "dtype": "float32", "filters": 64, "kernel_size": [3, 3], "strides": [1, 1], "padding": "same", "data_format": "channels_last", "dilation_rate": [1, 1], "groups": 1, "activation": "linear", "use_bias": true, "kernel_initializer": {"class_name": "RandomUniform", "config": {"minval": -0.05, "maxval": 0.05, "seed": null}, "shared_object_id": 1}, "bias_initializer": {"class_name": "Zeros", "config": {}}, "kernel_regularizer": null, "bias_regularizer": null, "activity_regularizer": null, "kernel_constraint": null, "bias_constraint": null}, "name": "LFF_6_1", "inbound_nodes": [[["RDB_Concat_6_1_4", 0, 0, {}]]]}, {"class_name": "MultiplyBeta", "config": {"name": "multiply_beta_20", "trainable": true, "dtype": "float32", "beta": 0.2}, "name": "multiply_beta_20", "inbound_nodes": [[["LFF_6_1", 0, 0, {}]]]}, {"class_name": "Add", "config": {"name": "LRL_6_1", "trainable": true, "dtype": "float32"}, "name": "LRL_6_1", "inbound_nodes": [[["RRDB_5_out", 0, 0, {}], ["multiply_beta_20", 0, 0, {}]]]}, {"class_name": "Conv2D", "config": {"name": "F_6_2_1", "trainable": true, "dtype": "float32", "filters": 32, "kernel_size": [3, 3], "strides": [1, 1], "padding": "same", "data_format": "channels_last", "dilation_rate": [1, 1], "groups": 1, "activation": "linear", "use_bias": true, "kernel_initializer": {"class_name": "RandomUniform", "config": {"minval": -0.05, "maxval": 0.05, "seed": null}, "shared_object_id": 1}, "bias_initializer": {"class_name": "Zeros", "config": {}}, "kernel_regularizer": null, "bias_regularizer": null, "activity_regularizer": null, "kernel_constraint": null, "bias_constraint": null}, "name": "F_6_2_1", "inbound_nodes": [[["LRL_6_1", 0, 0, {}]]]}, {"class_name": "Activation", "config": {"name": "F_6_2_1_Relu", "trainable": true, "dtype": "float32", "activation": "relu"}, "name": "F_6_2_1_Relu", "inbound_nodes": [[["F_6_2_1", 0, 0, {}]]]}, {"class_name": "Concatenate", "config": {"name": "RDB_Concat_6_2_1", "trainable": true, "dtype": "float32", "axis": 3}, "name": "RDB_Concat_6_2_1", "inbound_nodes": [[["LRL_6_1", 0, 0, {}], ["F_6_2_1_Relu", 0, 0, {}]]]}, {"class_name": "Conv2D", "config": {"name": "F_6_2_2", "trainable": true, "dtype": "float32", "filters": 32, "kernel_size": [3, 3], "strides": [1, 1], "padding": "same", "data_format": "channels_last", "dilation_rate": [1, 1], "groups": 1, "activation": "linear", "use_bias": true, "kernel_initializer": {"class_name": "RandomUniform", "config": {"minval": -0.05, "maxval": 0.05, "seed": null}, "shared_object_id": 1}, "bias_initializer": {"class_name": "Zeros", "config": {}}, "kernel_regularizer": null, "bias_regularizer": null, "activity_regularizer": null, "kernel_constraint": null, "bias_constraint": null}, "name": "F_6_2_2", "inbound_nodes": [[["RDB_Concat_6_2_1", 0, 0, {}]]]}, {"class_name": "Activation", "config": {"name": "F_6_2_2_Relu", "trainable": true, "dtype": "float32", "activation": "relu"}, "name": "F_6_2_2_Relu", "inbound_nodes": [[["F_6_2_2", 0, 0, {}]]]}, {"class_name": "Concatenate", "config": {"name": "RDB_Concat_6_2_2", "trainable": true, "dtype": "float32", "axis": 3}, "name": "RDB_Concat_6_2_2", "inbound_nodes": [[["RDB_Concat_6_2_1", 0, 0, {}], ["F_6_2_2_Relu", 0, 0, {}]]]}, {"class_name": "Conv2D", "config": {"name": "F_6_2_3", "trainable": true, "dtype": "float32", "filters": 32, "kernel_size": [3, 3], "strides": [1, 1], "padding": "same", "data_format": "channels_last", "dilation_rate": [1, 1], "groups": 1, "activation": "linear", "use_bias": true, "kernel_initializer": {"class_name": "RandomUniform", "config": {"minval": -0.05, "maxval": 0.05, "seed": null}, "shared_object_id": 1}, "bias_initializer": {"class_name": "Zeros", "config": {}}, "kernel_regularizer": null, "bias_regularizer": null, "activity_regularizer": null, "kernel_constraint": null, "bias_constraint": null}, "name": "F_6_2_3", "inbound_nodes": [[["RDB_Concat_6_2_2", 0, 0, {}]]]}, {"class_name": "Activation", "config": {"name": "F_6_2_3_Relu", "trainable": true, "dtype": "float32", "activation": "relu"}, "name": "F_6_2_3_Relu", "inbound_nodes": [[["F_6_2_3", 0, 0, {}]]]}, {"class_name": "Concatenate", "config": {"name": "RDB_Concat_6_2_3", "trainable": true, "dtype": "float32", "axis": 3}, "name": "RDB_Concat_6_2_3", "inbound_nodes": [[["RDB_Concat_6_2_2", 0, 0, {}], ["F_6_2_3_Relu", 0, 0, {}]]]}, {"class_name": "Conv2D", "config": {"name": "F_6_2_4", "trainable": true, "dtype": "float32", "filters": 32, "kernel_size": [3, 3], "strides": [1, 1], "padding": "same", "data_format": "channels_last", "dilation_rate": [1, 1], "groups": 1, "activation": "linear", "use_bias": true, "kernel_initializer": {"class_name": "RandomUniform", "config": {"minval": -0.05, "maxval": 0.05, "seed": null}, "shared_object_id": 1}, "bias_initializer": {"class_name": "Zeros", "config": {}}, "kernel_regularizer": null, "bias_regularizer": null, "activity_regularizer": null, "kernel_constraint": null, "bias_constraint": null}, "name": "F_6_2_4", "inbound_nodes": [[["RDB_Concat_6_2_3", 0, 0, {}]]]}, {"class_name": "Activation", "config": {"name": "F_6_2_4_Relu", "trainable": true, "dtype": "float32", "activation": "relu"}, "name": "F_6_2_4_Relu", "inbound_nodes": [[["F_6_2_4", 0, 0, {}]]]}, {"class_name": "Concatenate", "config": {"name": "RDB_Concat_6_2_4", "trainable": true, "dtype": "float32", "axis": 3}, "name": "RDB_Concat_6_2_4", "inbound_nodes": [[["RDB_Concat_6_2_3", 0, 0, {}], ["F_6_2_4_Relu", 0, 0, {}]]]}, {"class_name": "Conv2D", "config": {"name": "LFF_6_2", "trainable": true, "dtype": "float32", "filters": 64, "kernel_size": [3, 3], "strides": [1, 1], "padding": "same", "data_format": "channels_last", "dilation_rate": [1, 1], "groups": 1, "activation": "linear", "use_bias": true, "kernel_initializer": {"class_name": "RandomUniform", "config": {"minval": -0.05, "maxval": 0.05, "seed": null}, "shared_object_id": 1}, "bias_initializer": {"class_name": "Zeros", "config": {}}, "kernel_regularizer": null, "bias_regularizer": null, "activity_regularizer": null, "kernel_constraint": null, "bias_constraint": null}, "name": "LFF_6_2", "inbound_nodes": [[["RDB_Concat_6_2_4", 0, 0, {}]]]}, {"class_name": "MultiplyBeta", "config": {"name": "multiply_beta_21", "trainable": true, "dtype": "float32", "beta": 0.2}, "name": "multiply_beta_21", "inbound_nodes": [[["LFF_6_2", 0, 0, {}]]]}, {"class_name": "Add", "config": {"name": "LRL_6_2", "trainable": true, "dtype": "float32"}, "name": "LRL_6_2", "inbound_nodes": [[["LRL_6_1", 0, 0, {}], ["multiply_beta_21", 0, 0, {}]]]}, {"class_name": "Conv2D", "config": {"name": "F_6_3_1", "trainable": true, "dtype": "float32", "filters": 32, "kernel_size": [3, 3], "strides": [1, 1], "padding": "same", "data_format": "channels_last", "dilation_rate": [1, 1], "groups": 1, "activation": "linear", "use_bias": true, "kernel_initializer": {"class_name": "RandomUniform", "config": {"minval": -0.05, "maxval": 0.05, "seed": null}, "shared_object_id": 1}, "bias_initializer": {"class_name": "Zeros", "config": {}}, "kernel_regularizer": null, "bias_regularizer": null, "activity_regularizer": null, "kernel_constraint": null, "bias_constraint": null}, "name": "F_6_3_1", "inbound_nodes": [[["LRL_6_2", 0, 0, {}]]]}, {"class_name": "Activation", "config": {"name": "F_6_3_1_Relu", "trainable": true, "dtype": "float32", "activation": "relu"}, "name": "F_6_3_1_Relu", "inbound_nodes": [[["F_6_3_1", 0, 0, {}]]]}, {"class_name": "Concatenate", "config": {"name": "RDB_Concat_6_3_1", "trainable": true, "dtype": "float32", "axis": 3}, "name": "RDB_Concat_6_3_1", "inbound_nodes": [[["LRL_6_2", 0, 0, {}], ["F_6_3_1_Relu", 0, 0, {}]]]}, {"class_name": "Conv2D", "config": {"name": "F_6_3_2", "trainable": true, "dtype": "float32", "filters": 32, "kernel_size": [3, 3], "strides": [1, 1], "padding": "same", "data_format": "channels_last", "dilation_rate": [1, 1], "groups": 1, "activation": "linear", "use_bias": true, "kernel_initializer": {"class_name": "RandomUniform", "config": {"minval": -0.05, "maxval": 0.05, "seed": null}, "shared_object_id": 1}, "bias_initializer": {"class_name": "Zeros", "config": {}}, "kernel_regularizer": null, "bias_regularizer": null, "activity_regularizer": null, "kernel_constraint": null, "bias_constraint": null}, "name": "F_6_3_2", "inbound_nodes": [[["RDB_Concat_6_3_1", 0, 0, {}]]]}, {"class_name": "Activation", "config": {"name": "F_6_3_2_Relu", "trainable": true, "dtype": "float32", "activation": "relu"}, "name": "F_6_3_2_Relu", "inbound_nodes": [[["F_6_3_2", 0, 0, {}]]]}, {"class_name": "Concatenate", "config": {"name": "RDB_Concat_6_3_2", "trainable": true, "dtype": "float32", "axis": 3}, "name": "RDB_Concat_6_3_2", "inbound_nodes": [[["RDB_Concat_6_3_1", 0, 0, {}], ["F_6_3_2_Relu", 0, 0, {}]]]}, {"class_name": "Conv2D", "config": {"name": "F_6_3_3", "trainable": true, "dtype": "float32", "filters": 32, "kernel_size": [3, 3], "strides": [1, 1], "padding": "same", "data_format": "channels_last", "dilation_rate": [1, 1], "groups": 1, "activation": "linear", "use_bias": true, "kernel_initializer": {"class_name": "RandomUniform", "config": {"minval": -0.05, "maxval": 0.05, "seed": null}, "shared_object_id": 1}, "bias_initializer": {"class_name": "Zeros", "config": {}}, "kernel_regularizer": null, "bias_regularizer": null, "activity_regularizer": null, "kernel_constraint": null, "bias_constraint": null}, "name": "F_6_3_3", "inbound_nodes": [[["RDB_Concat_6_3_2", 0, 0, {}]]]}, {"class_name": "Activation", "config": {"name": "F_6_3_3_Relu", "trainable": true, "dtype": "float32", "activation": "relu"}, "name": "F_6_3_3_Relu", "inbound_nodes": [[["F_6_3_3", 0, 0, {}]]]}, {"class_name": "Concatenate", "config": {"name": "RDB_Concat_6_3_3", "trainable": true, "dtype": "float32", "axis": 3}, "name": "RDB_Concat_6_3_3", "inbound_nodes": [[["RDB_Concat_6_3_2", 0, 0, {}], ["F_6_3_3_Relu", 0, 0, {}]]]}, {"class_name": "Conv2D", "config": {"name": "F_6_3_4", "trainable": true, "dtype": "float32", "filters": 32, "kernel_size": [3, 3], "strides": [1, 1], "padding": "same", "data_format": "channels_last", "dilation_rate": [1, 1], "groups": 1, "activation": "linear", "use_bias": true, "kernel_initializer": {"class_name": "RandomUniform", "config": {"minval": -0.05, "maxval": 0.05, "seed": null}, "shared_object_id": 1}, "bias_initializer": {"class_name": "Zeros", "config": {}}, "kernel_regularizer": null, "bias_regularizer": null, "activity_regularizer": null, "kernel_constraint": null, "bias_constraint": null}, "name": "F_6_3_4", "inbound_nodes": [[["RDB_Concat_6_3_3", 0, 0, {}]]]}, {"class_name": "Activation", "config": {"name": "F_6_3_4_Relu", "trainable": true, "dtype": "float32", "activation": "relu"}, "name": "F_6_3_4_Relu", "inbound_nodes": [[["F_6_3_4", 0, 0, {}]]]}, {"class_name": "Concatenate", "config": {"name": "RDB_Concat_6_3_4", "trainable": true, "dtype": "float32", "axis": 3}, "name": "RDB_Concat_6_3_4", "inbound_nodes": [[["RDB_Concat_6_3_3", 0, 0, {}], ["F_6_3_4_Relu", 0, 0, {}]]]}, {"class_name": "Conv2D", "config": {"name": "LFF_6_3", "trainable": true, "dtype": "float32", "filters": 64, "kernel_size": [3, 3], "strides": [1, 1], "padding": "same", "data_format": "channels_last", "dilation_rate": [1, 1], "groups": 1, "activation": "linear", "use_bias": true, "kernel_initializer": {"class_name": "RandomUniform", "config": {"minval": -0.05, "maxval": 0.05, "seed": null}, "shared_object_id": 1}, "bias_initializer": {"class_name": "Zeros", "config": {}}, "kernel_regularizer": null, "bias_regularizer": null, "activity_regularizer": null, "kernel_constraint": null, "bias_constraint": null}, "name": "LFF_6_3", "inbound_nodes": [[["RDB_Concat_6_3_4", 0, 0, {}]]]}, {"class_name": "MultiplyBeta", "config": {"name": "multiply_beta_22", "trainable": true, "dtype": "float32", "beta": 0.2}, "name": "multiply_beta_22", "inbound_nodes": [[["LFF_6_3", 0, 0, {}]]]}, {"class_name": "Add", "config": {"name": "LRL_6_3", "trainable": true, "dtype": "float32"}, "name": "LRL_6_3", "inbound_nodes": [[["LRL_6_2", 0, 0, {}], ["multiply_beta_22", 0, 0, {}]]]}, {"class_name": "MultiplyBeta", "config": {"name": "multiply_beta_23", "trainable": true, "dtype": "float32", "beta": 0.2}, "name": "multiply_beta_23", "inbound_nodes": [[["LRL_6_3", 0, 0, {}]]]}, {"class_name": "Add", "config": {"name": "RRDB_6_out", "trainable": true, "dtype": "float32"}, "name": "RRDB_6_out", "inbound_nodes": [[["RRDB_5_out", 0, 0, {}], ["multiply_beta_23", 0, 0, {}]]]}, {"class_name": "Conv2D", "config": {"name": "F_7_1_1", "trainable": true, "dtype": "float32", "filters": 32, "kernel_size": [3, 3], "strides": [1, 1], "padding": "same", "data_format": "channels_last", "dilation_rate": [1, 1], "groups": 1, "activation": "linear", "use_bias": true, "kernel_initializer": {"class_name": "RandomUniform", "config": {"minval": -0.05, "maxval": 0.05, "seed": null}, "shared_object_id": 1}, "bias_initializer": {"class_name": "Zeros", "config": {}}, "kernel_regularizer": null, "bias_regularizer": null, "activity_regularizer": null, "kernel_constraint": null, "bias_constraint": null}, "name": "F_7_1_1", "inbound_nodes": [[["RRDB_6_out", 0, 0, {}]]]}, {"class_name": "Activation", "config": {"name": "F_7_1_1_Relu", "trainable": true, "dtype": "float32", "activation": "relu"}, "name": "F_7_1_1_Relu", "inbound_nodes": [[["F_7_1_1", 0, 0, {}]]]}, {"class_name": "Concatenate", "config": {"name": "RDB_Concat_7_1_1", "trainable": true, "dtype": "float32", "axis": 3}, "name": "RDB_Concat_7_1_1", "inbound_nodes": [[["RRDB_6_out", 0, 0, {}], ["F_7_1_1_Relu", 0, 0, {}]]]}, {"class_name": "Conv2D", "config": {"name": "F_7_1_2", "trainable": true, "dtype": "float32", "filters": 32, "kernel_size": [3, 3], "strides": [1, 1], "padding": "same", "data_format": "channels_last", "dilation_rate": [1, 1], "groups": 1, "activation": "linear", "use_bias": true, "kernel_initializer": {"class_name": "RandomUniform", "config": {"minval": -0.05, "maxval": 0.05, "seed": null}, "shared_object_id": 1}, "bias_initializer": {"class_name": "Zeros", "config": {}}, "kernel_regularizer": null, "bias_regularizer": null, "activity_regularizer": null, "kernel_constraint": null, "bias_constraint": null}, "name": "F_7_1_2", "inbound_nodes": [[["RDB_Concat_7_1_1", 0, 0, {}]]]}, {"class_name": "Activation", "config": {"name": "F_7_1_2_Relu", "trainable": true, "dtype": "float32", "activation": "relu"}, "name": "F_7_1_2_Relu", "inbound_nodes": [[["F_7_1_2", 0, 0, {}]]]}, {"class_name": "Concatenate", "config": {"name": "RDB_Concat_7_1_2", "trainable": true, "dtype": "float32", "axis": 3}, "name": "RDB_Concat_7_1_2", "inbound_nodes": [[["RDB_Concat_7_1_1", 0, 0, {}], ["F_7_1_2_Relu", 0, 0, {}]]]}, {"class_name": "Conv2D", "config": {"name": "F_7_1_3", "trainable": true, "dtype": "float32", "filters": 32, "kernel_size": [3, 3], "strides": [1, 1], "padding": "same", "data_format": "channels_last", "dilation_rate": [1, 1], "groups": 1, "activation": "linear", "use_bias": true, "kernel_initializer": {"class_name": "RandomUniform", "config": {"minval": -0.05, "maxval": 0.05, "seed": null}, "shared_object_id": 1}, "bias_initializer": {"class_name": "Zeros", "config": {}}, "kernel_regularizer": null, "bias_regularizer": null, "activity_regularizer": null, "kernel_constraint": null, "bias_constraint": null}, "name": "F_7_1_3", "inbound_nodes": [[["RDB_Concat_7_1_2", 0, 0, {}]]]}, {"class_name": "Activation", "config": {"name": "F_7_1_3_Relu", "trainable": true, "dtype": "float32", "activation": "relu"}, "name": "F_7_1_3_Relu", "inbound_nodes": [[["F_7_1_3", 0, 0, {}]]]}, {"class_name": "Concatenate", "config": {"name": "RDB_Concat_7_1_3", "trainable": true, "dtype": "float32", "axis": 3}, "name": "RDB_Concat_7_1_3", "inbound_nodes": [[["RDB_Concat_7_1_2", 0, 0, {}], ["F_7_1_3_Relu", 0, 0, {}]]]}, {"class_name": "Conv2D", "config": {"name": "F_7_1_4", "trainable": true, "dtype": "float32", "filters": 32, "kernel_size": [3, 3], "strides": [1, 1], "padding": "same", "data_format": "channels_last", "dilation_rate": [1, 1], "groups": 1, "activation": "linear", "use_bias": true, "kernel_initializer": {"class_name": "RandomUniform", "config": {"minval": -0.05, "maxval": 0.05, "seed": null}, "shared_object_id": 1}, "bias_initializer": {"class_name": "Zeros", "config": {}}, "kernel_regularizer": null, "bias_regularizer": null, "activity_regularizer": null, "kernel_constraint": null, "bias_constraint": null}, "name": "F_7_1_4", "inbound_nodes": [[["RDB_Concat_7_1_3", 0, 0, {}]]]}, {"class_name": "Activation", "config": {"name": "F_7_1_4_Relu", "trainable": true, "dtype": "float32", "activation": "relu"}, "name": "F_7_1_4_Relu", "inbound_nodes": [[["F_7_1_4", 0, 0, {}]]]}, {"class_name": "Concatenate", "config": {"name": "RDB_Concat_7_1_4", "trainable": true, "dtype": "float32", "axis": 3}, "name": "RDB_Concat_7_1_4", "inbound_nodes": [[["RDB_Concat_7_1_3", 0, 0, {}], ["F_7_1_4_Relu", 0, 0, {}]]]}, {"class_name": "Conv2D", "config": {"name": "LFF_7_1", "trainable": true, "dtype": "float32", "filters": 64, "kernel_size": [3, 3], "strides": [1, 1], "padding": "same", "data_format": "channels_last", "dilation_rate": [1, 1], "groups": 1, "activation": "linear", "use_bias": true, "kernel_initializer": {"class_name": "RandomUniform", "config": {"minval": -0.05, "maxval": 0.05, "seed": null}, "shared_object_id": 1}, "bias_initializer": {"class_name": "Zeros", "config": {}}, "kernel_regularizer": null, "bias_regularizer": null, "activity_regularizer": null, "kernel_constraint": null, "bias_constraint": null}, "name": "LFF_7_1", "inbound_nodes": [[["RDB_Concat_7_1_4", 0, 0, {}]]]}, {"class_name": "MultiplyBeta", "config": {"name": "multiply_beta_24", "trainable": true, "dtype": "float32", "beta": 0.2}, "name": "multiply_beta_24", "inbound_nodes": [[["LFF_7_1", 0, 0, {}]]]}, {"class_name": "Add", "config": {"name": "LRL_7_1", "trainable": true, "dtype": "float32"}, "name": "LRL_7_1", "inbound_nodes": [[["RRDB_6_out", 0, 0, {}], ["multiply_beta_24", 0, 0, {}]]]}, {"class_name": "Conv2D", "config": {"name": "F_7_2_1", "trainable": true, "dtype": "float32", "filters": 32, "kernel_size": [3, 3], "strides": [1, 1], "padding": "same", "data_format": "channels_last", "dilation_rate": [1, 1], "groups": 1, "activation": "linear", "use_bias": true, "kernel_initializer": {"class_name": "RandomUniform", "config": {"minval": -0.05, "maxval": 0.05, "seed": null}, "shared_object_id": 1}, "bias_initializer": {"class_name": "Zeros", "config": {}}, "kernel_regularizer": null, "bias_regularizer": null, "activity_regularizer": null, "kernel_constraint": null, "bias_constraint": null}, "name": "F_7_2_1", "inbound_nodes": [[["LRL_7_1", 0, 0, {}]]]}, {"class_name": "Activation", "config": {"name": "F_7_2_1_Relu", "trainable": true, "dtype": "float32", "activation": "relu"}, "name": "F_7_2_1_Relu", "inbound_nodes": [[["F_7_2_1", 0, 0, {}]]]}, {"class_name": "Concatenate", "config": {"name": "RDB_Concat_7_2_1", "trainable": true, "dtype": "float32", "axis": 3}, "name": "RDB_Concat_7_2_1", "inbound_nodes": [[["LRL_7_1", 0, 0, {}], ["F_7_2_1_Relu", 0, 0, {}]]]}, {"class_name": "Conv2D", "config": {"name": "F_7_2_2", "trainable": true, "dtype": "float32", "filters": 32, "kernel_size": [3, 3], "strides": [1, 1], "padding": "same", "data_format": "channels_last", "dilation_rate": [1, 1], "groups": 1, "activation": "linear", "use_bias": true, "kernel_initializer": {"class_name": "RandomUniform", "config": {"minval": -0.05, "maxval": 0.05, "seed": null}, "shared_object_id": 1}, "bias_initializer": {"class_name": "Zeros", "config": {}}, "kernel_regularizer": null, "bias_regularizer": null, "activity_regularizer": null, "kernel_constraint": null, "bias_constraint": null}, "name": "F_7_2_2", "inbound_nodes": [[["RDB_Concat_7_2_1", 0, 0, {}]]]}, {"class_name": "Activation", "config": {"name": "F_7_2_2_Relu", "trainable": true, "dtype": "float32", "activation": "relu"}, "name": "F_7_2_2_Relu", "inbound_nodes": [[["F_7_2_2", 0, 0, {}]]]}, {"class_name": "Concatenate", "config": {"name": "RDB_Concat_7_2_2", "trainable": true, "dtype": "float32", "axis": 3}, "name": "RDB_Concat_7_2_2", "inbound_nodes": [[["RDB_Concat_7_2_1", 0, 0, {}], ["F_7_2_2_Relu", 0, 0, {}]]]}, {"class_name": "Conv2D", "config": {"name": "F_7_2_3", "trainable": true, "dtype": "float32", "filters": 32, "kernel_size": [3, 3], "strides": [1, 1], "padding": "same", "data_format": "channels_last", "dilation_rate": [1, 1], "groups": 1, "activation": "linear", "use_bias": true, "kernel_initializer": {"class_name": "RandomUniform", "config": {"minval": -0.05, "maxval": 0.05, "seed": null}, "shared_object_id": 1}, "bias_initializer": {"class_name": "Zeros", "config": {}}, "kernel_regularizer": null, "bias_regularizer": null, "activity_regularizer": null, "kernel_constraint": null, "bias_constraint": null}, "name": "F_7_2_3", "inbound_nodes": [[["RDB_Concat_7_2_2", 0, 0, {}]]]}, {"class_name": "Activation", "config": {"name": "F_7_2_3_Relu", "trainable": true, "dtype": "float32", "activation": "relu"}, "name": "F_7_2_3_Relu", "inbound_nodes": [[["F_7_2_3", 0, 0, {}]]]}, {"class_name": "Concatenate", "config": {"name": "RDB_Concat_7_2_3", "trainable": true, "dtype": "float32", "axis": 3}, "name": "RDB_Concat_7_2_3", "inbound_nodes": [[["RDB_Concat_7_2_2", 0, 0, {}], ["F_7_2_3_Relu", 0, 0, {}]]]}, {"class_name": "Conv2D", "config": {"name": "F_7_2_4", "trainable": true, "dtype": "float32", "filters": 32, "kernel_size": [3, 3], "strides": [1, 1], "padding": "same", "data_format": "channels_last", "dilation_rate": [1, 1], "groups": 1, "activation": "linear", "use_bias": true, "kernel_initializer": {"class_name": "RandomUniform", "config": {"minval": -0.05, "maxval": 0.05, "seed": null}, "shared_object_id": 1}, "bias_initializer": {"class_name": "Zeros", "config": {}}, "kernel_regularizer": null, "bias_regularizer": null, "activity_regularizer": null, "kernel_constraint": null, "bias_constraint": null}, "name": "F_7_2_4", "inbound_nodes": [[["RDB_Concat_7_2_3", 0, 0, {}]]]}, {"class_name": "Activation", "config": {"name": "F_7_2_4_Relu", "trainable": true, "dtype": "float32", "activation": "relu"}, "name": "F_7_2_4_Relu", "inbound_nodes": [[["F_7_2_4", 0, 0, {}]]]}, {"class_name": "Concatenate", "config": {"name": "RDB_Concat_7_2_4", "trainable": true, "dtype": "float32", "axis": 3}, "name": "RDB_Concat_7_2_4", "inbound_nodes": [[["RDB_Concat_7_2_3", 0, 0, {}], ["F_7_2_4_Relu", 0, 0, {}]]]}, {"class_name": "Conv2D", "config": {"name": "LFF_7_2", "trainable": true, "dtype": "float32", "filters": 64, "kernel_size": [3, 3], "strides": [1, 1], "padding": "same", "data_format": "channels_last", "dilation_rate": [1, 1], "groups": 1, "activation": "linear", "use_bias": true, "kernel_initializer": {"class_name": "RandomUniform", "config": {"minval": -0.05, "maxval": 0.05, "seed": null}, "shared_object_id": 1}, "bias_initializer": {"class_name": "Zeros", "config": {}}, "kernel_regularizer": null, "bias_regularizer": null, "activity_regularizer": null, "kernel_constraint": null, "bias_constraint": null}, "name": "LFF_7_2", "inbound_nodes": [[["RDB_Concat_7_2_4", 0, 0, {}]]]}, {"class_name": "MultiplyBeta", "config": {"name": "multiply_beta_25", "trainable": true, "dtype": "float32", "beta": 0.2}, "name": "multiply_beta_25", "inbound_nodes": [[["LFF_7_2", 0, 0, {}]]]}, {"class_name": "Add", "config": {"name": "LRL_7_2", "trainable": true, "dtype": "float32"}, "name": "LRL_7_2", "inbound_nodes": [[["LRL_7_1", 0, 0, {}], ["multiply_beta_25", 0, 0, {}]]]}, {"class_name": "Conv2D", "config": {"name": "F_7_3_1", "trainable": true, "dtype": "float32", "filters": 32, "kernel_size": [3, 3], "strides": [1, 1], "padding": "same", "data_format": "channels_last", "dilation_rate": [1, 1], "groups": 1, "activation": "linear", "use_bias": true, "kernel_initializer": {"class_name": "RandomUniform", "config": {"minval": -0.05, "maxval": 0.05, "seed": null}, "shared_object_id": 1}, "bias_initializer": {"class_name": "Zeros", "config": {}}, "kernel_regularizer": null, "bias_regularizer": null, "activity_regularizer": null, "kernel_constraint": null, "bias_constraint": null}, "name": "F_7_3_1", "inbound_nodes": [[["LRL_7_2", 0, 0, {}]]]}, {"class_name": "Activation", "config": {"name": "F_7_3_1_Relu", "trainable": true, "dtype": "float32", "activation": "relu"}, "name": "F_7_3_1_Relu", "inbound_nodes": [[["F_7_3_1", 0, 0, {}]]]}, {"class_name": "Concatenate", "config": {"name": "RDB_Concat_7_3_1", "trainable": true, "dtype": "float32", "axis": 3}, "name": "RDB_Concat_7_3_1", "inbound_nodes": [[["LRL_7_2", 0, 0, {}], ["F_7_3_1_Relu", 0, 0, {}]]]}, {"class_name": "Conv2D", "config": {"name": "F_7_3_2", "trainable": true, "dtype": "float32", "filters": 32, "kernel_size": [3, 3], "strides": [1, 1], "padding": "same", "data_format": "channels_last", "dilation_rate": [1, 1], "groups": 1, "activation": "linear", "use_bias": true, "kernel_initializer": {"class_name": "RandomUniform", "config": {"minval": -0.05, "maxval": 0.05, "seed": null}, "shared_object_id": 1}, "bias_initializer": {"class_name": "Zeros", "config": {}}, "kernel_regularizer": null, "bias_regularizer": null, "activity_regularizer": null, "kernel_constraint": null, "bias_constraint": null}, "name": "F_7_3_2", "inbound_nodes": [[["RDB_Concat_7_3_1", 0, 0, {}]]]}, {"class_name": "Activation", "config": {"name": "F_7_3_2_Relu", "trainable": true, "dtype": "float32", "activation": "relu"}, "name": "F_7_3_2_Relu", "inbound_nodes": [[["F_7_3_2", 0, 0, {}]]]}, {"class_name": "Concatenate", "config": {"name": "RDB_Concat_7_3_2", "trainable": true, "dtype": "float32", "axis": 3}, "name": "RDB_Concat_7_3_2", "inbound_nodes": [[["RDB_Concat_7_3_1", 0, 0, {}], ["F_7_3_2_Relu", 0, 0, {}]]]}, {"class_name": "Conv2D", "config": {"name": "F_7_3_3", "trainable": true, "dtype": "float32", "filters": 32, "kernel_size": [3, 3], "strides": [1, 1], "padding": "same", "data_format": "channels_last", "dilation_rate": [1, 1], "groups": 1, "activation": "linear", "use_bias": true, "kernel_initializer": {"class_name": "RandomUniform", "config": {"minval": -0.05, "maxval": 0.05, "seed": null}, "shared_object_id": 1}, "bias_initializer": {"class_name": "Zeros", "config": {}}, "kernel_regularizer": null, "bias_regularizer": null, "activity_regularizer": null, "kernel_constraint": null, "bias_constraint": null}, "name": "F_7_3_3", "inbound_nodes": [[["RDB_Concat_7_3_2", 0, 0, {}]]]}, {"class_name": "Activation", "config": {"name": "F_7_3_3_Relu", "trainable": true, "dtype": "float32", "activation": "relu"}, "name": "F_7_3_3_Relu", "inbound_nodes": [[["F_7_3_3", 0, 0, {}]]]}, {"class_name": "Concatenate", "config": {"name": "RDB_Concat_7_3_3", "trainable": true, "dtype": "float32", "axis": 3}, "name": "RDB_Concat_7_3_3", "inbound_nodes": [[["RDB_Concat_7_3_2", 0, 0, {}], ["F_7_3_3_Relu", 0, 0, {}]]]}, {"class_name": "Conv2D", "config": {"name": "F_7_3_4", "trainable": true, "dtype": "float32", "filters": 32, "kernel_size": [3, 3], "strides": [1, 1], "padding": "same", "data_format": "channels_last", "dilation_rate": [1, 1], "groups": 1, "activation": "linear", "use_bias": true, "kernel_initializer": {"class_name": "RandomUniform", "config": {"minval": -0.05, "maxval": 0.05, "seed": null}, "shared_object_id": 1}, "bias_initializer": {"class_name": "Zeros", "config": {}}, "kernel_regularizer": null, "bias_regularizer": null, "activity_regularizer": null, "kernel_constraint": null, "bias_constraint": null}, "name": "F_7_3_4", "inbound_nodes": [[["RDB_Concat_7_3_3", 0, 0, {}]]]}, {"class_name": "Activation", "config": {"name": "F_7_3_4_Relu", "trainable": true, "dtype": "float32", "activation": "relu"}, "name": "F_7_3_4_Relu", "inbound_nodes": [[["F_7_3_4", 0, 0, {}]]]}, {"class_name": "Concatenate", "config": {"name": "RDB_Concat_7_3_4", "trainable": true, "dtype": "float32", "axis": 3}, "name": "RDB_Concat_7_3_4", "inbound_nodes": [[["RDB_Concat_7_3_3", 0, 0, {}], ["F_7_3_4_Relu", 0, 0, {}]]]}, {"class_name": "Conv2D", "config": {"name": "LFF_7_3", "trainable": true, "dtype": "float32", "filters": 64, "kernel_size": [3, 3], "strides": [1, 1], "padding": "same", "data_format": "channels_last", "dilation_rate": [1, 1], "groups": 1, "activation": "linear", "use_bias": true, "kernel_initializer": {"class_name": "RandomUniform", "config": {"minval": -0.05, "maxval": 0.05, "seed": null}, "shared_object_id": 1}, "bias_initializer": {"class_name": "Zeros", "config": {}}, "kernel_regularizer": null, "bias_regularizer": null, "activity_regularizer": null, "kernel_constraint": null, "bias_constraint": null}, "name": "LFF_7_3", "inbound_nodes": [[["RDB_Concat_7_3_4", 0, 0, {}]]]}, {"class_name": "MultiplyBeta", "config": {"name": "multiply_beta_26", "trainable": true, "dtype": "float32", "beta": 0.2}, "name": "multiply_beta_26", "inbound_nodes": [[["LFF_7_3", 0, 0, {}]]]}, {"class_name": "Add", "config": {"name": "LRL_7_3", "trainable": true, "dtype": "float32"}, "name": "LRL_7_3", "inbound_nodes": [[["LRL_7_2", 0, 0, {}], ["multiply_beta_26", 0, 0, {}]]]}, {"class_name": "MultiplyBeta", "config": {"name": "multiply_beta_27", "trainable": true, "dtype": "float32", "beta": 0.2}, "name": "multiply_beta_27", "inbound_nodes": [[["LRL_7_3", 0, 0, {}]]]}, {"class_name": "Add", "config": {"name": "RRDB_7_out", "trainable": true, "dtype": "float32"}, "name": "RRDB_7_out", "inbound_nodes": [[["RRDB_6_out", 0, 0, {}], ["multiply_beta_27", 0, 0, {}]]]}, {"class_name": "Conv2D", "config": {"name": "F_8_1_1", "trainable": true, "dtype": "float32", "filters": 32, "kernel_size": [3, 3], "strides": [1, 1], "padding": "same", "data_format": "channels_last", "dilation_rate": [1, 1], "groups": 1, "activation": "linear", "use_bias": true, "kernel_initializer": {"class_name": "RandomUniform", "config": {"minval": -0.05, "maxval": 0.05, "seed": null}, "shared_object_id": 1}, "bias_initializer": {"class_name": "Zeros", "config": {}}, "kernel_regularizer": null, "bias_regularizer": null, "activity_regularizer": null, "kernel_constraint": null, "bias_constraint": null}, "name": "F_8_1_1", "inbound_nodes": [[["RRDB_7_out", 0, 0, {}]]]}, {"class_name": "Activation", "config": {"name": "F_8_1_1_Relu", "trainable": true, "dtype": "float32", "activation": "relu"}, "name": "F_8_1_1_Relu", "inbound_nodes": [[["F_8_1_1", 0, 0, {}]]]}, {"class_name": "Concatenate", "config": {"name": "RDB_Concat_8_1_1", "trainable": true, "dtype": "float32", "axis": 3}, "name": "RDB_Concat_8_1_1", "inbound_nodes": [[["RRDB_7_out", 0, 0, {}], ["F_8_1_1_Relu", 0, 0, {}]]]}, {"class_name": "Conv2D", "config": {"name": "F_8_1_2", "trainable": true, "dtype": "float32", "filters": 32, "kernel_size": [3, 3], "strides": [1, 1], "padding": "same", "data_format": "channels_last", "dilation_rate": [1, 1], "groups": 1, "activation": "linear", "use_bias": true, "kernel_initializer": {"class_name": "RandomUniform", "config": {"minval": -0.05, "maxval": 0.05, "seed": null}, "shared_object_id": 1}, "bias_initializer": {"class_name": "Zeros", "config": {}}, "kernel_regularizer": null, "bias_regularizer": null, "activity_regularizer": null, "kernel_constraint": null, "bias_constraint": null}, "name": "F_8_1_2", "inbound_nodes": [[["RDB_Concat_8_1_1", 0, 0, {}]]]}, {"class_name": "Activation", "config": {"name": "F_8_1_2_Relu", "trainable": true, "dtype": "float32", "activation": "relu"}, "name": "F_8_1_2_Relu", "inbound_nodes": [[["F_8_1_2", 0, 0, {}]]]}, {"class_name": "Concatenate", "config": {"name": "RDB_Concat_8_1_2", "trainable": true, "dtype": "float32", "axis": 3}, "name": "RDB_Concat_8_1_2", "inbound_nodes": [[["RDB_Concat_8_1_1", 0, 0, {}], ["F_8_1_2_Relu", 0, 0, {}]]]}, {"class_name": "Conv2D", "config": {"name": "F_8_1_3", "trainable": true, "dtype": "float32", "filters": 32, "kernel_size": [3, 3], "strides": [1, 1], "padding": "same", "data_format": "channels_last", "dilation_rate": [1, 1], "groups": 1, "activation": "linear", "use_bias": true, "kernel_initializer": {"class_name": "RandomUniform", "config": {"minval": -0.05, "maxval": 0.05, "seed": null}, "shared_object_id": 1}, "bias_initializer": {"class_name": "Zeros", "config": {}}, "kernel_regularizer": null, "bias_regularizer": null, "activity_regularizer": null, "kernel_constraint": null, "bias_constraint": null}, "name": "F_8_1_3", "inbound_nodes": [[["RDB_Concat_8_1_2", 0, 0, {}]]]}, {"class_name": "Activation", "config": {"name": "F_8_1_3_Relu", "trainable": true, "dtype": "float32", "activation": "relu"}, "name": "F_8_1_3_Relu", "inbound_nodes": [[["F_8_1_3", 0, 0, {}]]]}, {"class_name": "Concatenate", "config": {"name": "RDB_Concat_8_1_3", "trainable": true, "dtype": "float32", "axis": 3}, "name": "RDB_Concat_8_1_3", "inbound_nodes": [[["RDB_Concat_8_1_2", 0, 0, {}], ["F_8_1_3_Relu", 0, 0, {}]]]}, {"class_name": "Conv2D", "config": {"name": "F_8_1_4", "trainable": true, "dtype": "float32", "filters": 32, "kernel_size": [3, 3], "strides": [1, 1], "padding": "same", "data_format": "channels_last", "dilation_rate": [1, 1], "groups": 1, "activation": "linear", "use_bias": true, "kernel_initializer": {"class_name": "RandomUniform", "config": {"minval": -0.05, "maxval": 0.05, "seed": null}, "shared_object_id": 1}, "bias_initializer": {"class_name": "Zeros", "config": {}}, "kernel_regularizer": null, "bias_regularizer": null, "activity_regularizer": null, "kernel_constraint": null, "bias_constraint": null}, "name": "F_8_1_4", "inbound_nodes": [[["RDB_Concat_8_1_3", 0, 0, {}]]]}, {"class_name": "Activation", "config": {"name": "F_8_1_4_Relu", "trainable": true, "dtype": "float32", "activation": "relu"}, "name": "F_8_1_4_Relu", "inbound_nodes": [[["F_8_1_4", 0, 0, {}]]]}, {"class_name": "Concatenate", "config": {"name": "RDB_Concat_8_1_4", "trainable": true, "dtype": "float32", "axis": 3}, "name": "RDB_Concat_8_1_4", "inbound_nodes": [[["RDB_Concat_8_1_3", 0, 0, {}], ["F_8_1_4_Relu", 0, 0, {}]]]}, {"class_name": "Conv2D", "config": {"name": "LFF_8_1", "trainable": true, "dtype": "float32", "filters": 64, "kernel_size": [3, 3], "strides": [1, 1], "padding": "same", "data_format": "channels_last", "dilation_rate": [1, 1], "groups": 1, "activation": "linear", "use_bias": true, "kernel_initializer": {"class_name": "RandomUniform", "config": {"minval": -0.05, "maxval": 0.05, "seed": null}, "shared_object_id": 1}, "bias_initializer": {"class_name": "Zeros", "config": {}}, "kernel_regularizer": null, "bias_regularizer": null, "activity_regularizer": null, "kernel_constraint": null, "bias_constraint": null}, "name": "LFF_8_1", "inbound_nodes": [[["RDB_Concat_8_1_4", 0, 0, {}]]]}, {"class_name": "MultiplyBeta", "config": {"name": "multiply_beta_28", "trainable": true, "dtype": "float32", "beta": 0.2}, "name": "multiply_beta_28", "inbound_nodes": [[["LFF_8_1", 0, 0, {}]]]}, {"class_name": "Add", "config": {"name": "LRL_8_1", "trainable": true, "dtype": "float32"}, "name": "LRL_8_1", "inbound_nodes": [[["RRDB_7_out", 0, 0, {}], ["multiply_beta_28", 0, 0, {}]]]}, {"class_name": "Conv2D", "config": {"name": "F_8_2_1", "trainable": true, "dtype": "float32", "filters": 32, "kernel_size": [3, 3], "strides": [1, 1], "padding": "same", "data_format": "channels_last", "dilation_rate": [1, 1], "groups": 1, "activation": "linear", "use_bias": true, "kernel_initializer": {"class_name": "RandomUniform", "config": {"minval": -0.05, "maxval": 0.05, "seed": null}, "shared_object_id": 1}, "bias_initializer": {"class_name": "Zeros", "config": {}}, "kernel_regularizer": null, "bias_regularizer": null, "activity_regularizer": null, "kernel_constraint": null, "bias_constraint": null}, "name": "F_8_2_1", "inbound_nodes": [[["LRL_8_1", 0, 0, {}]]]}, {"class_name": "Activation", "config": {"name": "F_8_2_1_Relu", "trainable": true, "dtype": "float32", "activation": "relu"}, "name": "F_8_2_1_Relu", "inbound_nodes": [[["F_8_2_1", 0, 0, {}]]]}, {"class_name": "Concatenate", "config": {"name": "RDB_Concat_8_2_1", "trainable": true, "dtype": "float32", "axis": 3}, "name": "RDB_Concat_8_2_1", "inbound_nodes": [[["LRL_8_1", 0, 0, {}], ["F_8_2_1_Relu", 0, 0, {}]]]}, {"class_name": "Conv2D", "config": {"name": "F_8_2_2", "trainable": true, "dtype": "float32", "filters": 32, "kernel_size": [3, 3], "strides": [1, 1], "padding": "same", "data_format": "channels_last", "dilation_rate": [1, 1], "groups": 1, "activation": "linear", "use_bias": true, "kernel_initializer": {"class_name": "RandomUniform", "config": {"minval": -0.05, "maxval": 0.05, "seed": null}, "shared_object_id": 1}, "bias_initializer": {"class_name": "Zeros", "config": {}}, "kernel_regularizer": null, "bias_regularizer": null, "activity_regularizer": null, "kernel_constraint": null, "bias_constraint": null}, "name": "F_8_2_2", "inbound_nodes": [[["RDB_Concat_8_2_1", 0, 0, {}]]]}, {"class_name": "Activation", "config": {"name": "F_8_2_2_Relu", "trainable": true, "dtype": "float32", "activation": "relu"}, "name": "F_8_2_2_Relu", "inbound_nodes": [[["F_8_2_2", 0, 0, {}]]]}, {"class_name": "Concatenate", "config": {"name": "RDB_Concat_8_2_2", "trainable": true, "dtype": "float32", "axis": 3}, "name": "RDB_Concat_8_2_2", "inbound_nodes": [[["RDB_Concat_8_2_1", 0, 0, {}], ["F_8_2_2_Relu", 0, 0, {}]]]}, {"class_name": "Conv2D", "config": {"name": "F_8_2_3", "trainable": true, "dtype": "float32", "filters": 32, "kernel_size": [3, 3], "strides": [1, 1], "padding": "same", "data_format": "channels_last", "dilation_rate": [1, 1], "groups": 1, "activation": "linear", "use_bias": true, "kernel_initializer": {"class_name": "RandomUniform", "config": {"minval": -0.05, "maxval": 0.05, "seed": null}, "shared_object_id": 1}, "bias_initializer": {"class_name": "Zeros", "config": {}}, "kernel_regularizer": null, "bias_regularizer": null, "activity_regularizer": null, "kernel_constraint": null, "bias_constraint": null}, "name": "F_8_2_3", "inbound_nodes": [[["RDB_Concat_8_2_2", 0, 0, {}]]]}, {"class_name": "Activation", "config": {"name": "F_8_2_3_Relu", "trainable": true, "dtype": "float32", "activation": "relu"}, "name": "F_8_2_3_Relu", "inbound_nodes": [[["F_8_2_3", 0, 0, {}]]]}, {"class_name": "Concatenate", "config": {"name": "RDB_Concat_8_2_3", "trainable": true, "dtype": "float32", "axis": 3}, "name": "RDB_Concat_8_2_3", "inbound_nodes": [[["RDB_Concat_8_2_2", 0, 0, {}], ["F_8_2_3_Relu", 0, 0, {}]]]}, {"class_name": "Conv2D", "config": {"name": "F_8_2_4", "trainable": true, "dtype": "float32", "filters": 32, "kernel_size": [3, 3], "strides": [1, 1], "padding": "same", "data_format": "channels_last", "dilation_rate": [1, 1], "groups": 1, "activation": "linear", "use_bias": true, "kernel_initializer": {"class_name": "RandomUniform", "config": {"minval": -0.05, "maxval": 0.05, "seed": null}, "shared_object_id": 1}, "bias_initializer": {"class_name": "Zeros", "config": {}}, "kernel_regularizer": null, "bias_regularizer": null, "activity_regularizer": null, "kernel_constraint": null, "bias_constraint": null}, "name": "F_8_2_4", "inbound_nodes": [[["RDB_Concat_8_2_3", 0, 0, {}]]]}, {"class_name": "Activation", "config": {"name": "F_8_2_4_Relu", "trainable": true, "dtype": "float32", "activation": "relu"}, "name": "F_8_2_4_Relu", "inbound_nodes": [[["F_8_2_4", 0, 0, {}]]]}, {"class_name": "Concatenate", "config": {"name": "RDB_Concat_8_2_4", "trainable": true, "dtype": "float32", "axis": 3}, "name": "RDB_Concat_8_2_4", "inbound_nodes": [[["RDB_Concat_8_2_3", 0, 0, {}], ["F_8_2_4_Relu", 0, 0, {}]]]}, {"class_name": "Conv2D", "config": {"name": "LFF_8_2", "trainable": true, "dtype": "float32", "filters": 64, "kernel_size": [3, 3], "strides": [1, 1], "padding": "same", "data_format": "channels_last", "dilation_rate": [1, 1], "groups": 1, "activation": "linear", "use_bias": true, "kernel_initializer": {"class_name": "RandomUniform", "config": {"minval": -0.05, "maxval": 0.05, "seed": null}, "shared_object_id": 1}, "bias_initializer": {"class_name": "Zeros", "config": {}}, "kernel_regularizer": null, "bias_regularizer": null, "activity_regularizer": null, "kernel_constraint": null, "bias_constraint": null}, "name": "LFF_8_2", "inbound_nodes": [[["RDB_Concat_8_2_4", 0, 0, {}]]]}, {"class_name": "MultiplyBeta", "config": {"name": "multiply_beta_29", "trainable": true, "dtype": "float32", "beta": 0.2}, "name": "multiply_beta_29", "inbound_nodes": [[["LFF_8_2", 0, 0, {}]]]}, {"class_name": "Add", "config": {"name": "LRL_8_2", "trainable": true, "dtype": "float32"}, "name": "LRL_8_2", "inbound_nodes": [[["LRL_8_1", 0, 0, {}], ["multiply_beta_29", 0, 0, {}]]]}, {"class_name": "Conv2D", "config": {"name": "F_8_3_1", "trainable": true, "dtype": "float32", "filters": 32, "kernel_size": [3, 3], "strides": [1, 1], "padding": "same", "data_format": "channels_last", "dilation_rate": [1, 1], "groups": 1, "activation": "linear", "use_bias": true, "kernel_initializer": {"class_name": "RandomUniform", "config": {"minval": -0.05, "maxval": 0.05, "seed": null}, "shared_object_id": 1}, "bias_initializer": {"class_name": "Zeros", "config": {}}, "kernel_regularizer": null, "bias_regularizer": null, "activity_regularizer": null, "kernel_constraint": null, "bias_constraint": null}, "name": "F_8_3_1", "inbound_nodes": [[["LRL_8_2", 0, 0, {}]]]}, {"class_name": "Activation", "config": {"name": "F_8_3_1_Relu", "trainable": true, "dtype": "float32", "activation": "relu"}, "name": "F_8_3_1_Relu", "inbound_nodes": [[["F_8_3_1", 0, 0, {}]]]}, {"class_name": "Concatenate", "config": {"name": "RDB_Concat_8_3_1", "trainable": true, "dtype": "float32", "axis": 3}, "name": "RDB_Concat_8_3_1", "inbound_nodes": [[["LRL_8_2", 0, 0, {}], ["F_8_3_1_Relu", 0, 0, {}]]]}, {"class_name": "Conv2D", "config": {"name": "F_8_3_2", "trainable": true, "dtype": "float32", "filters": 32, "kernel_size": [3, 3], "strides": [1, 1], "padding": "same", "data_format": "channels_last", "dilation_rate": [1, 1], "groups": 1, "activation": "linear", "use_bias": true, "kernel_initializer": {"class_name": "RandomUniform", "config": {"minval": -0.05, "maxval": 0.05, "seed": null}, "shared_object_id": 1}, "bias_initializer": {"class_name": "Zeros", "config": {}}, "kernel_regularizer": null, "bias_regularizer": null, "activity_regularizer": null, "kernel_constraint": null, "bias_constraint": null}, "name": "F_8_3_2", "inbound_nodes": [[["RDB_Concat_8_3_1", 0, 0, {}]]]}, {"class_name": "Activation", "config": {"name": "F_8_3_2_Relu", "trainable": true, "dtype": "float32", "activation": "relu"}, "name": "F_8_3_2_Relu", "inbound_nodes": [[["F_8_3_2", 0, 0, {}]]]}, {"class_name": "Concatenate", "config": {"name": "RDB_Concat_8_3_2", "trainable": true, "dtype": "float32", "axis": 3}, "name": "RDB_Concat_8_3_2", "inbound_nodes": [[["RDB_Concat_8_3_1", 0, 0, {}], ["F_8_3_2_Relu", 0, 0, {}]]]}, {"class_name": "Conv2D", "config": {"name": "F_8_3_3", "trainable": true, "dtype": "float32", "filters": 32, "kernel_size": [3, 3], "strides": [1, 1], "padding": "same", "data_format": "channels_last", "dilation_rate": [1, 1], "groups": 1, "activation": "linear", "use_bias": true, "kernel_initializer": {"class_name": "RandomUniform", "config": {"minval": -0.05, "maxval": 0.05, "seed": null}, "shared_object_id": 1}, "bias_initializer": {"class_name": "Zeros", "config": {}}, "kernel_regularizer": null, "bias_regularizer": null, "activity_regularizer": null, "kernel_constraint": null, "bias_constraint": null}, "name": "F_8_3_3", "inbound_nodes": [[["RDB_Concat_8_3_2", 0, 0, {}]]]}, {"class_name": "Activation", "config": {"name": "F_8_3_3_Relu", "trainable": true, "dtype": "float32", "activation": "relu"}, "name": "F_8_3_3_Relu", "inbound_nodes": [[["F_8_3_3", 0, 0, {}]]]}, {"class_name": "Concatenate", "config": {"name": "RDB_Concat_8_3_3", "trainable": true, "dtype": "float32", "axis": 3}, "name": "RDB_Concat_8_3_3", "inbound_nodes": [[["RDB_Concat_8_3_2", 0, 0, {}], ["F_8_3_3_Relu", 0, 0, {}]]]}, {"class_name": "Conv2D", "config": {"name": "F_8_3_4", "trainable": true, "dtype": "float32", "filters": 32, "kernel_size": [3, 3], "strides": [1, 1], "padding": "same", "data_format": "channels_last", "dilation_rate": [1, 1], "groups": 1, "activation": "linear", "use_bias": true, "kernel_initializer": {"class_name": "RandomUniform", "config": {"minval": -0.05, "maxval": 0.05, "seed": null}, "shared_object_id": 1}, "bias_initializer": {"class_name": "Zeros", "config": {}}, "kernel_regularizer": null, "bias_regularizer": null, "activity_regularizer": null, "kernel_constraint": null, "bias_constraint": null}, "name": "F_8_3_4", "inbound_nodes": [[["RDB_Concat_8_3_3", 0, 0, {}]]]}, {"class_name": "Activation", "config": {"name": "F_8_3_4_Relu", "trainable": true, "dtype": "float32", "activation": "relu"}, "name": "F_8_3_4_Relu", "inbound_nodes": [[["F_8_3_4", 0, 0, {}]]]}, {"class_name": "Concatenate", "config": {"name": "RDB_Concat_8_3_4", "trainable": true, "dtype": "float32", "axis": 3}, "name": "RDB_Concat_8_3_4", "inbound_nodes": [[["RDB_Concat_8_3_3", 0, 0, {}], ["F_8_3_4_Relu", 0, 0, {}]]]}, {"class_name": "Conv2D", "config": {"name": "LFF_8_3", "trainable": true, "dtype": "float32", "filters": 64, "kernel_size": [3, 3], "strides": [1, 1], "padding": "same", "data_format": "channels_last", "dilation_rate": [1, 1], "groups": 1, "activation": "linear", "use_bias": true, "kernel_initializer": {"class_name": "RandomUniform", "config": {"minval": -0.05, "maxval": 0.05, "seed": null}, "shared_object_id": 1}, "bias_initializer": {"class_name": "Zeros", "config": {}}, "kernel_regularizer": null, "bias_regularizer": null, "activity_regularizer": null, "kernel_constraint": null, "bias_constraint": null}, "name": "LFF_8_3", "inbound_nodes": [[["RDB_Concat_8_3_4", 0, 0, {}]]]}, {"class_name": "MultiplyBeta", "config": {"name": "multiply_beta_30", "trainable": true, "dtype": "float32", "beta": 0.2}, "name": "multiply_beta_30", "inbound_nodes": [[["LFF_8_3", 0, 0, {}]]]}, {"class_name": "Add", "config": {"name": "LRL_8_3", "trainable": true, "dtype": "float32"}, "name": "LRL_8_3", "inbound_nodes": [[["LRL_8_2", 0, 0, {}], ["multiply_beta_30", 0, 0, {}]]]}, {"class_name": "MultiplyBeta", "config": {"name": "multiply_beta_31", "trainable": true, "dtype": "float32", "beta": 0.2}, "name": "multiply_beta_31", "inbound_nodes": [[["LRL_8_3", 0, 0, {}]]]}, {"class_name": "Add", "config": {"name": "RRDB_8_out", "trainable": true, "dtype": "float32"}, "name": "RRDB_8_out", "inbound_nodes": [[["RRDB_7_out", 0, 0, {}], ["multiply_beta_31", 0, 0, {}]]]}, {"class_name": "Conv2D", "config": {"name": "F_9_1_1", "trainable": true, "dtype": "float32", "filters": 32, "kernel_size": [3, 3], "strides": [1, 1], "padding": "same", "data_format": "channels_last", "dilation_rate": [1, 1], "groups": 1, "activation": "linear", "use_bias": true, "kernel_initializer": {"class_name": "RandomUniform", "config": {"minval": -0.05, "maxval": 0.05, "seed": null}, "shared_object_id": 1}, "bias_initializer": {"class_name": "Zeros", "config": {}}, "kernel_regularizer": null, "bias_regularizer": null, "activity_regularizer": null, "kernel_constraint": null, "bias_constraint": null}, "name": "F_9_1_1", "inbound_nodes": [[["RRDB_8_out", 0, 0, {}]]]}, {"class_name": "Activation", "config": {"name": "F_9_1_1_Relu", "trainable": true, "dtype": "float32", "activation": "relu"}, "name": "F_9_1_1_Relu", "inbound_nodes": [[["F_9_1_1", 0, 0, {}]]]}, {"class_name": "Concatenate", "config": {"name": "RDB_Concat_9_1_1", "trainable": true, "dtype": "float32", "axis": 3}, "name": "RDB_Concat_9_1_1", "inbound_nodes": [[["RRDB_8_out", 0, 0, {}], ["F_9_1_1_Relu", 0, 0, {}]]]}, {"class_name": "Conv2D", "config": {"name": "F_9_1_2", "trainable": true, "dtype": "float32", "filters": 32, "kernel_size": [3, 3], "strides": [1, 1], "padding": "same", "data_format": "channels_last", "dilation_rate": [1, 1], "groups": 1, "activation": "linear", "use_bias": true, "kernel_initializer": {"class_name": "RandomUniform", "config": {"minval": -0.05, "maxval": 0.05, "seed": null}, "shared_object_id": 1}, "bias_initializer": {"class_name": "Zeros", "config": {}}, "kernel_regularizer": null, "bias_regularizer": null, "activity_regularizer": null, "kernel_constraint": null, "bias_constraint": null}, "name": "F_9_1_2", "inbound_nodes": [[["RDB_Concat_9_1_1", 0, 0, {}]]]}, {"class_name": "Activation", "config": {"name": "F_9_1_2_Relu", "trainable": true, "dtype": "float32", "activation": "relu"}, "name": "F_9_1_2_Relu", "inbound_nodes": [[["F_9_1_2", 0, 0, {}]]]}, {"class_name": "Concatenate", "config": {"name": "RDB_Concat_9_1_2", "trainable": true, "dtype": "float32", "axis": 3}, "name": "RDB_Concat_9_1_2", "inbound_nodes": [[["RDB_Concat_9_1_1", 0, 0, {}], ["F_9_1_2_Relu", 0, 0, {}]]]}, {"class_name": "Conv2D", "config": {"name": "F_9_1_3", "trainable": true, "dtype": "float32", "filters": 32, "kernel_size": [3, 3], "strides": [1, 1], "padding": "same", "data_format": "channels_last", "dilation_rate": [1, 1], "groups": 1, "activation": "linear", "use_bias": true, "kernel_initializer": {"class_name": "RandomUniform", "config": {"minval": -0.05, "maxval": 0.05, "seed": null}, "shared_object_id": 1}, "bias_initializer": {"class_name": "Zeros", "config": {}}, "kernel_regularizer": null, "bias_regularizer": null, "activity_regularizer": null, "kernel_constraint": null, "bias_constraint": null}, "name": "F_9_1_3", "inbound_nodes": [[["RDB_Concat_9_1_2", 0, 0, {}]]]}, {"class_name": "Activation", "config": {"name": "F_9_1_3_Relu", "trainable": true, "dtype": "float32", "activation": "relu"}, "name": "F_9_1_3_Relu", "inbound_nodes": [[["F_9_1_3", 0, 0, {}]]]}, {"class_name": "Concatenate", "config": {"name": "RDB_Concat_9_1_3", "trainable": true, "dtype": "float32", "axis": 3}, "name": "RDB_Concat_9_1_3", "inbound_nodes": [[["RDB_Concat_9_1_2", 0, 0, {}], ["F_9_1_3_Relu", 0, 0, {}]]]}, {"class_name": "Conv2D", "config": {"name": "F_9_1_4", "trainable": true, "dtype": "float32", "filters": 32, "kernel_size": [3, 3], "strides": [1, 1], "padding": "same", "data_format": "channels_last", "dilation_rate": [1, 1], "groups": 1, "activation": "linear", "use_bias": true, "kernel_initializer": {"class_name": "RandomUniform", "config": {"minval": -0.05, "maxval": 0.05, "seed": null}, "shared_object_id": 1}, "bias_initializer": {"class_name": "Zeros", "config": {}}, "kernel_regularizer": null, "bias_regularizer": null, "activity_regularizer": null, "kernel_constraint": null, "bias_constraint": null}, "name": "F_9_1_4", "inbound_nodes": [[["RDB_Concat_9_1_3", 0, 0, {}]]]}, {"class_name": "Activation", "config": {"name": "F_9_1_4_Relu", "trainable": true, "dtype": "float32", "activation": "relu"}, "name": "F_9_1_4_Relu", "inbound_nodes": [[["F_9_1_4", 0, 0, {}]]]}, {"class_name": "Concatenate", "config": {"name": "RDB_Concat_9_1_4", "trainable": true, "dtype": "float32", "axis": 3}, "name": "RDB_Concat_9_1_4", "inbound_nodes": [[["RDB_Concat_9_1_3", 0, 0, {}], ["F_9_1_4_Relu", 0, 0, {}]]]}, {"class_name": "Conv2D", "config": {"name": "LFF_9_1", "trainable": true, "dtype": "float32", "filters": 64, "kernel_size": [3, 3], "strides": [1, 1], "padding": "same", "data_format": "channels_last", "dilation_rate": [1, 1], "groups": 1, "activation": "linear", "use_bias": true, "kernel_initializer": {"class_name": "RandomUniform", "config": {"minval": -0.05, "maxval": 0.05, "seed": null}, "shared_object_id": 1}, "bias_initializer": {"class_name": "Zeros", "config": {}}, "kernel_regularizer": null, "bias_regularizer": null, "activity_regularizer": null, "kernel_constraint": null, "bias_constraint": null}, "name": "LFF_9_1", "inbound_nodes": [[["RDB_Concat_9_1_4", 0, 0, {}]]]}, {"class_name": "MultiplyBeta", "config": {"name": "multiply_beta_32", "trainable": true, "dtype": "float32", "beta": 0.2}, "name": "multiply_beta_32", "inbound_nodes": [[["LFF_9_1", 0, 0, {}]]]}, {"class_name": "Add", "config": {"name": "LRL_9_1", "trainable": true, "dtype": "float32"}, "name": "LRL_9_1", "inbound_nodes": [[["RRDB_8_out", 0, 0, {}], ["multiply_beta_32", 0, 0, {}]]]}, {"class_name": "Conv2D", "config": {"name": "F_9_2_1", "trainable": true, "dtype": "float32", "filters": 32, "kernel_size": [3, 3], "strides": [1, 1], "padding": "same", "data_format": "channels_last", "dilation_rate": [1, 1], "groups": 1, "activation": "linear", "use_bias": true, "kernel_initializer": {"class_name": "RandomUniform", "config": {"minval": -0.05, "maxval": 0.05, "seed": null}, "shared_object_id": 1}, "bias_initializer": {"class_name": "Zeros", "config": {}}, "kernel_regularizer": null, "bias_regularizer": null, "activity_regularizer": null, "kernel_constraint": null, "bias_constraint": null}, "name": "F_9_2_1", "inbound_nodes": [[["LRL_9_1", 0, 0, {}]]]}, {"class_name": "Activation", "config": {"name": "F_9_2_1_Relu", "trainable": true, "dtype": "float32", "activation": "relu"}, "name": "F_9_2_1_Relu", "inbound_nodes": [[["F_9_2_1", 0, 0, {}]]]}, {"class_name": "Concatenate", "config": {"name": "RDB_Concat_9_2_1", "trainable": true, "dtype": "float32", "axis": 3}, "name": "RDB_Concat_9_2_1", "inbound_nodes": [[["LRL_9_1", 0, 0, {}], ["F_9_2_1_Relu", 0, 0, {}]]]}, {"class_name": "Conv2D", "config": {"name": "F_9_2_2", "trainable": true, "dtype": "float32", "filters": 32, "kernel_size": [3, 3], "strides": [1, 1], "padding": "same", "data_format": "channels_last", "dilation_rate": [1, 1], "groups": 1, "activation": "linear", "use_bias": true, "kernel_initializer": {"class_name": "RandomUniform", "config": {"minval": -0.05, "maxval": 0.05, "seed": null}, "shared_object_id": 1}, "bias_initializer": {"class_name": "Zeros", "config": {}}, "kernel_regularizer": null, "bias_regularizer": null, "activity_regularizer": null, "kernel_constraint": null, "bias_constraint": null}, "name": "F_9_2_2", "inbound_nodes": [[["RDB_Concat_9_2_1", 0, 0, {}]]]}, {"class_name": "Activation", "config": {"name": "F_9_2_2_Relu", "trainable": true, "dtype": "float32", "activation": "relu"}, "name": "F_9_2_2_Relu", "inbound_nodes": [[["F_9_2_2", 0, 0, {}]]]}, {"class_name": "Concatenate", "config": {"name": "RDB_Concat_9_2_2", "trainable": true, "dtype": "float32", "axis": 3}, "name": "RDB_Concat_9_2_2", "inbound_nodes": [[["RDB_Concat_9_2_1", 0, 0, {}], ["F_9_2_2_Relu", 0, 0, {}]]]}, {"class_name": "Conv2D", "config": {"name": "F_9_2_3", "trainable": true, "dtype": "float32", "filters": 32, "kernel_size": [3, 3], "strides": [1, 1], "padding": "same", "data_format": "channels_last", "dilation_rate": [1, 1], "groups": 1, "activation": "linear", "use_bias": true, "kernel_initializer": {"class_name": "RandomUniform", "config": {"minval": -0.05, "maxval": 0.05, "seed": null}, "shared_object_id": 1}, "bias_initializer": {"class_name": "Zeros", "config": {}}, "kernel_regularizer": null, "bias_regularizer": null, "activity_regularizer": null, "kernel_constraint": null, "bias_constraint": null}, "name": "F_9_2_3", "inbound_nodes": [[["RDB_Concat_9_2_2", 0, 0, {}]]]}, {"class_name": "Activation", "config": {"name": "F_9_2_3_Relu", "trainable": true, "dtype": "float32", "activation": "relu"}, "name": "F_9_2_3_Relu", "inbound_nodes": [[["F_9_2_3", 0, 0, {}]]]}, {"class_name": "Concatenate", "config": {"name": "RDB_Concat_9_2_3", "trainable": true, "dtype": "float32", "axis": 3}, "name": "RDB_Concat_9_2_3", "inbound_nodes": [[["RDB_Concat_9_2_2", 0, 0, {}], ["F_9_2_3_Relu", 0, 0, {}]]]}, {"class_name": "Conv2D", "config": {"name": "F_9_2_4", "trainable": true, "dtype": "float32", "filters": 32, "kernel_size": [3, 3], "strides": [1, 1], "padding": "same", "data_format": "channels_last", "dilation_rate": [1, 1], "groups": 1, "activation": "linear", "use_bias": true, "kernel_initializer": {"class_name": "RandomUniform", "config": {"minval": -0.05, "maxval": 0.05, "seed": null}, "shared_object_id": 1}, "bias_initializer": {"class_name": "Zeros", "config": {}}, "kernel_regularizer": null, "bias_regularizer": null, "activity_regularizer": null, "kernel_constraint": null, "bias_constraint": null}, "name": "F_9_2_4", "inbound_nodes": [[["RDB_Concat_9_2_3", 0, 0, {}]]]}, {"class_name": "Activation", "config": {"name": "F_9_2_4_Relu", "trainable": true, "dtype": "float32", "activation": "relu"}, "name": "F_9_2_4_Relu", "inbound_nodes": [[["F_9_2_4", 0, 0, {}]]]}, {"class_name": "Concatenate", "config": {"name": "RDB_Concat_9_2_4", "trainable": true, "dtype": "float32", "axis": 3}, "name": "RDB_Concat_9_2_4", "inbound_nodes": [[["RDB_Concat_9_2_3", 0, 0, {}], ["F_9_2_4_Relu", 0, 0, {}]]]}, {"class_name": "Conv2D", "config": {"name": "LFF_9_2", "trainable": true, "dtype": "float32", "filters": 64, "kernel_size": [3, 3], "strides": [1, 1], "padding": "same", "data_format": "channels_last", "dilation_rate": [1, 1], "groups": 1, "activation": "linear", "use_bias": true, "kernel_initializer": {"class_name": "RandomUniform", "config": {"minval": -0.05, "maxval": 0.05, "seed": null}, "shared_object_id": 1}, "bias_initializer": {"class_name": "Zeros", "config": {}}, "kernel_regularizer": null, "bias_regularizer": null, "activity_regularizer": null, "kernel_constraint": null, "bias_constraint": null}, "name": "LFF_9_2", "inbound_nodes": [[["RDB_Concat_9_2_4", 0, 0, {}]]]}, {"class_name": "MultiplyBeta", "config": {"name": "multiply_beta_33", "trainable": true, "dtype": "float32", "beta": 0.2}, "name": "multiply_beta_33", "inbound_nodes": [[["LFF_9_2", 0, 0, {}]]]}, {"class_name": "Add", "config": {"name": "LRL_9_2", "trainable": true, "dtype": "float32"}, "name": "LRL_9_2", "inbound_nodes": [[["LRL_9_1", 0, 0, {}], ["multiply_beta_33", 0, 0, {}]]]}, {"class_name": "Conv2D", "config": {"name": "F_9_3_1", "trainable": true, "dtype": "float32", "filters": 32, "kernel_size": [3, 3], "strides": [1, 1], "padding": "same", "data_format": "channels_last", "dilation_rate": [1, 1], "groups": 1, "activation": "linear", "use_bias": true, "kernel_initializer": {"class_name": "RandomUniform", "config": {"minval": -0.05, "maxval": 0.05, "seed": null}, "shared_object_id": 1}, "bias_initializer": {"class_name": "Zeros", "config": {}}, "kernel_regularizer": null, "bias_regularizer": null, "activity_regularizer": null, "kernel_constraint": null, "bias_constraint": null}, "name": "F_9_3_1", "inbound_nodes": [[["LRL_9_2", 0, 0, {}]]]}, {"class_name": "Activation", "config": {"name": "F_9_3_1_Relu", "trainable": true, "dtype": "float32", "activation": "relu"}, "name": "F_9_3_1_Relu", "inbound_nodes": [[["F_9_3_1", 0, 0, {}]]]}, {"class_name": "Concatenate", "config": {"name": "RDB_Concat_9_3_1", "trainable": true, "dtype": "float32", "axis": 3}, "name": "RDB_Concat_9_3_1", "inbound_nodes": [[["LRL_9_2", 0, 0, {}], ["F_9_3_1_Relu", 0, 0, {}]]]}, {"class_name": "Conv2D", "config": {"name": "F_9_3_2", "trainable": true, "dtype": "float32", "filters": 32, "kernel_size": [3, 3], "strides": [1, 1], "padding": "same", "data_format": "channels_last", "dilation_rate": [1, 1], "groups": 1, "activation": "linear", "use_bias": true, "kernel_initializer": {"class_name": "RandomUniform", "config": {"minval": -0.05, "maxval": 0.05, "seed": null}, "shared_object_id": 1}, "bias_initializer": {"class_name": "Zeros", "config": {}}, "kernel_regularizer": null, "bias_regularizer": null, "activity_regularizer": null, "kernel_constraint": null, "bias_constraint": null}, "name": "F_9_3_2", "inbound_nodes": [[["RDB_Concat_9_3_1", 0, 0, {}]]]}, {"class_name": "Activation", "config": {"name": "F_9_3_2_Relu", "trainable": true, "dtype": "float32", "activation": "relu"}, "name": "F_9_3_2_Relu", "inbound_nodes": [[["F_9_3_2", 0, 0, {}]]]}, {"class_name": "Concatenate", "config": {"name": "RDB_Concat_9_3_2", "trainable": true, "dtype": "float32", "axis": 3}, "name": "RDB_Concat_9_3_2", "inbound_nodes": [[["RDB_Concat_9_3_1", 0, 0, {}], ["F_9_3_2_Relu", 0, 0, {}]]]}, {"class_name": "Conv2D", "config": {"name": "F_9_3_3", "trainable": true, "dtype": "float32", "filters": 32, "kernel_size": [3, 3], "strides": [1, 1], "padding": "same", "data_format": "channels_last", "dilation_rate": [1, 1], "groups": 1, "activation": "linear", "use_bias": true, "kernel_initializer": {"class_name": "RandomUniform", "config": {"minval": -0.05, "maxval": 0.05, "seed": null}, "shared_object_id": 1}, "bias_initializer": {"class_name": "Zeros", "config": {}}, "kernel_regularizer": null, "bias_regularizer": null, "activity_regularizer": null, "kernel_constraint": null, "bias_constraint": null}, "name": "F_9_3_3", "inbound_nodes": [[["RDB_Concat_9_3_2", 0, 0, {}]]]}, {"class_name": "Activation", "config": {"name": "F_9_3_3_Relu", "trainable": true, "dtype": "float32", "activation": "relu"}, "name": "F_9_3_3_Relu", "inbound_nodes": [[["F_9_3_3", 0, 0, {}]]]}, {"class_name": "Concatenate", "config": {"name": "RDB_Concat_9_3_3", "trainable": true, "dtype": "float32", "axis": 3}, "name": "RDB_Concat_9_3_3", "inbound_nodes": [[["RDB_Concat_9_3_2", 0, 0, {}], ["F_9_3_3_Relu", 0, 0, {}]]]}, {"class_name": "Conv2D", "config": {"name": "F_9_3_4", "trainable": true, "dtype": "float32", "filters": 32, "kernel_size": [3, 3], "strides": [1, 1], "padding": "same", "data_format": "channels_last", "dilation_rate": [1, 1], "groups": 1, "activation": "linear", "use_bias": true, "kernel_initializer": {"class_name": "RandomUniform", "config": {"minval": -0.05, "maxval": 0.05, "seed": null}, "shared_object_id": 1}, "bias_initializer": {"class_name": "Zeros", "config": {}}, "kernel_regularizer": null, "bias_regularizer": null, "activity_regularizer": null, "kernel_constraint": null, "bias_constraint": null}, "name": "F_9_3_4", "inbound_nodes": [[["RDB_Concat_9_3_3", 0, 0, {}]]]}, {"class_name": "Activation", "config": {"name": "F_9_3_4_Relu", "trainable": true, "dtype": "float32", "activation": "relu"}, "name": "F_9_3_4_Relu", "inbound_nodes": [[["F_9_3_4", 0, 0, {}]]]}, {"class_name": "Concatenate", "config": {"name": "RDB_Concat_9_3_4", "trainable": true, "dtype": "float32", "axis": 3}, "name": "RDB_Concat_9_3_4", "inbound_nodes": [[["RDB_Concat_9_3_3", 0, 0, {}], ["F_9_3_4_Relu", 0, 0, {}]]]}, {"class_name": "Conv2D", "config": {"name": "LFF_9_3", "trainable": true, "dtype": "float32", "filters": 64, "kernel_size": [3, 3], "strides": [1, 1], "padding": "same", "data_format": "channels_last", "dilation_rate": [1, 1], "groups": 1, "activation": "linear", "use_bias": true, "kernel_initializer": {"class_name": "RandomUniform", "config": {"minval": -0.05, "maxval": 0.05, "seed": null}, "shared_object_id": 1}, "bias_initializer": {"class_name": "Zeros", "config": {}}, "kernel_regularizer": null, "bias_regularizer": null, "activity_regularizer": null, "kernel_constraint": null, "bias_constraint": null}, "name": "LFF_9_3", "inbound_nodes": [[["RDB_Concat_9_3_4", 0, 0, {}]]]}, {"class_name": "MultiplyBeta", "config": {"name": "multiply_beta_34", "trainable": true, "dtype": "float32", "beta": 0.2}, "name": "multiply_beta_34", "inbound_nodes": [[["LFF_9_3", 0, 0, {}]]]}, {"class_name": "Add", "config": {"name": "LRL_9_3", "trainable": true, "dtype": "float32"}, "name": "LRL_9_3", "inbound_nodes": [[["LRL_9_2", 0, 0, {}], ["multiply_beta_34", 0, 0, {}]]]}, {"class_name": "MultiplyBeta", "config": {"name": "multiply_beta_35", "trainable": true, "dtype": "float32", "beta": 0.2}, "name": "multiply_beta_35", "inbound_nodes": [[["LRL_9_3", 0, 0, {}]]]}, {"class_name": "Add", "config": {"name": "RRDB_9_out", "trainable": true, "dtype": "float32"}, "name": "RRDB_9_out", "inbound_nodes": [[["RRDB_8_out", 0, 0, {}], ["multiply_beta_35", 0, 0, {}]]]}, {"class_name": "Conv2D", "config": {"name": "F_10_1_1", "trainable": true, "dtype": "float32", "filters": 32, "kernel_size": [3, 3], "strides": [1, 1], "padding": "same", "data_format": "channels_last", "dilation_rate": [1, 1], "groups": 1, "activation": "linear", "use_bias": true, "kernel_initializer": {"class_name": "RandomUniform", "config": {"minval": -0.05, "maxval": 0.05, "seed": null}, "shared_object_id": 1}, "bias_initializer": {"class_name": "Zeros", "config": {}}, "kernel_regularizer": null, "bias_regularizer": null, "activity_regularizer": null, "kernel_constraint": null, "bias_constraint": null}, "name": "F_10_1_1", "inbound_nodes": [[["RRDB_9_out", 0, 0, {}]]]}, {"class_name": "Activation", "config": {"name": "F_10_1_1_Relu", "trainable": true, "dtype": "float32", "activation": "relu"}, "name": "F_10_1_1_Relu", "inbound_nodes": [[["F_10_1_1", 0, 0, {}]]]}, {"class_name": "Concatenate", "config": {"name": "RDB_Concat_10_1_1", "trainable": true, "dtype": "float32", "axis": 3}, "name": "RDB_Concat_10_1_1", "inbound_nodes": [[["RRDB_9_out", 0, 0, {}], ["F_10_1_1_Relu", 0, 0, {}]]]}, {"class_name": "Conv2D", "config": {"name": "F_10_1_2", "trainable": true, "dtype": "float32", "filters": 32, "kernel_size": [3, 3], "strides": [1, 1], "padding": "same", "data_format": "channels_last", "dilation_rate": [1, 1], "groups": 1, "activation": "linear", "use_bias": true, "kernel_initializer": {"class_name": "RandomUniform", "config": {"minval": -0.05, "maxval": 0.05, "seed": null}, "shared_object_id": 1}, "bias_initializer": {"class_name": "Zeros", "config": {}}, "kernel_regularizer": null, "bias_regularizer": null, "activity_regularizer": null, "kernel_constraint": null, "bias_constraint": null}, "name": "F_10_1_2", "inbound_nodes": [[["RDB_Concat_10_1_1", 0, 0, {}]]]}, {"class_name": "Activation", "config": {"name": "F_10_1_2_Relu", "trainable": true, "dtype": "float32", "activation": "relu"}, "name": "F_10_1_2_Relu", "inbound_nodes": [[["F_10_1_2", 0, 0, {}]]]}, {"class_name": "Concatenate", "config": {"name": "RDB_Concat_10_1_2", "trainable": true, "dtype": "float32", "axis": 3}, "name": "RDB_Concat_10_1_2", "inbound_nodes": [[["RDB_Concat_10_1_1", 0, 0, {}], ["F_10_1_2_Relu", 0, 0, {}]]]}, {"class_name": "Conv2D", "config": {"name": "F_10_1_3", "trainable": true, "dtype": "float32", "filters": 32, "kernel_size": [3, 3], "strides": [1, 1], "padding": "same", "data_format": "channels_last", "dilation_rate": [1, 1], "groups": 1, "activation": "linear", "use_bias": true, "kernel_initializer": {"class_name": "RandomUniform", "config": {"minval": -0.05, "maxval": 0.05, "seed": null}, "shared_object_id": 1}, "bias_initializer": {"class_name": "Zeros", "config": {}}, "kernel_regularizer": null, "bias_regularizer": null, "activity_regularizer": null, "kernel_constraint": null, "bias_constraint": null}, "name": "F_10_1_3", "inbound_nodes": [[["RDB_Concat_10_1_2", 0, 0, {}]]]}, {"class_name": "Activation", "config": {"name": "F_10_1_3_Relu", "trainable": true, "dtype": "float32", "activation": "relu"}, "name": "F_10_1_3_Relu", "inbound_nodes": [[["F_10_1_3", 0, 0, {}]]]}, {"class_name": "Concatenate", "config": {"name": "RDB_Concat_10_1_3", "trainable": true, "dtype": "float32", "axis": 3}, "name": "RDB_Concat_10_1_3", "inbound_nodes": [[["RDB_Concat_10_1_2", 0, 0, {}], ["F_10_1_3_Relu", 0, 0, {}]]]}, {"class_name": "Conv2D", "config": {"name": "F_10_1_4", "trainable": true, "dtype": "float32", "filters": 32, "kernel_size": [3, 3], "strides": [1, 1], "padding": "same", "data_format": "channels_last", "dilation_rate": [1, 1], "groups": 1, "activation": "linear", "use_bias": true, "kernel_initializer": {"class_name": "RandomUniform", "config": {"minval": -0.05, "maxval": 0.05, "seed": null}, "shared_object_id": 1}, "bias_initializer": {"class_name": "Zeros", "config": {}}, "kernel_regularizer": null, "bias_regularizer": null, "activity_regularizer": null, "kernel_constraint": null, "bias_constraint": null}, "name": "F_10_1_4", "inbound_nodes": [[["RDB_Concat_10_1_3", 0, 0, {}]]]}, {"class_name": "Activation", "config": {"name": "F_10_1_4_Relu", "trainable": true, "dtype": "float32", "activation": "relu"}, "name": "F_10_1_4_Relu", "inbound_nodes": [[["F_10_1_4", 0, 0, {}]]]}, {"class_name": "Concatenate", "config": {"name": "RDB_Concat_10_1_4", "trainable": true, "dtype": "float32", "axis": 3}, "name": "RDB_Concat_10_1_4", "inbound_nodes": [[["RDB_Concat_10_1_3", 0, 0, {}], ["F_10_1_4_Relu", 0, 0, {}]]]}, {"class_name": "Conv2D", "config": {"name": "LFF_10_1", "trainable": true, "dtype": "float32", "filters": 64, "kernel_size": [3, 3], "strides": [1, 1], "padding": "same", "data_format": "channels_last", "dilation_rate": [1, 1], "groups": 1, "activation": "linear", "use_bias": true, "kernel_initializer": {"class_name": "RandomUniform", "config": {"minval": -0.05, "maxval": 0.05, "seed": null}, "shared_object_id": 1}, "bias_initializer": {"class_name": "Zeros", "config": {}}, "kernel_regularizer": null, "bias_regularizer": null, "activity_regularizer": null, "kernel_constraint": null, "bias_constraint": null}, "name": "LFF_10_1", "inbound_nodes": [[["RDB_Concat_10_1_4", 0, 0, {}]]]}, {"class_name": "MultiplyBeta", "config": {"name": "multiply_beta_36", "trainable": true, "dtype": "float32", "beta": 0.2}, "name": "multiply_beta_36", "inbound_nodes": [[["LFF_10_1", 0, 0, {}]]]}, {"class_name": "Add", "config": {"name": "LRL_10_1", "trainable": true, "dtype": "float32"}, "name": "LRL_10_1", "inbound_nodes": [[["RRDB_9_out", 0, 0, {}], ["multiply_beta_36", 0, 0, {}]]]}, {"class_name": "Conv2D", "config": {"name": "F_10_2_1", "trainable": true, "dtype": "float32", "filters": 32, "kernel_size": [3, 3], "strides": [1, 1], "padding": "same", "data_format": "channels_last", "dilation_rate": [1, 1], "groups": 1, "activation": "linear", "use_bias": true, "kernel_initializer": {"class_name": "RandomUniform", "config": {"minval": -0.05, "maxval": 0.05, "seed": null}, "shared_object_id": 1}, "bias_initializer": {"class_name": "Zeros", "config": {}}, "kernel_regularizer": null, "bias_regularizer": null, "activity_regularizer": null, "kernel_constraint": null, "bias_constraint": null}, "name": "F_10_2_1", "inbound_nodes": [[["LRL_10_1", 0, 0, {}]]]}, {"class_name": "Activation", "config": {"name": "F_10_2_1_Relu", "trainable": true, "dtype": "float32", "activation": "relu"}, "name": "F_10_2_1_Relu", "inbound_nodes": [[["F_10_2_1", 0, 0, {}]]]}, {"class_name": "Concatenate", "config": {"name": "RDB_Concat_10_2_1", "trainable": true, "dtype": "float32", "axis": 3}, "name": "RDB_Concat_10_2_1", "inbound_nodes": [[["LRL_10_1", 0, 0, {}], ["F_10_2_1_Relu", 0, 0, {}]]]}, {"class_name": "Conv2D", "config": {"name": "F_10_2_2", "trainable": true, "dtype": "float32", "filters": 32, "kernel_size": [3, 3], "strides": [1, 1], "padding": "same", "data_format": "channels_last", "dilation_rate": [1, 1], "groups": 1, "activation": "linear", "use_bias": true, "kernel_initializer": {"class_name": "RandomUniform", "config": {"minval": -0.05, "maxval": 0.05, "seed": null}, "shared_object_id": 1}, "bias_initializer": {"class_name": "Zeros", "config": {}}, "kernel_regularizer": null, "bias_regularizer": null, "activity_regularizer": null, "kernel_constraint": null, "bias_constraint": null}, "name": "F_10_2_2", "inbound_nodes": [[["RDB_Concat_10_2_1", 0, 0, {}]]]}, {"class_name": "Activation", "config": {"name": "F_10_2_2_Relu", "trainable": true, "dtype": "float32", "activation": "relu"}, "name": "F_10_2_2_Relu", "inbound_nodes": [[["F_10_2_2", 0, 0, {}]]]}, {"class_name": "Concatenate", "config": {"name": "RDB_Concat_10_2_2", "trainable": true, "dtype": "float32", "axis": 3}, "name": "RDB_Concat_10_2_2", "inbound_nodes": [[["RDB_Concat_10_2_1", 0, 0, {}], ["F_10_2_2_Relu", 0, 0, {}]]]}, {"class_name": "Conv2D", "config": {"name": "F_10_2_3", "trainable": true, "dtype": "float32", "filters": 32, "kernel_size": [3, 3], "strides": [1, 1], "padding": "same", "data_format": "channels_last", "dilation_rate": [1, 1], "groups": 1, "activation": "linear", "use_bias": true, "kernel_initializer": {"class_name": "RandomUniform", "config": {"minval": -0.05, "maxval": 0.05, "seed": null}, "shared_object_id": 1}, "bias_initializer": {"class_name": "Zeros", "config": {}}, "kernel_regularizer": null, "bias_regularizer": null, "activity_regularizer": null, "kernel_constraint": null, "bias_constraint": null}, "name": "F_10_2_3", "inbound_nodes": [[["RDB_Concat_10_2_2", 0, 0, {}]]]}, {"class_name": "Activation", "config": {"name": "F_10_2_3_Relu", "trainable": true, "dtype": "float32", "activation": "relu"}, "name": "F_10_2_3_Relu", "inbound_nodes": [[["F_10_2_3", 0, 0, {}]]]}, {"class_name": "Concatenate", "config": {"name": "RDB_Concat_10_2_3", "trainable": true, "dtype": "float32", "axis": 3}, "name": "RDB_Concat_10_2_3", "inbound_nodes": [[["RDB_Concat_10_2_2", 0, 0, {}], ["F_10_2_3_Relu", 0, 0, {}]]]}, {"class_name": "Conv2D", "config": {"name": "F_10_2_4", "trainable": true, "dtype": "float32", "filters": 32, "kernel_size": [3, 3], "strides": [1, 1], "padding": "same", "data_format": "channels_last", "dilation_rate": [1, 1], "groups": 1, "activation": "linear", "use_bias": true, "kernel_initializer": {"class_name": "RandomUniform", "config": {"minval": -0.05, "maxval": 0.05, "seed": null}, "shared_object_id": 1}, "bias_initializer": {"class_name": "Zeros", "config": {}}, "kernel_regularizer": null, "bias_regularizer": null, "activity_regularizer": null, "kernel_constraint": null, "bias_constraint": null}, "name": "F_10_2_4", "inbound_nodes": [[["RDB_Concat_10_2_3", 0, 0, {}]]]}, {"class_name": "Activation", "config": {"name": "F_10_2_4_Relu", "trainable": true, "dtype": "float32", "activation": "relu"}, "name": "F_10_2_4_Relu", "inbound_nodes": [[["F_10_2_4", 0, 0, {}]]]}, {"class_name": "Concatenate", "config": {"name": "RDB_Concat_10_2_4", "trainable": true, "dtype": "float32", "axis": 3}, "name": "RDB_Concat_10_2_4", "inbound_nodes": [[["RDB_Concat_10_2_3", 0, 0, {}], ["F_10_2_4_Relu", 0, 0, {}]]]}, {"class_name": "Conv2D", "config": {"name": "LFF_10_2", "trainable": true, "dtype": "float32", "filters": 64, "kernel_size": [3, 3], "strides": [1, 1], "padding": "same", "data_format": "channels_last", "dilation_rate": [1, 1], "groups": 1, "activation": "linear", "use_bias": true, "kernel_initializer": {"class_name": "RandomUniform", "config": {"minval": -0.05, "maxval": 0.05, "seed": null}, "shared_object_id": 1}, "bias_initializer": {"class_name": "Zeros", "config": {}}, "kernel_regularizer": null, "bias_regularizer": null, "activity_regularizer": null, "kernel_constraint": null, "bias_constraint": null}, "name": "LFF_10_2", "inbound_nodes": [[["RDB_Concat_10_2_4", 0, 0, {}]]]}, {"class_name": "MultiplyBeta", "config": {"name": "multiply_beta_37", "trainable": true, "dtype": "float32", "beta": 0.2}, "name": "multiply_beta_37", "inbound_nodes": [[["LFF_10_2", 0, 0, {}]]]}, {"class_name": "Add", "config": {"name": "LRL_10_2", "trainable": true, "dtype": "float32"}, "name": "LRL_10_2", "inbound_nodes": [[["LRL_10_1", 0, 0, {}], ["multiply_beta_37", 0, 0, {}]]]}, {"class_name": "Conv2D", "config": {"name": "F_10_3_1", "trainable": true, "dtype": "float32", "filters": 32, "kernel_size": [3, 3], "strides": [1, 1], "padding": "same", "data_format": "channels_last", "dilation_rate": [1, 1], "groups": 1, "activation": "linear", "use_bias": true, "kernel_initializer": {"class_name": "RandomUniform", "config": {"minval": -0.05, "maxval": 0.05, "seed": null}, "shared_object_id": 1}, "bias_initializer": {"class_name": "Zeros", "config": {}}, "kernel_regularizer": null, "bias_regularizer": null, "activity_regularizer": null, "kernel_constraint": null, "bias_constraint": null}, "name": "F_10_3_1", "inbound_nodes": [[["LRL_10_2", 0, 0, {}]]]}, {"class_name": "Activation", "config": {"name": "F_10_3_1_Relu", "trainable": true, "dtype": "float32", "activation": "relu"}, "name": "F_10_3_1_Relu", "inbound_nodes": [[["F_10_3_1", 0, 0, {}]]]}, {"class_name": "Concatenate", "config": {"name": "RDB_Concat_10_3_1", "trainable": true, "dtype": "float32", "axis": 3}, "name": "RDB_Concat_10_3_1", "inbound_nodes": [[["LRL_10_2", 0, 0, {}], ["F_10_3_1_Relu", 0, 0, {}]]]}, {"class_name": "Conv2D", "config": {"name": "F_10_3_2", "trainable": true, "dtype": "float32", "filters": 32, "kernel_size": [3, 3], "strides": [1, 1], "padding": "same", "data_format": "channels_last", "dilation_rate": [1, 1], "groups": 1, "activation": "linear", "use_bias": true, "kernel_initializer": {"class_name": "RandomUniform", "config": {"minval": -0.05, "maxval": 0.05, "seed": null}, "shared_object_id": 1}, "bias_initializer": {"class_name": "Zeros", "config": {}}, "kernel_regularizer": null, "bias_regularizer": null, "activity_regularizer": null, "kernel_constraint": null, "bias_constraint": null}, "name": "F_10_3_2", "inbound_nodes": [[["RDB_Concat_10_3_1", 0, 0, {}]]]}, {"class_name": "Activation", "config": {"name": "F_10_3_2_Relu", "trainable": true, "dtype": "float32", "activation": "relu"}, "name": "F_10_3_2_Relu", "inbound_nodes": [[["F_10_3_2", 0, 0, {}]]]}, {"class_name": "Concatenate", "config": {"name": "RDB_Concat_10_3_2", "trainable": true, "dtype": "float32", "axis": 3}, "name": "RDB_Concat_10_3_2", "inbound_nodes": [[["RDB_Concat_10_3_1", 0, 0, {}], ["F_10_3_2_Relu", 0, 0, {}]]]}, {"class_name": "Conv2D", "config": {"name": "F_10_3_3", "trainable": true, "dtype": "float32", "filters": 32, "kernel_size": [3, 3], "strides": [1, 1], "padding": "same", "data_format": "channels_last", "dilation_rate": [1, 1], "groups": 1, "activation": "linear", "use_bias": true, "kernel_initializer": {"class_name": "RandomUniform", "config": {"minval": -0.05, "maxval": 0.05, "seed": null}, "shared_object_id": 1}, "bias_initializer": {"class_name": "Zeros", "config": {}}, "kernel_regularizer": null, "bias_regularizer": null, "activity_regularizer": null, "kernel_constraint": null, "bias_constraint": null}, "name": "F_10_3_3", "inbound_nodes": [[["RDB_Concat_10_3_2", 0, 0, {}]]]}, {"class_name": "Activation", "config": {"name": "F_10_3_3_Relu", "trainable": true, "dtype": "float32", "activation": "relu"}, "name": "F_10_3_3_Relu", "inbound_nodes": [[["F_10_3_3", 0, 0, {}]]]}, {"class_name": "Concatenate", "config": {"name": "RDB_Concat_10_3_3", "trainable": true, "dtype": "float32", "axis": 3}, "name": "RDB_Concat_10_3_3", "inbound_nodes": [[["RDB_Concat_10_3_2", 0, 0, {}], ["F_10_3_3_Relu", 0, 0, {}]]]}, {"class_name": "Conv2D", "config": {"name": "F_10_3_4", "trainable": true, "dtype": "float32", "filters": 32, "kernel_size": [3, 3], "strides": [1, 1], "padding": "same", "data_format": "channels_last", "dilation_rate": [1, 1], "groups": 1, "activation": "linear", "use_bias": true, "kernel_initializer": {"class_name": "RandomUniform", "config": {"minval": -0.05, "maxval": 0.05, "seed": null}, "shared_object_id": 1}, "bias_initializer": {"class_name": "Zeros", "config": {}}, "kernel_regularizer": null, "bias_regularizer": null, "activity_regularizer": null, "kernel_constraint": null, "bias_constraint": null}, "name": "F_10_3_4", "inbound_nodes": [[["RDB_Concat_10_3_3", 0, 0, {}]]]}, {"class_name": "Activation", "config": {"name": "F_10_3_4_Relu", "trainable": true, "dtype": "float32", "activation": "relu"}, "name": "F_10_3_4_Relu", "inbound_nodes": [[["F_10_3_4", 0, 0, {}]]]}, {"class_name": "Concatenate", "config": {"name": "RDB_Concat_10_3_4", "trainable": true, "dtype": "float32", "axis": 3}, "name": "RDB_Concat_10_3_4", "inbound_nodes": [[["RDB_Concat_10_3_3", 0, 0, {}], ["F_10_3_4_Relu", 0, 0, {}]]]}, {"class_name": "Conv2D", "config": {"name": "LFF_10_3", "trainable": true, "dtype": "float32", "filters": 64, "kernel_size": [3, 3], "strides": [1, 1], "padding": "same", "data_format": "channels_last", "dilation_rate": [1, 1], "groups": 1, "activation": "linear", "use_bias": true, "kernel_initializer": {"class_name": "RandomUniform", "config": {"minval": -0.05, "maxval": 0.05, "seed": null}, "shared_object_id": 1}, "bias_initializer": {"class_name": "Zeros", "config": {}}, "kernel_regularizer": null, "bias_regularizer": null, "activity_regularizer": null, "kernel_constraint": null, "bias_constraint": null}, "name": "LFF_10_3", "inbound_nodes": [[["RDB_Concat_10_3_4", 0, 0, {}]]]}, {"class_name": "MultiplyBeta", "config": {"name": "multiply_beta_38", "trainable": true, "dtype": "float32", "beta": 0.2}, "name": "multiply_beta_38", "inbound_nodes": [[["LFF_10_3", 0, 0, {}]]]}, {"class_name": "Add", "config": {"name": "LRL_10_3", "trainable": true, "dtype": "float32"}, "name": "LRL_10_3", "inbound_nodes": [[["LRL_10_2", 0, 0, {}], ["multiply_beta_38", 0, 0, {}]]]}, {"class_name": "MultiplyBeta", "config": {"name": "multiply_beta_39", "trainable": true, "dtype": "float32", "beta": 0.2}, "name": "multiply_beta_39", "inbound_nodes": [[["LRL_10_3", 0, 0, {}]]]}, {"class_name": "Add", "config": {"name": "RRDB_10_out", "trainable": true, "dtype": "float32"}, "name": "RRDB_10_out", "inbound_nodes": [[["RRDB_9_out", 0, 0, {}], ["multiply_beta_39", 0, 0, {}]]]}, {"class_name": "Conv2D", "config": {"name": "post_blocks_conv", "trainable": true, "dtype": "float32", "filters": 64, "kernel_size": [3, 3], "strides": [1, 1], "padding": "same", "data_format": "channels_last", "dilation_rate": [1, 1], "groups": 1, "activation": "linear", "use_bias": true, "kernel_initializer": {"class_name": "RandomUniform", "config": {"minval": -0.05, "maxval": 0.05, "seed": null}, "shared_object_id": 1}, "bias_initializer": {"class_name": "Zeros", "config": {}}, "kernel_regularizer": null, "bias_regularizer": null, "activity_regularizer": null, "kernel_constraint": null, "bias_constraint": null}, "name": "post_blocks_conv", "inbound_nodes": [[["RRDB_10_out", 0, 0, {}]]]}, {"class_name": "Add", "config": {"name": "GRL", "trainable": true, "dtype": "float32"}, "name": "GRL", "inbound_nodes": [[["post_blocks_conv", 0, 0, {}], ["Pre_blocks_conv", 0, 0, {}]]]}, {"class_name": "Conv2D", "config": {"name": "PreShuffle", "trainable": true, "dtype": "float32", "filters": 48, "kernel_size": [3, 3], "strides": [1, 1], "padding": "same", "data_format": "channels_last", "dilation_rate": [1, 1], "groups": 1, "activation": "linear", "use_bias": true, "kernel_initializer": {"class_name": "RandomUniform", "config": {"minval": -0.05, "maxval": 0.05, "seed": null}, "shared_object_id": 1}, "bias_initializer": {"class_name": "Zeros", "config": {}}, "kernel_regularizer": null, "bias_regularizer": null, "activity_regularizer": null, "kernel_constraint": null, "bias_constraint": null}, "name": "PreShuffle", "inbound_nodes": [[["GRL", 0, 0, {}]]]}, {"class_name": "PixelShuffle4x", "config": {"name": "pixel_shuffle", "trainable": true, "dtype": "float32", "scale": 4}, "name": "pixel_shuffle", "inbound_nodes": [[["PreShuffle", 0, 0, {}]]]}, {"class_name": "Conv2D", "config": {"name": "SR", "trainable": true, "dtype": "float32", "filters": 3, "kernel_size": [3, 3], "strides": [1, 1], "padding": "same", "data_format": "channels_last", "dilation_rate": [1, 1], "groups": 1, "activation": "linear", "use_bias": true, "kernel_initializer": {"class_name": "RandomUniform", "config": {"minval": -0.05, "maxval": 0.05, "seed": null}, "shared_object_id": 1}, "bias_initializer": {"class_name": "Zeros", "config": {}}, "kernel_regularizer": null, "bias_regularizer": null, "activity_regularizer": null, "kernel_constraint": null, "bias_constraint": null}, "name": "SR", "inbound_nodes": [[["pixel_shuffle", 0, 0, {}]]]}], "input_layers": [["LR_input", 0, 0]], "output_layers": [["SR", 0, 0]]}}}, "weightsManifest": [{"paths": ["group1-shard1of7.bin", "group1-shard2of7.bin", "group1-shard3of7.bin", "group1-shard4of7.bin", "group1-shard5of7.bin", "group1-shard6of7.bin", "group1-shard7of7.bin"], "weights": [{"name": "F_10_1_1/kernel", "shape": [3, 3, 64, 32], "dtype": "float32"}, {"name": "F_10_1_1/bias", "shape": [32], "dtype": "float32"}, {"name": "F_10_1_2/kernel", "shape": [3, 3, 96, 32], "dtype": "float32"}, {"name": "F_10_1_2/bias", "shape": [32], "dtype": "float32"}, {"name": "F_10_1_3/kernel", "shape": [3, 3, 128, 32], "dtype": "float32"}, {"name": "F_10_1_3/bias", "shape": [32], "dtype": "float32"}, {"name": "F_10_1_4/kernel", "shape": [3, 3, 160, 32], "dtype": "float32"}, {"name": "F_10_1_4/bias", "shape": [32], "dtype": "float32"}, {"name": "F_10_2_1/kernel", "shape": [3, 3, 64, 32], "dtype": "float32"}, {"name": "F_10_2_1/bias", "shape": [32], "dtype": "float32"}, {"name": "F_10_2_2/kernel", "shape": [3, 3, 96, 32], "dtype": "float32"}, {"name": "F_10_2_2/bias", "shape": [32], "dtype": "float32"}, {"name": "F_10_2_3/kernel", "shape": [3, 3, 128, 32], "dtype": "float32"}, {"name": "F_10_2_3/bias", "shape": [32], "dtype": "float32"}, {"name": "F_10_2_4/kernel", "shape": [3, 3, 160, 32], "dtype": "float32"}, {"name": "F_10_2_4/bias", "shape": [32], "dtype": "float32"}, {"name": "F_10_3_1/kernel", "shape": [3, 3, 64, 32], "dtype": "float32"}, {"name": "F_10_3_1/bias", "shape": [32], "dtype": "float32"}, {"name": "F_10_3_2/kernel", "shape": [3, 3, 96, 32], "dtype": "float32"}, {"name": "F_10_3_2/bias", "shape": [32], "dtype": "float32"}, {"name": "F_10_3_3/kernel", "shape": [3, 3, 128, 32], "dtype": "float32"}, {"name": "F_10_3_3/bias", "shape": [32], "dtype": "float32"}, {"name": "F_10_3_4/kernel", "shape": [3, 3, 160, 32], "dtype": "float32"}, {"name": "F_10_3_4/bias", "shape": [32], "dtype": "float32"}, {"name": "F_1_1_1/kernel", "shape": [3, 3, 64, 32], "dtype": "float32"}, {"name": "F_1_1_1/bias", "shape": [32], "dtype": "float32"}, {"name": "F_1_1_2/kernel", "shape": [3, 3, 96, 32], "dtype": "float32"}, {"name": "F_1_1_2/bias", "shape": [32], "dtype": "float32"}, {"name": "F_1_1_3/kernel", "shape": [3, 3, 128, 32], "dtype": "float32"}, {"name": "F_1_1_3/bias", "shape": [32], "dtype": "float32"}, {"name": "F_1_1_4/kernel", "shape": [3, 3, 160, 32], "dtype": "float32"}, {"name": "F_1_1_4/bias", "shape": [32], "dtype": "float32"}, {"name": "F_1_2_1/kernel", "shape": [3, 3, 64, 32], "dtype": "float32"}, {"name": "F_1_2_1/bias", "shape": [32], "dtype": "float32"}, {"name": "F_1_2_2/kernel", "shape": [3, 3, 96, 32], "dtype": "float32"}, {"name": "F_1_2_2/bias", "shape": [32], "dtype": "float32"}, {"name": "F_1_2_3/kernel", "shape": [3, 3, 128, 32], "dtype": "float32"}, {"name": "F_1_2_3/bias", "shape": [32], "dtype": "float32"}, {"name": "F_1_2_4/kernel", "shape": [3, 3, 160, 32], "dtype": "float32"}, {"name": "F_1_2_4/bias", "shape": [32], "dtype": "float32"}, {"name": "F_1_3_1/kernel", "shape": [3, 3, 64, 32], "dtype": "float32"}, {"name": "F_1_3_1/bias", "shape": [32], "dtype": "float32"}, {"name": "F_1_3_2/kernel", "shape": [3, 3, 96, 32], "dtype": "float32"}, {"name": "F_1_3_2/bias", "shape": [32], "dtype": "float32"}, {"name": "F_1_3_3/kernel", "shape": [3, 3, 128, 32], "dtype": "float32"}, {"name": "F_1_3_3/bias", "shape": [32], "dtype": "float32"}, {"name": "F_1_3_4/kernel", "shape": [3, 3, 160, 32], "dtype": "float32"}, {"name": "F_1_3_4/bias", "shape": [32], "dtype": "float32"}, {"name": "F_2_1_1/kernel", "shape": [3, 3, 64, 32], "dtype": "float32"}, {"name": "F_2_1_1/bias", "shape": [32], "dtype": "float32"}, {"name": "F_2_1_2/kernel", "shape": [3, 3, 96, 32], "dtype": "float32"}, {"name": "F_2_1_2/bias", "shape": [32], "dtype": "float32"}, {"name": "F_2_1_3/kernel", "shape": [3, 3, 128, 32], "dtype": "float32"}, {"name": "F_2_1_3/bias", "shape": [32], "dtype": "float32"}, {"name": "F_2_1_4/kernel", "shape": [3, 3, 160, 32], "dtype": "float32"}, {"name": "F_2_1_4/bias", "shape": [32], "dtype": "float32"}, {"name": "F_2_2_1/kernel", "shape": [3, 3, 64, 32], "dtype": "float32"}, {"name": "F_2_2_1/bias", "shape": [32], "dtype": "float32"}, {"name": "F_2_2_2/kernel", "shape": [3, 3, 96, 32], "dtype": "float32"}, {"name": "F_2_2_2/bias", "shape": [32], "dtype": "float32"}, {"name": "F_2_2_3/kernel", "shape": [3, 3, 128, 32], "dtype": "float32"}, {"name": "F_2_2_3/bias", "shape": [32], "dtype": "float32"}, {"name": "F_2_2_4/kernel", "shape": [3, 3, 160, 32], "dtype": "float32"}, {"name": "F_2_2_4/bias", "shape": [32], "dtype": "float32"}, {"name": "F_2_3_1/kernel", "shape": [3, 3, 64, 32], "dtype": "float32"}, {"name": "F_2_3_1/bias", "shape": [32], "dtype": "float32"}, {"name": "F_2_3_2/kernel", "shape": [3, 3, 96, 32], "dtype": "float32"}, {"name": "F_2_3_2/bias", "shape": [32], "dtype": "float32"}, {"name": "F_2_3_3/kernel", "shape": [3, 3, 128, 32], "dtype": "float32"}, {"name": "F_2_3_3/bias", "shape": [32], "dtype": "float32"}, {"name": "F_2_3_4/kernel", "shape": [3, 3, 160, 32], "dtype": "float32"}, {"name": "F_2_3_4/bias", "shape": [32], "dtype": "float32"}, {"name": "F_3_1_1/kernel", "shape": [3, 3, 64, 32], "dtype": "float32"}, {"name": "F_3_1_1/bias", "shape": [32], "dtype": "float32"}, {"name": "F_3_1_2/kernel", "shape": [3, 3, 96, 32], "dtype": "float32"}, {"name": "F_3_1_2/bias", "shape": [32], "dtype": "float32"}, {"name": "F_3_1_3/kernel", "shape": [3, 3, 128, 32], "dtype": "float32"}, {"name": "F_3_1_3/bias", "shape": [32], "dtype": "float32"}, {"name": "F_3_1_4/kernel", "shape": [3, 3, 160, 32], "dtype": "float32"}, {"name": "F_3_1_4/bias", "shape": [32], "dtype": "float32"}, {"name": "F_3_2_1/kernel", "shape": [3, 3, 64, 32], "dtype": "float32"}, {"name": "F_3_2_1/bias", "shape": [32], "dtype": "float32"}, {"name": "F_3_2_2/kernel", "shape": [3, 3, 96, 32], "dtype": "float32"}, {"name": "F_3_2_2/bias", "shape": [32], "dtype": "float32"}, {"name": "F_3_2_3/kernel", "shape": [3, 3, 128, 32], "dtype": "float32"}, {"name": "F_3_2_3/bias", "shape": [32], "dtype": "float32"}, {"name": "F_3_2_4/kernel", "shape": [3, 3, 160, 32], "dtype": "float32"}, {"name": "F_3_2_4/bias", "shape": [32], "dtype": "float32"}, {"name": "F_3_3_1/kernel", "shape": [3, 3, 64, 32], "dtype": "float32"}, {"name": "F_3_3_1/bias", "shape": [32], "dtype": "float32"}, {"name": "F_3_3_2/kernel", "shape": [3, 3, 96, 32], "dtype": "float32"}, {"name": "F_3_3_2/bias", "shape": [32], "dtype": "float32"}, {"name": "F_3_3_3/kernel", "shape": [3, 3, 128, 32], "dtype": "float32"}, {"name": "F_3_3_3/bias", "shape": [32], "dtype": "float32"}, {"name": "F_3_3_4/kernel", "shape": [3, 3, 160, 32], "dtype": "float32"}, {"name": "F_3_3_4/bias", "shape": [32], "dtype": "float32"}, {"name": "F_4_1_1/kernel", "shape": [3, 3, 64, 32], "dtype": "float32"}, {"name": "F_4_1_1/bias", "shape": [32], "dtype": "float32"}, {"name": "F_4_1_2/kernel", "shape": [3, 3, 96, 32], "dtype": "float32"}, {"name": "F_4_1_2/bias", "shape": [32], "dtype": "float32"}, {"name": "F_4_1_3/kernel", "shape": [3, 3, 128, 32], "dtype": "float32"}, {"name": "F_4_1_3/bias", "shape": [32], "dtype": "float32"}, {"name": "F_4_1_4/kernel", "shape": [3, 3, 160, 32], "dtype": "float32"}, {"name": "F_4_1_4/bias", "shape": [32], "dtype": "float32"}, {"name": "F_4_2_1/kernel", "shape": [3, 3, 64, 32], "dtype": "float32"}, {"name": "F_4_2_1/bias", "shape": [32], "dtype": "float32"}, {"name": "F_4_2_2/kernel", "shape": [3, 3, 96, 32], "dtype": "float32"}, {"name": "F_4_2_2/bias", "shape": [32], "dtype": "float32"}, {"name": "F_4_2_3/kernel", "shape": [3, 3, 128, 32], "dtype": "float32"}, {"name": "F_4_2_3/bias", "shape": [32], "dtype": "float32"}, {"name": "F_4_2_4/kernel", "shape": [3, 3, 160, 32], "dtype": "float32"}, {"name": "F_4_2_4/bias", "shape": [32], "dtype": "float32"}, {"name": "F_4_3_1/kernel", "shape": [3, 3, 64, 32], "dtype": "float32"}, {"name": "F_4_3_1/bias", "shape": [32], "dtype": "float32"}, {"name": "F_4_3_2/kernel", "shape": [3, 3, 96, 32], "dtype": "float32"}, {"name": "F_4_3_2/bias", "shape": [32], "dtype": "float32"}, {"name": "F_4_3_3/kernel", "shape": [3, 3, 128, 32], "dtype": "float32"}, {"name": "F_4_3_3/bias", "shape": [32], "dtype": "float32"}, {"name": "F_4_3_4/kernel", "shape": [3, 3, 160, 32], "dtype": "float32"}, {"name": "F_4_3_4/bias", "shape": [32], "dtype": "float32"}, {"name": "F_5_1_1/kernel", "shape": [3, 3, 64, 32], "dtype": "float32"}, {"name": "F_5_1_1/bias", "shape": [32], "dtype": "float32"}, {"name": "F_5_1_2/kernel", "shape": [3, 3, 96, 32], "dtype": "float32"}, {"name": "F_5_1_2/bias", "shape": [32], "dtype": "float32"}, {"name": "F_5_1_3/kernel", "shape": [3, 3, 128, 32], "dtype": "float32"}, {"name": "F_5_1_3/bias", "shape": [32], "dtype": "float32"}, {"name": "F_5_1_4/kernel", "shape": [3, 3, 160, 32], "dtype": "float32"}, {"name": "F_5_1_4/bias", "shape": [32], "dtype": "float32"}, {"name": "F_5_2_1/kernel", "shape": [3, 3, 64, 32], "dtype": "float32"}, {"name": "F_5_2_1/bias", "shape": [32], "dtype": "float32"}, {"name": "F_5_2_2/kernel", "shape": [3, 3, 96, 32], "dtype": "float32"}, {"name": "F_5_2_2/bias", "shape": [32], "dtype": "float32"}, {"name": "F_5_2_3/kernel", "shape": [3, 3, 128, 32], "dtype": "float32"}, {"name": "F_5_2_3/bias", "shape": [32], "dtype": "float32"}, {"name": "F_5_2_4/kernel", "shape": [3, 3, 160, 32], "dtype": "float32"}, {"name": "F_5_2_4/bias", "shape": [32], "dtype": "float32"}, {"name": "F_5_3_1/kernel", "shape": [3, 3, 64, 32], "dtype": "float32"}, {"name": "F_5_3_1/bias", "shape": [32], "dtype": "float32"}, {"name": "F_5_3_2/kernel", "shape": [3, 3, 96, 32], "dtype": "float32"}, {"name": "F_5_3_2/bias", "shape": [32], "dtype": "float32"}, {"name": "F_5_3_3/kernel", "shape": [3, 3, 128, 32], "dtype": "float32"}, {"name": "F_5_3_3/bias", "shape": [32], "dtype": "float32"}, {"name": "F_5_3_4/kernel", "shape": [3, 3, 160, 32], "dtype": "float32"}, {"name": "F_5_3_4/bias", "shape": [32], "dtype": "float32"}, {"name": "F_6_1_1/kernel", "shape": [3, 3, 64, 32], "dtype": "float32"}, {"name": "F_6_1_1/bias", "shape": [32], "dtype": "float32"}, {"name": "F_6_1_2/kernel", "shape": [3, 3, 96, 32], "dtype": "float32"}, {"name": "F_6_1_2/bias", "shape": [32], "dtype": "float32"}, {"name": "F_6_1_3/kernel", "shape": [3, 3, 128, 32], "dtype": "float32"}, {"name": "F_6_1_3/bias", "shape": [32], "dtype": "float32"}, {"name": "F_6_1_4/kernel", "shape": [3, 3, 160, 32], "dtype": "float32"}, {"name": "F_6_1_4/bias", "shape": [32], "dtype": "float32"}, {"name": "F_6_2_1/kernel", "shape": [3, 3, 64, 32], "dtype": "float32"}, {"name": "F_6_2_1/bias", "shape": [32], "dtype": "float32"}, {"name": "F_6_2_2/kernel", "shape": [3, 3, 96, 32], "dtype": "float32"}, {"name": "F_6_2_2/bias", "shape": [32], "dtype": "float32"}, {"name": "F_6_2_3/kernel", "shape": [3, 3, 128, 32], "dtype": "float32"}, {"name": "F_6_2_3/bias", "shape": [32], "dtype": "float32"}, {"name": "F_6_2_4/kernel", "shape": [3, 3, 160, 32], "dtype": "float32"}, {"name": "F_6_2_4/bias", "shape": [32], "dtype": "float32"}, {"name": "F_6_3_1/kernel", "shape": [3, 3, 64, 32], "dtype": "float32"}, {"name": "F_6_3_1/bias", "shape": [32], "dtype": "float32"}, {"name": "F_6_3_2/kernel", "shape": [3, 3, 96, 32], "dtype": "float32"}, {"name": "F_6_3_2/bias", "shape": [32], "dtype": "float32"}, {"name": "F_6_3_3/kernel", "shape": [3, 3, 128, 32], "dtype": "float32"}, {"name": "F_6_3_3/bias", "shape": [32], "dtype": "float32"}, {"name": "F_6_3_4/kernel", "shape": [3, 3, 160, 32], "dtype": "float32"}, {"name": "F_6_3_4/bias", "shape": [32], "dtype": "float32"}, {"name": "F_7_1_1/kernel", "shape": [3, 3, 64, 32], "dtype": "float32"}, {"name": "F_7_1_1/bias", "shape": [32], "dtype": "float32"}, {"name": "F_7_1_2/kernel", "shape": [3, 3, 96, 32], "dtype": "float32"}, {"name": "F_7_1_2/bias", "shape": [32], "dtype": "float32"}, {"name": "F_7_1_3/kernel", "shape": [3, 3, 128, 32], "dtype": "float32"}, {"name": "F_7_1_3/bias", "shape": [32], "dtype": "float32"}, {"name": "F_7_1_4/kernel", "shape": [3, 3, 160, 32], "dtype": "float32"}, {"name": "F_7_1_4/bias", "shape": [32], "dtype": "float32"}, {"name": "F_7_2_1/kernel", "shape": [3, 3, 64, 32], "dtype": "float32"}, {"name": "F_7_2_1/bias", "shape": [32], "dtype": "float32"}, {"name": "F_7_2_2/kernel", "shape": [3, 3, 96, 32], "dtype": "float32"}, {"name": "F_7_2_2/bias", "shape": [32], "dtype": "float32"}, {"name": "F_7_2_3/kernel", "shape": [3, 3, 128, 32], "dtype": "float32"}, {"name": "F_7_2_3/bias", "shape": [32], "dtype": "float32"}, {"name": "F_7_2_4/kernel", "shape": [3, 3, 160, 32], "dtype": "float32"}, {"name": "F_7_2_4/bias", "shape": [32], "dtype": "float32"}, {"name": "F_7_3_1/kernel", "shape": [3, 3, 64, 32], "dtype": "float32"}, {"name": "F_7_3_1/bias", "shape": [32], "dtype": "float32"}, {"name": "F_7_3_2/kernel", "shape": [3, 3, 96, 32], "dtype": "float32"}, {"name": "F_7_3_2/bias", "shape": [32], "dtype": "float32"}, {"name": "F_7_3_3/kernel", "shape": [3, 3, 128, 32], "dtype": "float32"}, {"name": "F_7_3_3/bias", "shape": [32], "dtype": "float32"}, {"name": "F_7_3_4/kernel", "shape": [3, 3, 160, 32], "dtype": "float32"}, {"name": "F_7_3_4/bias", "shape": [32], "dtype": "float32"}, {"name": "F_8_1_1/kernel", "shape": [3, 3, 64, 32], "dtype": "float32"}, {"name": "F_8_1_1/bias", "shape": [32], "dtype": "float32"}, {"name": "F_8_1_2/kernel", "shape": [3, 3, 96, 32], "dtype": "float32"}, {"name": "F_8_1_2/bias", "shape": [32], "dtype": "float32"}, {"name": "F_8_1_3/kernel", "shape": [3, 3, 128, 32], "dtype": "float32"}, {"name": "F_8_1_3/bias", "shape": [32], "dtype": "float32"}, {"name": "F_8_1_4/kernel", "shape": [3, 3, 160, 32], "dtype": "float32"}, {"name": "F_8_1_4/bias", "shape": [32], "dtype": "float32"}, {"name": "F_8_2_1/kernel", "shape": [3, 3, 64, 32], "dtype": "float32"}, {"name": "F_8_2_1/bias", "shape": [32], "dtype": "float32"}, {"name": "F_8_2_2/kernel", "shape": [3, 3, 96, 32], "dtype": "float32"}, {"name": "F_8_2_2/bias", "shape": [32], "dtype": "float32"}, {"name": "F_8_2_3/kernel", "shape": [3, 3, 128, 32], "dtype": "float32"}, {"name": "F_8_2_3/bias", "shape": [32], "dtype": "float32"}, {"name": "F_8_2_4/kernel", "shape": [3, 3, 160, 32], "dtype": "float32"}, {"name": "F_8_2_4/bias", "shape": [32], "dtype": "float32"}, {"name": "F_8_3_1/kernel", "shape": [3, 3, 64, 32], "dtype": "float32"}, {"name": "F_8_3_1/bias", "shape": [32], "dtype": "float32"}, {"name": "F_8_3_2/kernel", "shape": [3, 3, 96, 32], "dtype": "float32"}, {"name": "F_8_3_2/bias", "shape": [32], "dtype": "float32"}, {"name": "F_8_3_3/kernel", "shape": [3, 3, 128, 32], "dtype": "float32"}, {"name": "F_8_3_3/bias", "shape": [32], "dtype": "float32"}, {"name": "F_8_3_4/kernel", "shape": [3, 3, 160, 32], "dtype": "float32"}, {"name": "F_8_3_4/bias", "shape": [32], "dtype": "float32"}, {"name": "F_9_1_1/kernel", "shape": [3, 3, 64, 32], "dtype": "float32"}, {"name": "F_9_1_1/bias", "shape": [32], "dtype": "float32"}, {"name": "F_9_1_2/kernel", "shape": [3, 3, 96, 32], "dtype": "float32"}, {"name": "F_9_1_2/bias", "shape": [32], "dtype": "float32"}, {"name": "F_9_1_3/kernel", "shape": [3, 3, 128, 32], "dtype": "float32"}, {"name": "F_9_1_3/bias", "shape": [32], "dtype": "float32"}, {"name": "F_9_1_4/kernel", "shape": [3, 3, 160, 32], "dtype": "float32"}, {"name": "F_9_1_4/bias", "shape": [32], "dtype": "float32"}, {"name": "F_9_2_1/kernel", "shape": [3, 3, 64, 32], "dtype": "float32"}, {"name": "F_9_2_1/bias", "shape": [32], "dtype": "float32"}, {"name": "F_9_2_2/kernel", "shape": [3, 3, 96, 32], "dtype": "float32"}, {"name": "F_9_2_2/bias", "shape": [32], "dtype": "float32"}, {"name": "F_9_2_3/kernel", "shape": [3, 3, 128, 32], "dtype": "float32"}, {"name": "F_9_2_3/bias", "shape": [32], "dtype": "float32"}, {"name": "F_9_2_4/kernel", "shape": [3, 3, 160, 32], "dtype": "float32"}, {"name": "F_9_2_4/bias", "shape": [32], "dtype": "float32"}, {"name": "F_9_3_1/kernel", "shape": [3, 3, 64, 32], "dtype": "float32"}, {"name": "F_9_3_1/bias", "shape": [32], "dtype": "float32"}, {"name": "F_9_3_2/kernel", "shape": [3, 3, 96, 32], "dtype": "float32"}, {"name": "F_9_3_2/bias", "shape": [32], "dtype": "float32"}, {"name": "F_9_3_3/kernel", "shape": [3, 3, 128, 32], "dtype": "float32"}, {"name": "F_9_3_3/bias", "shape": [32], "dtype": "float32"}, {"name": "F_9_3_4/kernel", "shape": [3, 3, 160, 32], "dtype": "float32"}, {"name": "F_9_3_4/bias", "shape": [32], "dtype": "float32"}, {"name": "LFF_10_1/kernel", "shape": [3, 3, 192, 64], "dtype": "float32"}, {"name": "LFF_10_1/bias", "shape": [64], "dtype": "float32"}, {"name": "LFF_10_2/kernel", "shape": [3, 3, 192, 64], "dtype": "float32"}, {"name": "LFF_10_2/bias", "shape": [64], "dtype": "float32"}, {"name": "LFF_10_3/kernel", "shape": [3, 3, 192, 64], "dtype": "float32"}, {"name": "LFF_10_3/bias", "shape": [64], "dtype": "float32"}, {"name": "LFF_1_1/kernel", "shape": [3, 3, 192, 64], "dtype": "float32"}, {"name": "LFF_1_1/bias", "shape": [64], "dtype": "float32"}, {"name": "LFF_1_2/kernel", "shape": [3, 3, 192, 64], "dtype": "float32"}, {"name": "LFF_1_2/bias", "shape": [64], "dtype": "float32"}, {"name": "LFF_1_3/kernel", "shape": [3, 3, 192, 64], "dtype": "float32"}, {"name": "LFF_1_3/bias", "shape": [64], "dtype": "float32"}, {"name": "LFF_2_1/kernel", "shape": [3, 3, 192, 64], "dtype": "float32"}, {"name": "LFF_2_1/bias", "shape": [64], "dtype": "float32"}, {"name": "LFF_2_2/kernel", "shape": [3, 3, 192, 64], "dtype": "float32"}, {"name": "LFF_2_2/bias", "shape": [64], "dtype": "float32"}, {"name": "LFF_2_3/kernel", "shape": [3, 3, 192, 64], "dtype": "float32"}, {"name": "LFF_2_3/bias", "shape": [64], "dtype": "float32"}, {"name": "LFF_3_1/kernel", "shape": [3, 3, 192, 64], "dtype": "float32"}, {"name": "LFF_3_1/bias", "shape": [64], "dtype": "float32"}, {"name": "LFF_3_2/kernel", "shape": [3, 3, 192, 64], "dtype": "float32"}, {"name": "LFF_3_2/bias", "shape": [64], "dtype": "float32"}, {"name": "LFF_3_3/kernel", "shape": [3, 3, 192, 64], "dtype": "float32"}, {"name": "LFF_3_3/bias", "shape": [64], "dtype": "float32"}, {"name": "LFF_4_1/kernel", "shape": [3, 3, 192, 64], "dtype": "float32"}, {"name": "LFF_4_1/bias", "shape": [64], "dtype": "float32"}, {"name": "LFF_4_2/kernel", "shape": [3, 3, 192, 64], "dtype": "float32"}, {"name": "LFF_4_2/bias", "shape": [64], "dtype": "float32"}, {"name": "LFF_4_3/kernel", "shape": [3, 3, 192, 64], "dtype": "float32"}, {"name": "LFF_4_3/bias", "shape": [64], "dtype": "float32"}, {"name": "LFF_5_1/kernel", "shape": [3, 3, 192, 64], "dtype": "float32"}, {"name": "LFF_5_1/bias", "shape": [64], "dtype": "float32"}, {"name": "LFF_5_2/kernel", "shape": [3, 3, 192, 64], "dtype": "float32"}, {"name": "LFF_5_2/bias", "shape": [64], "dtype": "float32"}, {"name": "LFF_5_3/kernel", "shape": [3, 3, 192, 64], "dtype": "float32"}, {"name": "LFF_5_3/bias", "shape": [64], "dtype": "float32"}, {"name": "LFF_6_1/kernel", "shape": [3, 3, 192, 64], "dtype": "float32"}, {"name": "LFF_6_1/bias", "shape": [64], "dtype": "float32"}, {"name": "LFF_6_2/kernel", "shape": [3, 3, 192, 64], "dtype": "float32"}, {"name": "LFF_6_2/bias", "shape": [64], "dtype": "float32"}, {"name": "LFF_6_3/kernel", "shape": [3, 3, 192, 64], "dtype": "float32"}, {"name": "LFF_6_3/bias", "shape": [64], "dtype": "float32"}, {"name": "LFF_7_1/kernel", "shape": [3, 3, 192, 64], "dtype": "float32"}, {"name": "LFF_7_1/bias", "shape": [64], "dtype": "float32"}, {"name": "LFF_7_2/kernel", "shape": [3, 3, 192, 64], "dtype": "float32"}, {"name": "LFF_7_2/bias", "shape": [64], "dtype": "float32"}, {"name": "LFF_7_3/kernel", "shape": [3, 3, 192, 64], "dtype": "float32"}, {"name": "LFF_7_3/bias", "shape": [64], "dtype": "float32"}, {"name": "LFF_8_1/kernel", "shape": [3, 3, 192, 64], "dtype": "float32"}, {"name": "LFF_8_1/bias", "shape": [64], "dtype": "float32"}, {"name": "LFF_8_2/kernel", "shape": [3, 3, 192, 64], "dtype": "float32"}, {"name": "LFF_8_2/bias", "shape": [64], "dtype": "float32"}, {"name": "LFF_8_3/kernel", "shape": [3, 3, 192, 64], "dtype": "float32"}, {"name": "LFF_8_3/bias", "shape": [64], "dtype": "float32"}, {"name": "LFF_9_1/kernel", "shape": [3, 3, 192, 64], "dtype": "float32"}, {"name": "LFF_9_1/bias", "shape": [64], "dtype": "float32"}, {"name": "LFF_9_2/kernel", "shape": [3, 3, 192, 64], "dtype": "float32"}, {"name": "LFF_9_2/bias", "shape": [64], "dtype": "float32"}, {"name": "LFF_9_3/kernel", "shape": [3, 3, 192, 64], "dtype": "float32"}, {"name": "LFF_9_3/bias", "shape": [64], "dtype": "float32"}, {"name": "PreShuffle/kernel", "shape": [3, 3, 64, 48], "dtype": "float32"}, {"name": "PreShuffle/bias", "shape": [48], "dtype": "float32"}, {"name": "Pre_blocks_conv/kernel", "shape": [3, 3, 3, 64], "dtype": "float32"}, {"name": "Pre_blocks_conv/bias", "shape": [64], "dtype": "float32"}, {"name": "SR/kernel", "shape": [3, 3, 3, 3], "dtype": "float32"}, {"name": "SR/bias", "shape": [3], "dtype": "float32"}, {"name": "post_blocks_conv/kernel", "shape": [3, 3, 64, 64], "dtype": "float32"}, {"name": "post_blocks_conv/bias", "shape": [64], "dtype": "float32"}]}]}
