{"format": "layers-model", "generatedBy": "keras v2.4.0", "convertedBy": "TensorFlow.js Converter v2.0.1.post1", "modelTopology": {"keras_version": "2.4.0", "backend": "tensorflow", "model_config": {"class_name": "Model", "config": {"name": "generator", "layers": [{"class_name": "InputLayer", "config": {"batch_input_shape": [null, null, null, 3], "dtype": "float32", "sparse": false, "ragged": false, "name": "LR"}, "name": "LR", "inbound_nodes": []}, {"class_name": "Conv2D", "config": {"name": "F_m1", "trainable": true, "dtype": "float32", "filters": 64, "kernel_size": [3, 3], "strides": [1, 1], "padding": "same", "data_format": "channels_last", "dilation_rate": [1, 1], "groups": 1, "activation": "linear", "use_bias": true, "kernel_initializer": {"class_name": "RandomUniform", "config": {"minval": -0.05, "maxval": 0.05, "seed": null}}, "bias_initializer": {"class_name": "Zeros", "config": {}}, "kernel_regularizer": null, "bias_regularizer": null, "activity_regularizer": null, "kernel_constraint": null, "bias_constraint": null}, "name": "F_m1", "inbound_nodes": [[["LR", 0, 0, {}]]]}, {"class_name": "Conv2D", "config": {"name": "F_0", "trainable": true, "dtype": "float32", "filters": 64, "kernel_size": [3, 3], "strides": [1, 1], "padding": "same", "data_format": "channels_last", "dilation_rate": [1, 1], "groups": 1, "activation": "linear", "use_bias": true, "kernel_initializer": {"class_name": "RandomUniform", "config": {"minval": -0.05, "maxval": 0.05, "seed": null}}, "bias_initializer": {"class_name": "Zeros", "config": {}}, "kernel_regularizer": null, "bias_regularizer": null, "activity_regularizer": null, "kernel_constraint": null, "bias_constraint": null}, "name": "F_0", "inbound_nodes": [[["F_m1", 0, 0, {}]]]}, {"class_name": "Conv2D", "config": {"name": "F_1_1", "trainable": true, "dtype": "float32", "filters": 64, "kernel_size": [3, 3], "strides": [1, 1], "padding": "same", "data_format": "channels_last", "dilation_rate": [1, 1], "groups": 1, "activation": "linear", "use_bias": true, "kernel_initializer": {"class_name": "RandomUniform", "config": {"minval": -0.05, "maxval": 0.05, "seed": null}}, "bias_initializer": {"class_name": "Zeros", "config": {}}, "kernel_regularizer": null, "bias_regularizer": null, "activity_regularizer": null, "kernel_constraint": null, "bias_constraint": null}, "name": "F_1_1", "inbound_nodes": [[["F_0", 0, 0, {}]]]}, {"class_name": "Activation", "config": {"name": "F_1_1_Relu", "trainable": true, "dtype": "float32", "activation": "relu"}, "name": "F_1_1_Relu", "inbound_nodes": [[["F_1_1", 0, 0, {}]]]}, {"class_name": "Concatenate", "config": {"name": "RDB_Concat_1_1", "trainable": true, "dtype": "float32", "axis": 3}, "name": "RDB_Concat_1_1", "inbound_nodes": [[["F_0", 0, 0, {}], ["F_1_1_Relu", 0, 0, {}]]]}, {"class_name": "Conv2D", "config": {"name": "F_1_2", "trainable": true, "dtype": "float32", "filters": 64, "kernel_size": [3, 3], "strides": [1, 1], "padding": "same", "data_format": "channels_last", "dilation_rate": [1, 1], "groups": 1, "activation": "linear", "use_bias": true, "kernel_initializer": {"class_name": "RandomUniform", "config": {"minval": -0.05, "maxval": 0.05, "seed": null}}, "bias_initializer": {"class_name": "Zeros", "config": {}}, "kernel_regularizer": null, "bias_regularizer": null, "activity_regularizer": null, "kernel_constraint": null, "bias_constraint": null}, "name": "F_1_2", "inbound_nodes": [[["RDB_Concat_1_1", 0, 0, {}]]]}, {"class_name": "Activation", "config": {"name": "F_1_2_Relu", "trainable": true, "dtype": "float32", "activation": "relu"}, "name": "F_1_2_Relu", "inbound_nodes": [[["F_1_2", 0, 0, {}]]]}, {"class_name": "Concatenate", "config": {"name": "RDB_Concat_1_2", "trainable": true, "dtype": "float32", "axis": 3}, "name": "RDB_Concat_1_2", "inbound_nodes": [[["RDB_Concat_1_1", 0, 0, {}], ["F_1_2_Relu", 0, 0, {}]]]}, {"class_name": "Conv2D", "config": {"name": "F_1_3", "trainable": true, "dtype": "float32", "filters": 64, "kernel_size": [3, 3], "strides": [1, 1], "padding": "same", "data_format": "channels_last", "dilation_rate": [1, 1], "groups": 1, "activation": "linear", "use_bias": true, "kernel_initializer": {"class_name": "RandomUniform", "config": {"minval": -0.05, "maxval": 0.05, "seed": null}}, "bias_initializer": {"class_name": "Zeros", "config": {}}, "kernel_regularizer": null, "bias_regularizer": null, "activity_regularizer": null, "kernel_constraint": null, "bias_constraint": null}, "name": "F_1_3", "inbound_nodes": [[["RDB_Concat_1_2", 0, 0, {}]]]}, {"class_name": "Activation", "config": {"name": "F_1_3_Relu", "trainable": true, "dtype": "float32", "activation": "relu"}, "name": "F_1_3_Relu", "inbound_nodes": [[["F_1_3", 0, 0, {}]]]}, {"class_name": "Concatenate", "config": {"name": "RDB_Concat_1_3", "trainable": true, "dtype": "float32", "axis": 3}, "name": "RDB_Concat_1_3", "inbound_nodes": [[["RDB_Concat_1_2", 0, 0, {}], ["F_1_3_Relu", 0, 0, {}]]]}, {"class_name": "Conv2D", "config": {"name": "LFF_1", "trainable": true, "dtype": "float32", "filters": 64, "kernel_size": [1, 1], "strides": [1, 1], "padding": "valid", "data_format": "channels_last", "dilation_rate": [1, 1], "groups": 1, "activation": "linear", "use_bias": true, "kernel_initializer": {"class_name": "RandomUniform", "config": {"minval": -0.05, "maxval": 0.05, "seed": null}}, "bias_initializer": {"class_name": "Zeros", "config": {}}, "kernel_regularizer": null, "bias_regularizer": null, "activity_regularizer": null, "kernel_constraint": null, "bias_constraint": null}, "name": "LFF_1", "inbound_nodes": [[["RDB_Concat_1_3", 0, 0, {}]]]}, {"class_name": "Add", "config": {"name": "LRL_1", "trainable": true, "dtype": "float32"}, "name": "LRL_1", "inbound_nodes": [[["LFF_1", 0, 0, {}], ["F_0", 0, 0, {}]]]}, {"class_name": "Conv2D", "config": {"name": "F_2_1", "trainable": true, "dtype": "float32", "filters": 64, "kernel_size": [3, 3], "strides": [1, 1], "padding": "same", "data_format": "channels_last", "dilation_rate": [1, 1], "groups": 1, "activation": "linear", "use_bias": true, "kernel_initializer": {"class_name": "RandomUniform", "config": {"minval": -0.05, "maxval": 0.05, "seed": null}}, "bias_initializer": {"class_name": "Zeros", "config": {}}, "kernel_regularizer": null, "bias_regularizer": null, "activity_regularizer": null, "kernel_constraint": null, "bias_constraint": null}, "name": "F_2_1", "inbound_nodes": [[["LRL_1", 0, 0, {}]]]}, {"class_name": "Activation", "config": {"name": "F_2_1_Relu", "trainable": true, "dtype": "float32", "activation": "relu"}, "name": "F_2_1_Relu", "inbound_nodes": [[["F_2_1", 0, 0, {}]]]}, {"class_name": "Concatenate", "config": {"name": "RDB_Concat_2_1", "trainable": true, "dtype": "float32", "axis": 3}, "name": "RDB_Concat_2_1", "inbound_nodes": [[["LRL_1", 0, 0, {}], ["F_2_1_Relu", 0, 0, {}]]]}, {"class_name": "Conv2D", "config": {"name": "F_2_2", "trainable": true, "dtype": "float32", "filters": 64, "kernel_size": [3, 3], "strides": [1, 1], "padding": "same", "data_format": "channels_last", "dilation_rate": [1, 1], "groups": 1, "activation": "linear", "use_bias": true, "kernel_initializer": {"class_name": "RandomUniform", "config": {"minval": -0.05, "maxval": 0.05, "seed": null}}, "bias_initializer": {"class_name": "Zeros", "config": {}}, "kernel_regularizer": null, "bias_regularizer": null, "activity_regularizer": null, "kernel_constraint": null, "bias_constraint": null}, "name": "F_2_2", "inbound_nodes": [[["RDB_Concat_2_1", 0, 0, {}]]]}, {"class_name": "Activation", "config": {"name": "F_2_2_Relu", "trainable": true, "dtype": "float32", "activation": "relu"}, "name": "F_2_2_Relu", "inbound_nodes": [[["F_2_2", 0, 0, {}]]]}, {"class_name": "Concatenate", "config": {"name": "RDB_Concat_2_2", "trainable": true, "dtype": "float32", "axis": 3}, "name": "RDB_Concat_2_2", "inbound_nodes": [[["RDB_Concat_2_1", 0, 0, {}], ["F_2_2_Relu", 0, 0, {}]]]}, {"class_name": "Conv2D", "config": {"name": "F_2_3", "trainable": true, "dtype": "float32", "filters": 64, "kernel_size": [3, 3], "strides": [1, 1], "padding": "same", "data_format": "channels_last", "dilation_rate": [1, 1], "groups": 1, "activation": "linear", "use_bias": true, "kernel_initializer": {"class_name": "RandomUniform", "config": {"minval": -0.05, "maxval": 0.05, "seed": null}}, "bias_initializer": {"class_name": "Zeros", "config": {}}, "kernel_regularizer": null, "bias_regularizer": null, "activity_regularizer": null, "kernel_constraint": null, "bias_constraint": null}, "name": "F_2_3", "inbound_nodes": [[["RDB_Concat_2_2", 0, 0, {}]]]}, {"class_name": "Activation", "config": {"name": "F_2_3_Relu", "trainable": true, "dtype": "float32", "activation": "relu"}, "name": "F_2_3_Relu", "inbound_nodes": [[["F_2_3", 0, 0, {}]]]}, {"class_name": "Concatenate", "config": {"name": "RDB_Concat_2_3", "trainable": true, "dtype": "float32", "axis": 3}, "name": "RDB_Concat_2_3", "inbound_nodes": [[["RDB_Concat_2_2", 0, 0, {}], ["F_2_3_Relu", 0, 0, {}]]]}, {"class_name": "Conv2D", "config": {"name": "LFF_2", "trainable": true, "dtype": "float32", "filters": 64, "kernel_size": [1, 1], "strides": [1, 1], "padding": "valid", "data_format": "channels_last", "dilation_rate": [1, 1], "groups": 1, "activation": "linear", "use_bias": true, "kernel_initializer": {"class_name": "RandomUniform", "config": {"minval": -0.05, "maxval": 0.05, "seed": null}}, "bias_initializer": {"class_name": "Zeros", "config": {}}, "kernel_regularizer": null, "bias_regularizer": null, "activity_regularizer": null, "kernel_constraint": null, "bias_constraint": null}, "name": "LFF_2", "inbound_nodes": [[["RDB_Concat_2_3", 0, 0, {}]]]}, {"class_name": "Add", "config": {"name": "LRL_2", "trainable": true, "dtype": "float32"}, "name": "LRL_2", "inbound_nodes": [[["LFF_2", 0, 0, {}], ["LRL_1", 0, 0, {}]]]}, {"class_name": "Conv2D", "config": {"name": "F_3_1", "trainable": true, "dtype": "float32", "filters": 64, "kernel_size": [3, 3], "strides": [1, 1], "padding": "same", "data_format": "channels_last", "dilation_rate": [1, 1], "groups": 1, "activation": "linear", "use_bias": true, "kernel_initializer": {"class_name": "RandomUniform", "config": {"minval": -0.05, "maxval": 0.05, "seed": null}}, "bias_initializer": {"class_name": "Zeros", "config": {}}, "kernel_regularizer": null, "bias_regularizer": null, "activity_regularizer": null, "kernel_constraint": null, "bias_constraint": null}, "name": "F_3_1", "inbound_nodes": [[["LRL_2", 0, 0, {}]]]}, {"class_name": "Activation", "config": {"name": "F_3_1_Relu", "trainable": true, "dtype": "float32", "activation": "relu"}, "name": "F_3_1_Relu", "inbound_nodes": [[["F_3_1", 0, 0, {}]]]}, {"class_name": "Concatenate", "config": {"name": "RDB_Concat_3_1", "trainable": true, "dtype": "float32", "axis": 3}, "name": "RDB_Concat_3_1", "inbound_nodes": [[["LRL_2", 0, 0, {}], ["F_3_1_Relu", 0, 0, {}]]]}, {"class_name": "Conv2D", "config": {"name": "F_3_2", "trainable": true, "dtype": "float32", "filters": 64, "kernel_size": [3, 3], "strides": [1, 1], "padding": "same", "data_format": "channels_last", "dilation_rate": [1, 1], "groups": 1, "activation": "linear", "use_bias": true, "kernel_initializer": {"class_name": "RandomUniform", "config": {"minval": -0.05, "maxval": 0.05, "seed": null}}, "bias_initializer": {"class_name": "Zeros", "config": {}}, "kernel_regularizer": null, "bias_regularizer": null, "activity_regularizer": null, "kernel_constraint": null, "bias_constraint": null}, "name": "F_3_2", "inbound_nodes": [[["RDB_Concat_3_1", 0, 0, {}]]]}, {"class_name": "Activation", "config": {"name": "F_3_2_Relu", "trainable": true, "dtype": "float32", "activation": "relu"}, "name": "F_3_2_Relu", "inbound_nodes": [[["F_3_2", 0, 0, {}]]]}, {"class_name": "Concatenate", "config": {"name": "RDB_Concat_3_2", "trainable": true, "dtype": "float32", "axis": 3}, "name": "RDB_Concat_3_2", "inbound_nodes": [[["RDB_Concat_3_1", 0, 0, {}], ["F_3_2_Relu", 0, 0, {}]]]}, {"class_name": "Conv2D", "config": {"name": "F_3_3", "trainable": true, "dtype": "float32", "filters": 64, "kernel_size": [3, 3], "strides": [1, 1], "padding": "same", "data_format": "channels_last", "dilation_rate": [1, 1], "groups": 1, "activation": "linear", "use_bias": true, "kernel_initializer": {"class_name": "RandomUniform", "config": {"minval": -0.05, "maxval": 0.05, "seed": null}}, "bias_initializer": {"class_name": "Zeros", "config": {}}, "kernel_regularizer": null, "bias_regularizer": null, "activity_regularizer": null, "kernel_constraint": null, "bias_constraint": null}, "name": "F_3_3", "inbound_nodes": [[["RDB_Concat_3_2", 0, 0, {}]]]}, {"class_name": "Activation", "config": {"name": "F_3_3_Relu", "trainable": true, "dtype": "float32", "activation": "relu"}, "name": "F_3_3_Relu", "inbound_nodes": [[["F_3_3", 0, 0, {}]]]}, {"class_name": "Concatenate", "config": {"name": "RDB_Concat_3_3", "trainable": true, "dtype": "float32", "axis": 3}, "name": "RDB_Concat_3_3", "inbound_nodes": [[["RDB_Concat_3_2", 0, 0, {}], ["F_3_3_Relu", 0, 0, {}]]]}, {"class_name": "Conv2D", "config": {"name": "LFF_3", "trainable": true, "dtype": "float32", "filters": 64, "kernel_size": [1, 1], "strides": [1, 1], "padding": "valid", "data_format": "channels_last", "dilation_rate": [1, 1], "groups": 1, "activation": "linear", "use_bias": true, "kernel_initializer": {"class_name": "RandomUniform", "config": {"minval": -0.05, "maxval": 0.05, "seed": null}}, "bias_initializer": {"class_name": "Zeros", "config": {}}, "kernel_regularizer": null, "bias_regularizer": null, "activity_regularizer": null, "kernel_constraint": null, "bias_constraint": null}, "name": "LFF_3", "inbound_nodes": [[["RDB_Concat_3_3", 0, 0, {}]]]}, {"class_name": "Add", "config": {"name": "LRL_3", "trainable": true, "dtype": "float32"}, "name": "LRL_3", "inbound_nodes": [[["LFF_3", 0, 0, {}], ["LRL_2", 0, 0, {}]]]}, {"class_name": "Conv2D", "config": {"name": "F_4_1", "trainable": true, "dtype": "float32", "filters": 64, "kernel_size": [3, 3], "strides": [1, 1], "padding": "same", "data_format": "channels_last", "dilation_rate": [1, 1], "groups": 1, "activation": "linear", "use_bias": true, "kernel_initializer": {"class_name": "RandomUniform", "config": {"minval": -0.05, "maxval": 0.05, "seed": null}}, "bias_initializer": {"class_name": "Zeros", "config": {}}, "kernel_regularizer": null, "bias_regularizer": null, "activity_regularizer": null, "kernel_constraint": null, "bias_constraint": null}, "name": "F_4_1", "inbound_nodes": [[["LRL_3", 0, 0, {}]]]}, {"class_name": "Activation", "config": {"name": "F_4_1_Relu", "trainable": true, "dtype": "float32", "activation": "relu"}, "name": "F_4_1_Relu", "inbound_nodes": [[["F_4_1", 0, 0, {}]]]}, {"class_name": "Concatenate", "config": {"name": "RDB_Concat_4_1", "trainable": true, "dtype": "float32", "axis": 3}, "name": "RDB_Concat_4_1", "inbound_nodes": [[["LRL_3", 0, 0, {}], ["F_4_1_Relu", 0, 0, {}]]]}, {"class_name": "Conv2D", "config": {"name": "F_4_2", "trainable": true, "dtype": "float32", "filters": 64, "kernel_size": [3, 3], "strides": [1, 1], "padding": "same", "data_format": "channels_last", "dilation_rate": [1, 1], "groups": 1, "activation": "linear", "use_bias": true, "kernel_initializer": {"class_name": "RandomUniform", "config": {"minval": -0.05, "maxval": 0.05, "seed": null}}, "bias_initializer": {"class_name": "Zeros", "config": {}}, "kernel_regularizer": null, "bias_regularizer": null, "activity_regularizer": null, "kernel_constraint": null, "bias_constraint": null}, "name": "F_4_2", "inbound_nodes": [[["RDB_Concat_4_1", 0, 0, {}]]]}, {"class_name": "Activation", "config": {"name": "F_4_2_Relu", "trainable": true, "dtype": "float32", "activation": "relu"}, "name": "F_4_2_Relu", "inbound_nodes": [[["F_4_2", 0, 0, {}]]]}, {"class_name": "Concatenate", "config": {"name": "RDB_Concat_4_2", "trainable": true, "dtype": "float32", "axis": 3}, "name": "RDB_Concat_4_2", "inbound_nodes": [[["RDB_Concat_4_1", 0, 0, {}], ["F_4_2_Relu", 0, 0, {}]]]}, {"class_name": "Conv2D", "config": {"name": "F_4_3", "trainable": true, "dtype": "float32", "filters": 64, "kernel_size": [3, 3], "strides": [1, 1], "padding": "same", "data_format": "channels_last", "dilation_rate": [1, 1], "groups": 1, "activation": "linear", "use_bias": true, "kernel_initializer": {"class_name": "RandomUniform", "config": {"minval": -0.05, "maxval": 0.05, "seed": null}}, "bias_initializer": {"class_name": "Zeros", "config": {}}, "kernel_regularizer": null, "bias_regularizer": null, "activity_regularizer": null, "kernel_constraint": null, "bias_constraint": null}, "name": "F_4_3", "inbound_nodes": [[["RDB_Concat_4_2", 0, 0, {}]]]}, {"class_name": "Activation", "config": {"name": "F_4_3_Relu", "trainable": true, "dtype": "float32", "activation": "relu"}, "name": "F_4_3_Relu", "inbound_nodes": [[["F_4_3", 0, 0, {}]]]}, {"class_name": "Concatenate", "config": {"name": "RDB_Concat_4_3", "trainable": true, "dtype": "float32", "axis": 3}, "name": "RDB_Concat_4_3", "inbound_nodes": [[["RDB_Concat_4_2", 0, 0, {}], ["F_4_3_Relu", 0, 0, {}]]]}, {"class_name": "Conv2D", "config": {"name": "LFF_4", "trainable": true, "dtype": "float32", "filters": 64, "kernel_size": [1, 1], "strides": [1, 1], "padding": "valid", "data_format": "channels_last", "dilation_rate": [1, 1], "groups": 1, "activation": "linear", "use_bias": true, "kernel_initializer": {"class_name": "RandomUniform", "config": {"minval": -0.05, "maxval": 0.05, "seed": null}}, "bias_initializer": {"class_name": "Zeros", "config": {}}, "kernel_regularizer": null, "bias_regularizer": null, "activity_regularizer": null, "kernel_constraint": null, "bias_constraint": null}, "name": "LFF_4", "inbound_nodes": [[["RDB_Concat_4_3", 0, 0, {}]]]}, {"class_name": "Add", "config": {"name": "LRL_4", "trainable": true, "dtype": "float32"}, "name": "LRL_4", "inbound_nodes": [[["LFF_4", 0, 0, {}], ["LRL_3", 0, 0, {}]]]}, {"class_name": "Conv2D", "config": {"name": "F_5_1", "trainable": true, "dtype": "float32", "filters": 64, "kernel_size": [3, 3], "strides": [1, 1], "padding": "same", "data_format": "channels_last", "dilation_rate": [1, 1], "groups": 1, "activation": "linear", "use_bias": true, "kernel_initializer": {"class_name": "RandomUniform", "config": {"minval": -0.05, "maxval": 0.05, "seed": null}}, "bias_initializer": {"class_name": "Zeros", "config": {}}, "kernel_regularizer": null, "bias_regularizer": null, "activity_regularizer": null, "kernel_constraint": null, "bias_constraint": null}, "name": "F_5_1", "inbound_nodes": [[["LRL_4", 0, 0, {}]]]}, {"class_name": "Activation", "config": {"name": "F_5_1_Relu", "trainable": true, "dtype": "float32", "activation": "relu"}, "name": "F_5_1_Relu", "inbound_nodes": [[["F_5_1", 0, 0, {}]]]}, {"class_name": "Concatenate", "config": {"name": "RDB_Concat_5_1", "trainable": true, "dtype": "float32", "axis": 3}, "name": "RDB_Concat_5_1", "inbound_nodes": [[["LRL_4", 0, 0, {}], ["F_5_1_Relu", 0, 0, {}]]]}, {"class_name": "Conv2D", "config": {"name": "F_5_2", "trainable": true, "dtype": "float32", "filters": 64, "kernel_size": [3, 3], "strides": [1, 1], "padding": "same", "data_format": "channels_last", "dilation_rate": [1, 1], "groups": 1, "activation": "linear", "use_bias": true, "kernel_initializer": {"class_name": "RandomUniform", "config": {"minval": -0.05, "maxval": 0.05, "seed": null}}, "bias_initializer": {"class_name": "Zeros", "config": {}}, "kernel_regularizer": null, "bias_regularizer": null, "activity_regularizer": null, "kernel_constraint": null, "bias_constraint": null}, "name": "F_5_2", "inbound_nodes": [[["RDB_Concat_5_1", 0, 0, {}]]]}, {"class_name": "Activation", "config": {"name": "F_5_2_Relu", "trainable": true, "dtype": "float32", "activation": "relu"}, "name": "F_5_2_Relu", "inbound_nodes": [[["F_5_2", 0, 0, {}]]]}, {"class_name": "Concatenate", "config": {"name": "RDB_Concat_5_2", "trainable": true, "dtype": "float32", "axis": 3}, "name": "RDB_Concat_5_2", "inbound_nodes": [[["RDB_Concat_5_1", 0, 0, {}], ["F_5_2_Relu", 0, 0, {}]]]}, {"class_name": "Conv2D", "config": {"name": "F_5_3", "trainable": true, "dtype": "float32", "filters": 64, "kernel_size": [3, 3], "strides": [1, 1], "padding": "same", "data_format": "channels_last", "dilation_rate": [1, 1], "groups": 1, "activation": "linear", "use_bias": true, "kernel_initializer": {"class_name": "RandomUniform", "config": {"minval": -0.05, "maxval": 0.05, "seed": null}}, "bias_initializer": {"class_name": "Zeros", "config": {}}, "kernel_regularizer": null, "bias_regularizer": null, "activity_regularizer": null, "kernel_constraint": null, "bias_constraint": null}, "name": "F_5_3", "inbound_nodes": [[["RDB_Concat_5_2", 0, 0, {}]]]}, {"class_name": "Activation", "config": {"name": "F_5_3_Relu", "trainable": true, "dtype": "float32", "activation": "relu"}, "name": "F_5_3_Relu", "inbound_nodes": [[["F_5_3", 0, 0, {}]]]}, {"class_name": "Concatenate", "config": {"name": "RDB_Concat_5_3", "trainable": true, "dtype": "float32", "axis": 3}, "name": "RDB_Concat_5_3", "inbound_nodes": [[["RDB_Concat_5_2", 0, 0, {}], ["F_5_3_Relu", 0, 0, {}]]]}, {"class_name": "Conv2D", "config": {"name": "LFF_5", "trainable": true, "dtype": "float32", "filters": 64, "kernel_size": [1, 1], "strides": [1, 1], "padding": "valid", "data_format": "channels_last", "dilation_rate": [1, 1], "groups": 1, "activation": "linear", "use_bias": true, "kernel_initializer": {"class_name": "RandomUniform", "config": {"minval": -0.05, "maxval": 0.05, "seed": null}}, "bias_initializer": {"class_name": "Zeros", "config": {}}, "kernel_regularizer": null, "bias_regularizer": null, "activity_regularizer": null, "kernel_constraint": null, "bias_constraint": null}, "name": "LFF_5", "inbound_nodes": [[["RDB_Concat_5_3", 0, 0, {}]]]}, {"class_name": "Add", "config": {"name": "LRL_5", "trainable": true, "dtype": "float32"}, "name": "LRL_5", "inbound_nodes": [[["LFF_5", 0, 0, {}], ["LRL_4", 0, 0, {}]]]}, {"class_name": "Conv2D", "config": {"name": "F_6_1", "trainable": true, "dtype": "float32", "filters": 64, "kernel_size": [3, 3], "strides": [1, 1], "padding": "same", "data_format": "channels_last", "dilation_rate": [1, 1], "groups": 1, "activation": "linear", "use_bias": true, "kernel_initializer": {"class_name": "RandomUniform", "config": {"minval": -0.05, "maxval": 0.05, "seed": null}}, "bias_initializer": {"class_name": "Zeros", "config": {}}, "kernel_regularizer": null, "bias_regularizer": null, "activity_regularizer": null, "kernel_constraint": null, "bias_constraint": null}, "name": "F_6_1", "inbound_nodes": [[["LRL_5", 0, 0, {}]]]}, {"class_name": "Activation", "config": {"name": "F_6_1_Relu", "trainable": true, "dtype": "float32", "activation": "relu"}, "name": "F_6_1_Relu", "inbound_nodes": [[["F_6_1", 0, 0, {}]]]}, {"class_name": "Concatenate", "config": {"name": "RDB_Concat_6_1", "trainable": true, "dtype": "float32", "axis": 3}, "name": "RDB_Concat_6_1", "inbound_nodes": [[["LRL_5", 0, 0, {}], ["F_6_1_Relu", 0, 0, {}]]]}, {"class_name": "Conv2D", "config": {"name": "F_6_2", "trainable": true, "dtype": "float32", "filters": 64, "kernel_size": [3, 3], "strides": [1, 1], "padding": "same", "data_format": "channels_last", "dilation_rate": [1, 1], "groups": 1, "activation": "linear", "use_bias": true, "kernel_initializer": {"class_name": "RandomUniform", "config": {"minval": -0.05, "maxval": 0.05, "seed": null}}, "bias_initializer": {"class_name": "Zeros", "config": {}}, "kernel_regularizer": null, "bias_regularizer": null, "activity_regularizer": null, "kernel_constraint": null, "bias_constraint": null}, "name": "F_6_2", "inbound_nodes": [[["RDB_Concat_6_1", 0, 0, {}]]]}, {"class_name": "Activation", "config": {"name": "F_6_2_Relu", "trainable": true, "dtype": "float32", "activation": "relu"}, "name": "F_6_2_Relu", "inbound_nodes": [[["F_6_2", 0, 0, {}]]]}, {"class_name": "Concatenate", "config": {"name": "RDB_Concat_6_2", "trainable": true, "dtype": "float32", "axis": 3}, "name": "RDB_Concat_6_2", "inbound_nodes": [[["RDB_Concat_6_1", 0, 0, {}], ["F_6_2_Relu", 0, 0, {}]]]}, {"class_name": "Conv2D", "config": {"name": "F_6_3", "trainable": true, "dtype": "float32", "filters": 64, "kernel_size": [3, 3], "strides": [1, 1], "padding": "same", "data_format": "channels_last", "dilation_rate": [1, 1], "groups": 1, "activation": "linear", "use_bias": true, "kernel_initializer": {"class_name": "RandomUniform", "config": {"minval": -0.05, "maxval": 0.05, "seed": null}}, "bias_initializer": {"class_name": "Zeros", "config": {}}, "kernel_regularizer": null, "bias_regularizer": null, "activity_regularizer": null, "kernel_constraint": null, "bias_constraint": null}, "name": "F_6_3", "inbound_nodes": [[["RDB_Concat_6_2", 0, 0, {}]]]}, {"class_name": "Activation", "config": {"name": "F_6_3_Relu", "trainable": true, "dtype": "float32", "activation": "relu"}, "name": "F_6_3_Relu", "inbound_nodes": [[["F_6_3", 0, 0, {}]]]}, {"class_name": "Concatenate", "config": {"name": "RDB_Concat_6_3", "trainable": true, "dtype": "float32", "axis": 3}, "name": "RDB_Concat_6_3", "inbound_nodes": [[["RDB_Concat_6_2", 0, 0, {}], ["F_6_3_Relu", 0, 0, {}]]]}, {"class_name": "Conv2D", "config": {"name": "LFF_6", "trainable": true, "dtype": "float32", "filters": 64, "kernel_size": [1, 1], "strides": [1, 1], "padding": "valid", "data_format": "channels_last", "dilation_rate": [1, 1], "groups": 1, "activation": "linear", "use_bias": true, "kernel_initializer": {"class_name": "RandomUniform", "config": {"minval": -0.05, "maxval": 0.05, "seed": null}}, "bias_initializer": {"class_name": "Zeros", "config": {}}, "kernel_regularizer": null, "bias_regularizer": null, "activity_regularizer": null, "kernel_constraint": null, "bias_constraint": null}, "name": "LFF_6", "inbound_nodes": [[["RDB_Concat_6_3", 0, 0, {}]]]}, {"class_name": "Add", "config": {"name": "LRL_6", "trainable": true, "dtype": "float32"}, "name": "LRL_6", "inbound_nodes": [[["LFF_6", 0, 0, {}], ["LRL_5", 0, 0, {}]]]}, {"class_name": "Conv2D", "config": {"name": "F_7_1", "trainable": true, "dtype": "float32", "filters": 64, "kernel_size": [3, 3], "strides": [1, 1], "padding": "same", "data_format": "channels_last", "dilation_rate": [1, 1], "groups": 1, "activation": "linear", "use_bias": true, "kernel_initializer": {"class_name": "RandomUniform", "config": {"minval": -0.05, "maxval": 0.05, "seed": null}}, "bias_initializer": {"class_name": "Zeros", "config": {}}, "kernel_regularizer": null, "bias_regularizer": null, "activity_regularizer": null, "kernel_constraint": null, "bias_constraint": null}, "name": "F_7_1", "inbound_nodes": [[["LRL_6", 0, 0, {}]]]}, {"class_name": "Activation", "config": {"name": "F_7_1_Relu", "trainable": true, "dtype": "float32", "activation": "relu"}, "name": "F_7_1_Relu", "inbound_nodes": [[["F_7_1", 0, 0, {}]]]}, {"class_name": "Concatenate", "config": {"name": "RDB_Concat_7_1", "trainable": true, "dtype": "float32", "axis": 3}, "name": "RDB_Concat_7_1", "inbound_nodes": [[["LRL_6", 0, 0, {}], ["F_7_1_Relu", 0, 0, {}]]]}, {"class_name": "Conv2D", "config": {"name": "F_7_2", "trainable": true, "dtype": "float32", "filters": 64, "kernel_size": [3, 3], "strides": [1, 1], "padding": "same", "data_format": "channels_last", "dilation_rate": [1, 1], "groups": 1, "activation": "linear", "use_bias": true, "kernel_initializer": {"class_name": "RandomUniform", "config": {"minval": -0.05, "maxval": 0.05, "seed": null}}, "bias_initializer": {"class_name": "Zeros", "config": {}}, "kernel_regularizer": null, "bias_regularizer": null, "activity_regularizer": null, "kernel_constraint": null, "bias_constraint": null}, "name": "F_7_2", "inbound_nodes": [[["RDB_Concat_7_1", 0, 0, {}]]]}, {"class_name": "Activation", "config": {"name": "F_7_2_Relu", "trainable": true, "dtype": "float32", "activation": "relu"}, "name": "F_7_2_Relu", "inbound_nodes": [[["F_7_2", 0, 0, {}]]]}, {"class_name": "Concatenate", "config": {"name": "RDB_Concat_7_2", "trainable": true, "dtype": "float32", "axis": 3}, "name": "RDB_Concat_7_2", "inbound_nodes": [[["RDB_Concat_7_1", 0, 0, {}], ["F_7_2_Relu", 0, 0, {}]]]}, {"class_name": "Conv2D", "config": {"name": "F_7_3", "trainable": true, "dtype": "float32", "filters": 64, "kernel_size": [3, 3], "strides": [1, 1], "padding": "same", "data_format": "channels_last", "dilation_rate": [1, 1], "groups": 1, "activation": "linear", "use_bias": true, "kernel_initializer": {"class_name": "RandomUniform", "config": {"minval": -0.05, "maxval": 0.05, "seed": null}}, "bias_initializer": {"class_name": "Zeros", "config": {}}, "kernel_regularizer": null, "bias_regularizer": null, "activity_regularizer": null, "kernel_constraint": null, "bias_constraint": null}, "name": "F_7_3", "inbound_nodes": [[["RDB_Concat_7_2", 0, 0, {}]]]}, {"class_name": "Activation", "config": {"name": "F_7_3_Relu", "trainable": true, "dtype": "float32", "activation": "relu"}, "name": "F_7_3_Relu", "inbound_nodes": [[["F_7_3", 0, 0, {}]]]}, {"class_name": "Concatenate", "config": {"name": "RDB_Concat_7_3", "trainable": true, "dtype": "float32", "axis": 3}, "name": "RDB_Concat_7_3", "inbound_nodes": [[["RDB_Concat_7_2", 0, 0, {}], ["F_7_3_Relu", 0, 0, {}]]]}, {"class_name": "Conv2D", "config": {"name": "LFF_7", "trainable": true, "dtype": "float32", "filters": 64, "kernel_size": [1, 1], "strides": [1, 1], "padding": "valid", "data_format": "channels_last", "dilation_rate": [1, 1], "groups": 1, "activation": "linear", "use_bias": true, "kernel_initializer": {"class_name": "RandomUniform", "config": {"minval": -0.05, "maxval": 0.05, "seed": null}}, "bias_initializer": {"class_name": "Zeros", "config": {}}, "kernel_regularizer": null, "bias_regularizer": null, "activity_regularizer": null, "kernel_constraint": null, "bias_constraint": null}, "name": "LFF_7", "inbound_nodes": [[["RDB_Concat_7_3", 0, 0, {}]]]}, {"class_name": "Add", "config": {"name": "LRL_7", "trainable": true, "dtype": "float32"}, "name": "LRL_7", "inbound_nodes": [[["LFF_7", 0, 0, {}], ["LRL_6", 0, 0, {}]]]}, {"class_name": "Conv2D", "config": {"name": "F_8_1", "trainable": true, "dtype": "float32", "filters": 64, "kernel_size": [3, 3], "strides": [1, 1], "padding": "same", "data_format": "channels_last", "dilation_rate": [1, 1], "groups": 1, "activation": "linear", "use_bias": true, "kernel_initializer": {"class_name": "RandomUniform", "config": {"minval": -0.05, "maxval": 0.05, "seed": null}}, "bias_initializer": {"class_name": "Zeros", "config": {}}, "kernel_regularizer": null, "bias_regularizer": null, "activity_regularizer": null, "kernel_constraint": null, "bias_constraint": null}, "name": "F_8_1", "inbound_nodes": [[["LRL_7", 0, 0, {}]]]}, {"class_name": "Activation", "config": {"name": "F_8_1_Relu", "trainable": true, "dtype": "float32", "activation": "relu"}, "name": "F_8_1_Relu", "inbound_nodes": [[["F_8_1", 0, 0, {}]]]}, {"class_name": "Concatenate", "config": {"name": "RDB_Concat_8_1", "trainable": true, "dtype": "float32", "axis": 3}, "name": "RDB_Concat_8_1", "inbound_nodes": [[["LRL_7", 0, 0, {}], ["F_8_1_Relu", 0, 0, {}]]]}, {"class_name": "Conv2D", "config": {"name": "F_8_2", "trainable": true, "dtype": "float32", "filters": 64, "kernel_size": [3, 3], "strides": [1, 1], "padding": "same", "data_format": "channels_last", "dilation_rate": [1, 1], "groups": 1, "activation": "linear", "use_bias": true, "kernel_initializer": {"class_name": "RandomUniform", "config": {"minval": -0.05, "maxval": 0.05, "seed": null}}, "bias_initializer": {"class_name": "Zeros", "config": {}}, "kernel_regularizer": null, "bias_regularizer": null, "activity_regularizer": null, "kernel_constraint": null, "bias_constraint": null}, "name": "F_8_2", "inbound_nodes": [[["RDB_Concat_8_1", 0, 0, {}]]]}, {"class_name": "Activation", "config": {"name": "F_8_2_Relu", "trainable": true, "dtype": "float32", "activation": "relu"}, "name": "F_8_2_Relu", "inbound_nodes": [[["F_8_2", 0, 0, {}]]]}, {"class_name": "Concatenate", "config": {"name": "RDB_Concat_8_2", "trainable": true, "dtype": "float32", "axis": 3}, "name": "RDB_Concat_8_2", "inbound_nodes": [[["RDB_Concat_8_1", 0, 0, {}], ["F_8_2_Relu", 0, 0, {}]]]}, {"class_name": "Conv2D", "config": {"name": "F_8_3", "trainable": true, "dtype": "float32", "filters": 64, "kernel_size": [3, 3], "strides": [1, 1], "padding": "same", "data_format": "channels_last", "dilation_rate": [1, 1], "groups": 1, "activation": "linear", "use_bias": true, "kernel_initializer": {"class_name": "RandomUniform", "config": {"minval": -0.05, "maxval": 0.05, "seed": null}}, "bias_initializer": {"class_name": "Zeros", "config": {}}, "kernel_regularizer": null, "bias_regularizer": null, "activity_regularizer": null, "kernel_constraint": null, "bias_constraint": null}, "name": "F_8_3", "inbound_nodes": [[["RDB_Concat_8_2", 0, 0, {}]]]}, {"class_name": "Activation", "config": {"name": "F_8_3_Relu", "trainable": true, "dtype": "float32", "activation": "relu"}, "name": "F_8_3_Relu", "inbound_nodes": [[["F_8_3", 0, 0, {}]]]}, {"class_name": "Concatenate", "config": {"name": "RDB_Concat_8_3", "trainable": true, "dtype": "float32", "axis": 3}, "name": "RDB_Concat_8_3", "inbound_nodes": [[["RDB_Concat_8_2", 0, 0, {}], ["F_8_3_Relu", 0, 0, {}]]]}, {"class_name": "Conv2D", "config": {"name": "LFF_8", "trainable": true, "dtype": "float32", "filters": 64, "kernel_size": [1, 1], "strides": [1, 1], "padding": "valid", "data_format": "channels_last", "dilation_rate": [1, 1], "groups": 1, "activation": "linear", "use_bias": true, "kernel_initializer": {"class_name": "RandomUniform", "config": {"minval": -0.05, "maxval": 0.05, "seed": null}}, "bias_initializer": {"class_name": "Zeros", "config": {}}, "kernel_regularizer": null, "bias_regularizer": null, "activity_regularizer": null, "kernel_constraint": null, "bias_constraint": null}, "name": "LFF_8", "inbound_nodes": [[["RDB_Concat_8_3", 0, 0, {}]]]}, {"class_name": "Add", "config": {"name": "LRL_8", "trainable": true, "dtype": "float32"}, "name": "LRL_8", "inbound_nodes": [[["LFF_8", 0, 0, {}], ["LRL_7", 0, 0, {}]]]}, {"class_name": "Conv2D", "config": {"name": "F_9_1", "trainable": true, "dtype": "float32", "filters": 64, "kernel_size": [3, 3], "strides": [1, 1], "padding": "same", "data_format": "channels_last", "dilation_rate": [1, 1], "groups": 1, "activation": "linear", "use_bias": true, "kernel_initializer": {"class_name": "RandomUniform", "config": {"minval": -0.05, "maxval": 0.05, "seed": null}}, "bias_initializer": {"class_name": "Zeros", "config": {}}, "kernel_regularizer": null, "bias_regularizer": null, "activity_regularizer": null, "kernel_constraint": null, "bias_constraint": null}, "name": "F_9_1", "inbound_nodes": [[["LRL_8", 0, 0, {}]]]}, {"class_name": "Activation", "config": {"name": "F_9_1_Relu", "trainable": true, "dtype": "float32", "activation": "relu"}, "name": "F_9_1_Relu", "inbound_nodes": [[["F_9_1", 0, 0, {}]]]}, {"class_name": "Concatenate", "config": {"name": "RDB_Concat_9_1", "trainable": true, "dtype": "float32", "axis": 3}, "name": "RDB_Concat_9_1", "inbound_nodes": [[["LRL_8", 0, 0, {}], ["F_9_1_Relu", 0, 0, {}]]]}, {"class_name": "Conv2D", "config": {"name": "F_9_2", "trainable": true, "dtype": "float32", "filters": 64, "kernel_size": [3, 3], "strides": [1, 1], "padding": "same", "data_format": "channels_last", "dilation_rate": [1, 1], "groups": 1, "activation": "linear", "use_bias": true, "kernel_initializer": {"class_name": "RandomUniform", "config": {"minval": -0.05, "maxval": 0.05, "seed": null}}, "bias_initializer": {"class_name": "Zeros", "config": {}}, "kernel_regularizer": null, "bias_regularizer": null, "activity_regularizer": null, "kernel_constraint": null, "bias_constraint": null}, "name": "F_9_2", "inbound_nodes": [[["RDB_Concat_9_1", 0, 0, {}]]]}, {"class_name": "Activation", "config": {"name": "F_9_2_Relu", "trainable": true, "dtype": "float32", "activation": "relu"}, "name": "F_9_2_Relu", "inbound_nodes": [[["F_9_2", 0, 0, {}]]]}, {"class_name": "Concatenate", "config": {"name": "RDB_Concat_9_2", "trainable": true, "dtype": "float32", "axis": 3}, "name": "RDB_Concat_9_2", "inbound_nodes": [[["RDB_Concat_9_1", 0, 0, {}], ["F_9_2_Relu", 0, 0, {}]]]}, {"class_name": "Conv2D", "config": {"name": "F_9_3", "trainable": true, "dtype": "float32", "filters": 64, "kernel_size": [3, 3], "strides": [1, 1], "padding": "same", "data_format": "channels_last", "dilation_rate": [1, 1], "groups": 1, "activation": "linear", "use_bias": true, "kernel_initializer": {"class_name": "RandomUniform", "config": {"minval": -0.05, "maxval": 0.05, "seed": null}}, "bias_initializer": {"class_name": "Zeros", "config": {}}, "kernel_regularizer": null, "bias_regularizer": null, "activity_regularizer": null, "kernel_constraint": null, "bias_constraint": null}, "name": "F_9_3", "inbound_nodes": [[["RDB_Concat_9_2", 0, 0, {}]]]}, {"class_name": "Activation", "config": {"name": "F_9_3_Relu", "trainable": true, "dtype": "float32", "activation": "relu"}, "name": "F_9_3_Relu", "inbound_nodes": [[["F_9_3", 0, 0, {}]]]}, {"class_name": "Concatenate", "config": {"name": "RDB_Concat_9_3", "trainable": true, "dtype": "float32", "axis": 3}, "name": "RDB_Concat_9_3", "inbound_nodes": [[["RDB_Concat_9_2", 0, 0, {}], ["F_9_3_Relu", 0, 0, {}]]]}, {"class_name": "Conv2D", "config": {"name": "LFF_9", "trainable": true, "dtype": "float32", "filters": 64, "kernel_size": [1, 1], "strides": [1, 1], "padding": "valid", "data_format": "channels_last", "dilation_rate": [1, 1], "groups": 1, "activation": "linear", "use_bias": true, "kernel_initializer": {"class_name": "RandomUniform", "config": {"minval": -0.05, "maxval": 0.05, "seed": null}}, "bias_initializer": {"class_name": "Zeros", "config": {}}, "kernel_regularizer": null, "bias_regularizer": null, "activity_regularizer": null, "kernel_constraint": null, "bias_constraint": null}, "name": "LFF_9", "inbound_nodes": [[["RDB_Concat_9_3", 0, 0, {}]]]}, {"class_name": "Add", "config": {"name": "LRL_9", "trainable": true, "dtype": "float32"}, "name": "LRL_9", "inbound_nodes": [[["LFF_9", 0, 0, {}], ["LRL_8", 0, 0, {}]]]}, {"class_name": "Conv2D", "config": {"name": "F_10_1", "trainable": true, "dtype": "float32", "filters": 64, "kernel_size": [3, 3], "strides": [1, 1], "padding": "same", "data_format": "channels_last", "dilation_rate": [1, 1], "groups": 1, "activation": "linear", "use_bias": true, "kernel_initializer": {"class_name": "RandomUniform", "config": {"minval": -0.05, "maxval": 0.05, "seed": null}}, "bias_initializer": {"class_name": "Zeros", "config": {}}, "kernel_regularizer": null, "bias_regularizer": null, "activity_regularizer": null, "kernel_constraint": null, "bias_constraint": null}, "name": "F_10_1", "inbound_nodes": [[["LRL_9", 0, 0, {}]]]}, {"class_name": "Activation", "config": {"name": "F_10_1_Relu", "trainable": true, "dtype": "float32", "activation": "relu"}, "name": "F_10_1_Relu", "inbound_nodes": [[["F_10_1", 0, 0, {}]]]}, {"class_name": "Concatenate", "config": {"name": "RDB_Concat_10_1", "trainable": true, "dtype": "float32", "axis": 3}, "name": "RDB_Concat_10_1", "inbound_nodes": [[["LRL_9", 0, 0, {}], ["F_10_1_Relu", 0, 0, {}]]]}, {"class_name": "Conv2D", "config": {"name": "F_10_2", "trainable": true, "dtype": "float32", "filters": 64, "kernel_size": [3, 3], "strides": [1, 1], "padding": "same", "data_format": "channels_last", "dilation_rate": [1, 1], "groups": 1, "activation": "linear", "use_bias": true, "kernel_initializer": {"class_name": "RandomUniform", "config": {"minval": -0.05, "maxval": 0.05, "seed": null}}, "bias_initializer": {"class_name": "Zeros", "config": {}}, "kernel_regularizer": null, "bias_regularizer": null, "activity_regularizer": null, "kernel_constraint": null, "bias_constraint": null}, "name": "F_10_2", "inbound_nodes": [[["RDB_Concat_10_1", 0, 0, {}]]]}, {"class_name": "Activation", "config": {"name": "F_10_2_Relu", "trainable": true, "dtype": "float32", "activation": "relu"}, "name": "F_10_2_Relu", "inbound_nodes": [[["F_10_2", 0, 0, {}]]]}, {"class_name": "Concatenate", "config": {"name": "RDB_Concat_10_2", "trainable": true, "dtype": "float32", "axis": 3}, "name": "RDB_Concat_10_2", "inbound_nodes": [[["RDB_Concat_10_1", 0, 0, {}], ["F_10_2_Relu", 0, 0, {}]]]}, {"class_name": "Conv2D", "config": {"name": "F_10_3", "trainable": true, "dtype": "float32", "filters": 64, "kernel_size": [3, 3], "strides": [1, 1], "padding": "same", "data_format": "channels_last", "dilation_rate": [1, 1], "groups": 1, "activation": "linear", "use_bias": true, "kernel_initializer": {"class_name": "RandomUniform", "config": {"minval": -0.05, "maxval": 0.05, "seed": null}}, "bias_initializer": {"class_name": "Zeros", "config": {}}, "kernel_regularizer": null, "bias_regularizer": null, "activity_regularizer": null, "kernel_constraint": null, "bias_constraint": null}, "name": "F_10_3", "inbound_nodes": [[["RDB_Concat_10_2", 0, 0, {}]]]}, {"class_name": "Activation", "config": {"name": "F_10_3_Relu", "trainable": true, "dtype": "float32", "activation": "relu"}, "name": "F_10_3_Relu", "inbound_nodes": [[["F_10_3", 0, 0, {}]]]}, {"class_name": "Concatenate", "config": {"name": "RDB_Concat_10_3", "trainable": true, "dtype": "float32", "axis": 3}, "name": "RDB_Concat_10_3", "inbound_nodes": [[["RDB_Concat_10_2", 0, 0, {}], ["F_10_3_Relu", 0, 0, {}]]]}, {"class_name": "Conv2D", "config": {"name": "LFF_10", "trainable": true, "dtype": "float32", "filters": 64, "kernel_size": [1, 1], "strides": [1, 1], "padding": "valid", "data_format": "channels_last", "dilation_rate": [1, 1], "groups": 1, "activation": "linear", "use_bias": true, "kernel_initializer": {"class_name": "RandomUniform", "config": {"minval": -0.05, "maxval": 0.05, "seed": null}}, "bias_initializer": {"class_name": "Zeros", "config": {}}, "kernel_regularizer": null, "bias_regularizer": null, "activity_regularizer": null, "kernel_constraint": null, "bias_constraint": null}, "name": "LFF_10", "inbound_nodes": [[["RDB_Concat_10_3", 0, 0, {}]]]}, {"class_name": "Add", "config": {"name": "LRL_10", "trainable": true, "dtype": "float32"}, "name": "LRL_10", "inbound_nodes": [[["LFF_10", 0, 0, {}], ["LRL_9", 0, 0, {}]]]}, {"class_name": "Concatenate", "config": {"name": "LRLs_Concat", "trainable": true, "dtype": "float32", "axis": 3}, "name": "LRLs_Concat", "inbound_nodes": [[["LRL_1", 0, 0, {}], ["LRL_2", 0, 0, {}], ["LRL_3", 0, 0, {}], ["LRL_4", 0, 0, {}], ["LRL_5", 0, 0, {}], ["LRL_6", 0, 0, {}], ["LRL_7", 0, 0, {}], ["LRL_8", 0, 0, {}], ["LRL_9", 0, 0, {}], ["LRL_10", 0, 0, {}]]]}, {"class_name": "Conv2D", "config": {"name": "GFF_1", "trainable": true, "dtype": "float32", "filters": 64, "kernel_size": [1, 1], "strides": [1, 1], "padding": "same", "data_format": "channels_last", "dilation_rate": [1, 1], "groups": 1, "activation": "linear", "use_bias": true, "kernel_initializer": {"class_name": "RandomUniform", "config": {"minval": -0.05, "maxval": 0.05, "seed": null}}, "bias_initializer": {"class_name": "Zeros", "config": {}}, "kernel_regularizer": null, "bias_regularizer": null, "activity_regularizer": null, "kernel_constraint": null, "bias_constraint": null}, "name": "GFF_1", "inbound_nodes": [[["LRLs_Concat", 0, 0, {}]]]}, {"class_name": "Conv2D", "config": {"name": "GFF_2", "trainable": true, "dtype": "float32", "filters": 64, "kernel_size": [3, 3], "strides": [1, 1], "padding": "same", "data_format": "channels_last", "dilation_rate": [1, 1], "groups": 1, "activation": "linear", "use_bias": true, "kernel_initializer": {"class_name": "RandomUniform", "config": {"minval": -0.05, "maxval": 0.05, "seed": null}}, "bias_initializer": {"class_name": "Zeros", "config": {}}, "kernel_regularizer": null, "bias_regularizer": null, "activity_regularizer": null, "kernel_constraint": null, "bias_constraint": null}, "name": "GFF_2", "inbound_nodes": [[["GFF_1", 0, 0, {}]]]}, {"class_name": "Add", "config": {"name": "FDF", "trainable": true, "dtype": "float32"}, "name": "FDF", "inbound_nodes": [[["GFF_2", 0, 0, {}], ["F_m1", 0, 0, {}]]]}, {"class_name": "Conv2D", "config": {"name": "UPN1", "trainable": true, "dtype": "float32", "filters": 64, "kernel_size": [5, 5], "strides": [1, 1], "padding": "same", "data_format": "channels_last", "dilation_rate": [1, 1], "groups": 1, "activation": "linear", "use_bias": true, "kernel_initializer": {"class_name": "RandomUniform", "config": {"minval": -0.05, "maxval": 0.05, "seed": null}}, "bias_initializer": {"class_name": "Zeros", "config": {}}, "kernel_regularizer": null, "bias_regularizer": null, "activity_regularizer": null, "kernel_constraint": null, "bias_constraint": null}, "name": "UPN1", "inbound_nodes": [[["FDF", 0, 0, {}]]]}, {"class_name": "Activation", "config": {"name": "UPN1_Relu", "trainable": true, "dtype": "float32", "activation": "relu"}, "name": "UPN1_Relu", "inbound_nodes": [[["UPN1", 0, 0, {}]]]}, {"class_name": "Conv2D", "config": {"name": "UPN2", "trainable": true, "dtype": "float32", "filters": 32, "kernel_size": [3, 3], "strides": [1, 1], "padding": "same", "data_format": "channels_last", "dilation_rate": [1, 1], "groups": 1, "activation": "linear", "use_bias": true, "kernel_initializer": {"class_name": "RandomUniform", "config": {"minval": -0.05, "maxval": 0.05, "seed": null}}, "bias_initializer": {"class_name": "Zeros", "config": {}}, "kernel_regularizer": null, "bias_regularizer": null, "activity_regularizer": null, "kernel_constraint": null, "bias_constraint": null}, "name": "UPN2", "inbound_nodes": [[["UPN1_Relu", 0, 0, {}]]]}, {"class_name": "Activation", "config": {"name": "UPN2_Relu", "trainable": true, "dtype": "float32", "activation": "relu"}, "name": "UPN2_Relu", "inbound_nodes": [[["UPN2", 0, 0, {}]]]}, {"class_name": "Conv2D", "config": {"name": "UPN3", "trainable": true, "dtype": "float32", "filters": 27, "kernel_size": [3, 3], "strides": [1, 1], "padding": "same", "data_format": "channels_last", "dilation_rate": [1, 1], "groups": 1, "activation": "linear", "use_bias": true, "kernel_initializer": {"class_name": "RandomUniform", "config": {"minval": -0.05, "maxval": 0.05, "seed": null}}, "bias_initializer": {"class_name": "Zeros", "config": {}}, "kernel_regularizer": null, "bias_regularizer": null, "activity_regularizer": null, "kernel_constraint": null, "bias_constraint": null}, "name": "UPN3", "inbound_nodes": [[["UPN2_Relu", 0, 0, {}]]]}, {"class_name": "UpSampling2D", "config": {"name": "UPsample", "trainable": true, "dtype": "float32", "size": [3, 3], "data_format": "channels_last", "interpolation": "nearest"}, "name": "UPsample", "inbound_nodes": [[["UPN3", 0, 0, {}]]]}, {"class_name": "Conv2D", "config": {"name": "SR", "trainable": true, "dtype": "float32", "filters": 3, "kernel_size": [3, 3], "strides": [1, 1], "padding": "same", "data_format": "channels_last", "dilation_rate": [1, 1], "groups": 1, "activation": "linear", "use_bias": true, "kernel_initializer": {"class_name": "RandomUniform", "config": {"minval": -0.05, "maxval": 0.05, "seed": null}}, "bias_initializer": {"class_name": "Zeros", "config": {}}, "kernel_regularizer": null, "bias_regularizer": null, "activity_regularizer": null, "kernel_constraint": null, "bias_constraint": null}, "name": "SR", "inbound_nodes": [[["UPsample", 0, 0, {}]]]}], "input_layers": [["LR", 0, 0]], "output_layers": [["SR", 0, 0]]}}}, "weightsManifest": [{"paths": ["group1-shard1of1.bin"], "weights": [{"name": "F_0/kernel", "shape": [3, 3, 64, 64], "dtype": "float32", "quantization": {"dtype": "uint8", "min": -0.1313546713660745, "scale": 0.0011728095657685224, "original_dtype": "float32"}}, {"name": "F_0/bias", "shape": [64], "dtype": "float32", "quantization": {"dtype": "uint8", "min": -0.03760897490908118, "scale": 0.00031081797445521635, "original_dtype": "float32"}}, {"name": "F_10_1/kernel", "shape": [3, 3, 64, 64], "dtype": "float32", "quantization": {"dtype": "uint8", "min": -0.19170618337743422, "scale": 0.001571362158831428, "original_dtype": "float32"}}, {"name": "F_10_1/bias", "shape": [64], "dtype": "float32", "quantization": {"dtype": "uint8", "min": -0.09089763401185766, "scale": 0.00037253128693384284, "original_dtype": "float32"}}, {"name": "F_10_2/kernel", "shape": [3, 3, 128, 64], "dtype": "float32", "quantization": {"dtype": "uint8", "min": -0.26630144142637063, "scale": 0.0019021531530455046, "original_dtype": "float32"}}, {"name": "F_10_2/bias", "shape": [64], "dtype": "float32", "quantization": {"dtype": "uint8", "min": -0.08355358950063295, "scale": 0.0005645512804096821, "original_dtype": "float32"}}, {"name": "F_10_3/kernel", "shape": [3, 3, 192, 64], "dtype": "float32", "quantization": {"dtype": "uint8", "min": -0.2643412117280212, "scale": 0.0019017353361728145, "original_dtype": "float32"}}, {"name": "F_10_3/bias", "shape": [64], "dtype": "float32", "quantization": {"dtype": "uint8", "min": -0.07149121550952688, "scale": 0.00046422867213978487, "original_dtype": "float32"}}, {"name": "F_1_1/kernel", "shape": [3, 3, 64, 64], "dtype": "float32", "quantization": {"dtype": "uint8", "min": -0.18404740486659257, "scale": 0.001287044789276871, "original_dtype": "float32"}}, {"name": "F_1_1/bias", "shape": [64], "dtype": "float32", "quantization": {"dtype": "uint8", "min": -0.06609946121187771, "scale": 0.0003060160241290635, "original_dtype": "float32"}}, {"name": "F_1_2/kernel", "shape": [3, 3, 128, 64], "dtype": "float32", "quantization": {"dtype": "uint8", "min": -0.21970662299324484, "scale": 0.0018940226120107314, "original_dtype": "float32"}}, {"name": "F_1_2/bias", "shape": [64], "dtype": "float32", "quantization": {"dtype": "uint8", "min": -0.060660494820160026, "scale": 0.00033329942208879134, "original_dtype": "float32"}}, {"name": "F_1_3/kernel", "shape": [3, 3, 192, 64], "dtype": "float32", "quantization": {"dtype": "uint8", "min": -0.21750705873264983, "scale": 0.0021970409972994934, "original_dtype": "float32"}}, {"name": "F_1_3/bias", "shape": [64], "dtype": "float32", "quantization": {"dtype": "uint8", "min": -0.06589769265230964, "scale": 0.00043353745165993185, "original_dtype": "float32"}}, {"name": "F_2_1/kernel", "shape": [3, 3, 64, 64], "dtype": "float32", "quantization": {"dtype": "uint8", "min": -0.21242612530203428, "scale": 0.0016092888280457142, "original_dtype": "float32"}}, {"name": "F_2_1/bias", "shape": [64], "dtype": "float32", "quantization": {"dtype": "uint8", "min": -0.07037760799421984, "scale": 0.0003704084631274728, "original_dtype": "float32"}}, {"name": "F_2_2/kernel", "shape": [3, 3, 128, 64], "dtype": "float32", "quantization": {"dtype": "uint8", "min": -0.27853041419795915, "scale": 0.0017969704141803816, "original_dtype": "float32"}}, {"name": "F_2_2/bias", "shape": [64], "dtype": "float32", "quantization": {"dtype": "uint8", "min": -0.06280032247304916, "scale": 0.00034696310758590697, "original_dtype": "float32"}}, {"name": "F_2_3/kernel", "shape": [3, 3, 192, 64], "dtype": "float32", "quantization": {"dtype": "uint8", "min": -0.40541799010015, "scale": 0.0025822801917207007, "original_dtype": "float32"}}, {"name": "F_2_3/bias", "shape": [64], "dtype": "float32", "quantization": {"dtype": "uint8", "min": -0.07813512610600275, "scale": 0.00042696790221859426, "original_dtype": "float32"}}, {"name": "F_3_1/kernel", "shape": [3, 3, 64, 64], "dtype": "float32", "quantization": {"dtype": "uint8", "min": -0.1917075263518913, "scale": 0.0015095080815109552, "original_dtype": "float32"}}, {"name": "F_3_1/bias", "shape": [64], "dtype": "float32", "quantization": {"dtype": "uint8", "min": -0.058974049181914796, "scale": 0.0003240332372632681, "original_dtype": "float32"}}, {"name": "F_3_2/kernel", "shape": [3, 3, 128, 64], "dtype": "float32", "quantization": {"dtype": "uint8", "min": -0.2554378999798906, "scale": 0.0019205857141345155, "original_dtype": "float32"}}, {"name": "F_3_2/bias", "shape": [64], "dtype": "float32", "quantization": {"dtype": "uint8", "min": -0.062282177243454785, "scale": 0.0002856980607497926, "original_dtype": "float32"}}, {"name": "F_3_3/kernel", "shape": [3, 3, 192, 64], "dtype": "float32", "quantization": {"dtype": "uint8", "min": -0.23945367336273193, "scale": 0.0017737309137980143, "original_dtype": "float32"}}, {"name": "F_3_3/bias", "shape": [64], "dtype": "float32", "quantization": {"dtype": "uint8", "min": -0.06348838217410387, "scale": 0.0002809220450181587, "original_dtype": "float32"}}, {"name": "F_4_1/kernel", "shape": [3, 3, 64, 64], "dtype": "float32", "quantization": {"dtype": "uint8", "min": -0.21925479436621947, "scale": 0.0019065634292714736, "original_dtype": "float32"}}, {"name": "F_4_1/bias", "shape": [64], "dtype": "float32", "quantization": {"dtype": "uint8", "min": -0.0785236238337615, "scale": 0.0003355710420246218, "original_dtype": "float32"}}, {"name": "F_4_2/kernel", "shape": [3, 3, 128, 64], "dtype": "float32", "quantization": {"dtype": "uint8", "min": -0.24372328847062352, "scale": 0.0017408806319330252, "original_dtype": "float32"}}, {"name": "F_4_2/bias", "shape": [64], "dtype": "float32", "quantization": {"dtype": "uint8", "min": -0.07084774613088252, "scale": 0.00034900367552158877, "original_dtype": "float32"}}, {"name": "F_4_3/kernel", "shape": [3, 3, 192, 64], "dtype": "float32", "quantization": {"dtype": "uint8", "min": -0.2602164234016456, "scale": 0.001899389951836829, "original_dtype": "float32"}}, {"name": "F_4_3/bias", "shape": [64], "dtype": "float32", "quantization": {"dtype": "uint8", "min": -0.06364847526830786, "scale": 0.00036163906402447645, "original_dtype": "float32"}}, {"name": "F_5_1/kernel", "shape": [3, 3, 64, 64], "dtype": "float32", "quantization": {"dtype": "uint8", "min": -0.20252065448200002, "scale": 0.001557851188323077, "original_dtype": "float32"}}, {"name": "F_5_1/bias", "shape": [64], "dtype": "float32", "quantization": {"dtype": "uint8", "min": -0.08914088966215358, "scale": 0.0004185018293997821, "original_dtype": "float32"}}, {"name": "F_5_2/kernel", "shape": [3, 3, 128, 64], "dtype": "float32", "quantization": {"dtype": "uint8", "min": -0.2506777006037095, "scale": 0.0018165050768384745, "original_dtype": "float32"}}, {"name": "F_5_2/bias", "shape": [64], "dtype": "float32", "quantization": {"dtype": "uint8", "min": -0.06539079200695543, "scale": 0.00032371679211364073, "original_dtype": "float32"}}, {"name": "F_5_3/kernel", "shape": [3, 3, 192, 64], "dtype": "float32", "quantization": {"dtype": "uint8", "min": -0.2848791506944918, "scale": 0.0019512270595513138, "original_dtype": "float32"}}, {"name": "F_5_3/bias", "shape": [64], "dtype": "float32", "quantization": {"dtype": "uint8", "min": -0.08209342252390057, "scale": 0.0004366671410845775, "original_dtype": "float32"}}, {"name": "F_6_1/kernel", "shape": [3, 3, 64, 64], "dtype": "float32", "quantization": {"dtype": "uint8", "min": -0.18433786385199602, "scale": 0.0016169988057192634, "original_dtype": "float32"}}, {"name": "F_6_1/bias", "shape": [64], "dtype": "float32", "quantization": {"dtype": "uint8", "min": -0.08150732578600155, "scale": 0.0003606518840088564, "original_dtype": "float32"}}, {"name": "F_6_2/kernel", "shape": [3, 3, 128, 64], "dtype": "float32", "quantization": {"dtype": "uint8", "min": -0.26301049134310556, "scale": 0.001905873125674678, "original_dtype": "float32"}}, {"name": "F_6_2/bias", "shape": [64], "dtype": "float32", "quantization": {"dtype": "uint8", "min": -0.06758118815281812, "scale": 0.000375451045293434, "original_dtype": "float32"}}, {"name": "F_6_3/kernel", "shape": [3, 3, 192, 64], "dtype": "float32", "quantization": {"dtype": "uint8", "min": -0.31934009393056234, "scale": 0.002100921670595805, "original_dtype": "float32"}}, {"name": "F_6_3/bias", "shape": [64], "dtype": "float32", "quantization": {"dtype": "uint8", "min": -0.10525902620717592, "scale": 0.0005370358479957955, "original_dtype": "float32"}}, {"name": "F_7_1/kernel", "shape": [3, 3, 64, 64], "dtype": "float32", "quantization": {"dtype": "uint8", "min": -0.19126953424191942, "scale": 0.0014942932362649955, "original_dtype": "float32"}}, {"name": "F_7_1/bias", "shape": [64], "dtype": "float32", "quantization": {"dtype": "uint8", "min": -0.05949860066175461, "scale": 0.00018165623951776354, "original_dtype": "float32"}}, {"name": "F_7_2/kernel", "shape": [3, 3, 128, 64], "dtype": "float32", "quantization": {"dtype": "uint8", "min": -0.295020905195498, "scale": 0.00191572016360713, "original_dtype": "float32"}}, {"name": "F_7_2/bias", "shape": [64], "dtype": "float32", "quantization": {"dtype": "uint8", "min": -0.06077232080347398, "scale": 0.0003798270050217124, "original_dtype": "float32"}}, {"name": "F_7_3/kernel", "shape": [3, 3, 192, 64], "dtype": "float32", "quantization": {"dtype": "uint8", "min": -0.3474731957211214, "scale": 0.0022563194527345544, "original_dtype": "float32"}}, {"name": "F_7_3/bias", "shape": [64], "dtype": "float32", "quantization": {"dtype": "uint8", "min": -0.06559798989225836, "scale": 0.000404925863532459, "original_dtype": "float32"}}, {"name": "F_8_1/kernel", "shape": [3, 3, 64, 64], "dtype": "float32", "quantization": {"dtype": "uint8", "min": -0.19446508533814374, "scale": 0.0014844663002911737, "original_dtype": "float32"}}, {"name": "F_8_1/bias", "shape": [64], "dtype": "float32", "quantization": {"dtype": "uint8", "min": -0.09045159816741943, "scale": 0.00035466027760526676, "original_dtype": "float32"}}, {"name": "F_8_2/kernel", "shape": [3, 3, 128, 64], "dtype": "float32", "quantization": {"dtype": "uint8", "min": -0.2507841218920315, "scale": 0.001830541035708259, "original_dtype": "float32"}}, {"name": "F_8_2/bias", "shape": [64], "dtype": "float32", "quantization": {"dtype": "uint8", "min": -0.07526824822028479, "scale": 0.0004025040011779935, "original_dtype": "float32"}}, {"name": "F_8_3/kernel", "shape": [3, 3, 192, 64], "dtype": "float32", "quantization": {"dtype": "uint8", "min": -0.2540521364586026, "scale": 0.001954247203527712, "original_dtype": "float32"}}, {"name": "F_8_3/bias", "shape": [64], "dtype": "float32", "quantization": {"dtype": "uint8", "min": -0.06062032971896377, "scale": 0.0004095968224254309, "original_dtype": "float32"}}, {"name": "F_9_1/kernel", "shape": [3, 3, 64, 64], "dtype": "float32", "quantization": {"dtype": "uint8", "min": -0.20053767199609793, "scale": 0.0016573361321991565, "original_dtype": "float32"}}, {"name": "F_9_1/bias", "shape": [64], "dtype": "float32", "quantization": {"dtype": "uint8", "min": -0.07997392117977142, "scale": 0.00029484466558285787, "original_dtype": "float32"}}, {"name": "F_9_2/kernel", "shape": [3, 3, 128, 64], "dtype": "float32", "quantization": {"dtype": "uint8", "min": -0.2661054723403033, "scale": 0.0018872728534773285, "original_dtype": "float32"}}, {"name": "F_9_2/bias", "shape": [64], "dtype": "float32", "quantization": {"dtype": "uint8", "min": -0.06325158500203899, "scale": 0.00041612884869762497, "original_dtype": "float32"}}, {"name": "F_9_3/kernel", "shape": [3, 3, 192, 64], "dtype": "float32", "quantization": {"dtype": "uint8", "min": -0.2802126302438624, "scale": 0.002030526306114945, "original_dtype": "float32"}}, {"name": "F_9_3/bias", "shape": [64], "dtype": "float32", "quantization": {"dtype": "uint8", "min": -0.06702773470212431, "scale": 0.0004965017385342541, "original_dtype": "float32"}}, {"name": "F_m1/kernel", "shape": [3, 3, 3, 64], "dtype": "float32", "quantization": {"dtype": "uint8", "min": -0.11320141726264767, "scale": 0.0008913497422255722, "original_dtype": "float32"}}, {"name": "F_m1/bias", "shape": [64], "dtype": "float32", "quantization": {"dtype": "uint8", "min": -0.05935129870971044, "scale": 0.0004530633489290873, "original_dtype": "float32"}}, {"name": "GFF_1/kernel", "shape": [1, 1, 640, 64], "dtype": "float32", "quantization": {"dtype": "uint8", "min": -0.10124280400135938, "scale": 0.0008653231111227297, "original_dtype": "float32"}}, {"name": "GFF_1/bias", "shape": [64], "dtype": "float32", "quantization": {"dtype": "uint8", "min": -0.017622579378532427, "scale": 0.00014564115188869776, "original_dtype": "float32"}}, {"name": "GFF_2/kernel", "shape": [3, 3, 64, 64], "dtype": "float32", "quantization": {"dtype": "uint8", "min": -0.12061754047286277, "scale": 0.0008804200034515531, "original_dtype": "float32"}}, {"name": "GFF_2/bias", "shape": [64], "dtype": "float32", "quantization": {"dtype": "uint8", "min": -0.04479893340783961, "scale": 0.0003318439511691823, "original_dtype": "float32"}}, {"name": "LFF_1/kernel", "shape": [1, 1, 256, 64], "dtype": "float32", "quantization": {"dtype": "uint8", "min": -0.3500533510656918, "scale": 0.0021475665709551643, "original_dtype": "float32"}}, {"name": "LFF_1/bias", "shape": [64], "dtype": "float32", "quantization": {"dtype": "uint8", "min": -0.02349117603518215, "scale": 0.00016427395828798707, "original_dtype": "float32"}}, {"name": "LFF_10/kernel", "shape": [1, 1, 256, 64], "dtype": "float32", "quantization": {"dtype": "uint8", "min": -0.18774381104637594, "scale": 0.0015645317587197995, "original_dtype": "float32"}}, {"name": "LFF_10/bias", "shape": [64], "dtype": "float32", "quantization": {"dtype": "uint8", "min": -0.02388986097831352, "scale": 0.00018376816137164245, "original_dtype": "float32"}}, {"name": "LFF_2/kernel", "shape": [1, 1, 256, 64], "dtype": "float32", "quantization": {"dtype": "uint8", "min": -0.32132186842899696, "scale": 0.0018681503978430056, "original_dtype": "float32"}}, {"name": "LFF_2/bias", "shape": [64], "dtype": "float32", "quantization": {"dtype": "uint8", "min": -0.020268069952726366, "scale": 0.00013247104544265599, "original_dtype": "float32"}}, {"name": "LFF_3/kernel", "shape": [1, 1, 256, 64], "dtype": "float32", "quantization": {"dtype": "uint8", "min": -0.3017315222936518, "scale": 0.0017340892085842058, "original_dtype": "float32"}}, {"name": "LFF_3/bias", "shape": [64], "dtype": "float32", "quantization": {"dtype": "uint8", "min": -0.019390753678539218, "scale": 0.00013281338135985766, "original_dtype": "float32"}}, {"name": "LFF_4/kernel", "shape": [1, 1, 256, 64], "dtype": "float32", "quantization": {"dtype": "uint8", "min": -0.28047887951719996, "scale": 0.001845255786297368, "original_dtype": "float32"}}, {"name": "LFF_4/bias", "shape": [64], "dtype": "float32", "quantization": {"dtype": "uint8", "min": -0.0109192683708434, "scale": 7.799477407745287e-05, "original_dtype": "float32"}}, {"name": "LFF_5/kernel", "shape": [1, 1, 256, 64], "dtype": "float32", "quantization": {"dtype": "uint8", "min": -0.2774578392505646, "scale": 0.0017127027114232382, "original_dtype": "float32"}}, {"name": "LFF_5/bias", "shape": [64], "dtype": "float32", "quantization": {"dtype": "uint8", "min": -0.008438220335280194, "scale": 8.610428913551218e-05, "original_dtype": "float32"}}, {"name": "LFF_6/kernel", "shape": [1, 1, 256, 64], "dtype": "float32", "quantization": {"dtype": "uint8", "min": -0.274498808909865, "scale": 0.001893095233861138, "original_dtype": "float32"}}, {"name": "LFF_6/bias", "shape": [64], "dtype": "float32", "quantization": {"dtype": "uint8", "min": -0.0109270093305146, "scale": 0.00010024779202306972, "original_dtype": "float32"}}, {"name": "LFF_7/kernel", "shape": [1, 1, 256, 64], "dtype": "float32", "quantization": {"dtype": "uint8", "min": -0.2430107108518189, "scale": 0.001675935936909096, "original_dtype": "float32"}}, {"name": "LFF_7/bias", "shape": [64], "dtype": "float32", "quantization": {"dtype": "uint8", "min": -0.014610183501944821, "scale": 0.00010587089494162915, "original_dtype": "float32"}}, {"name": "LFF_8/kernel", "shape": [1, 1, 256, 64], "dtype": "float32", "quantization": {"dtype": "uint8", "min": -0.21116527091054355, "scale": 0.0015191746108672197, "original_dtype": "float32"}}, {"name": "LFF_8/bias", "shape": [64], "dtype": "float32", "quantization": {"dtype": "uint8", "min": -0.01765189726709151, "scale": 0.00013474730738237794, "original_dtype": "float32"}}, {"name": "LFF_9/kernel", "shape": [1, 1, 256, 64], "dtype": "float32", "quantization": {"dtype": "uint8", "min": -0.16786473638871136, "scale": 0.001342917891109691, "original_dtype": "float32"}}, {"name": "LFF_9/bias", "shape": [64], "dtype": "float32", "quantization": {"dtype": "uint8", "min": -0.024047235268003803, "scale": 0.00021664175917120542, "original_dtype": "float32"}}, {"name": "SR/kernel", "shape": [3, 3, 27, 3], "dtype": "float32", "quantization": {"dtype": "uint8", "min": -0.08609043885679805, "scale": 0.000683257451244429, "original_dtype": "float32"}}, {"name": "SR/bias", "shape": [3], "dtype": "float32", "quantization": {"dtype": "uint8", "min": 0.04952380061149597, "scale": 4.541764364523046e-05, "original_dtype": "float32"}}, {"name": "UPN1/kernel", "shape": [5, 5, 64, 64], "dtype": "float32", "quantization": {"dtype": "uint8", "min": -0.221222988764445, "scale": 0.0016266396232679778, "original_dtype": "float32"}}, {"name": "UPN1/bias", "shape": [64], "dtype": "float32", "quantization": {"dtype": "uint8", "min": -0.05220408240954081, "scale": 0.0005220408240954081, "original_dtype": "float32"}}, {"name": "UPN2/kernel", "shape": [3, 3, 64, 32], "dtype": "float32", "quantization": {"dtype": "uint8", "min": -0.30018342861942215, "scale": 0.0019492430429832609, "original_dtype": "float32"}}, {"name": "UPN2/bias", "shape": [32], "dtype": "float32", "quantization": {"dtype": "uint8", "min": -0.01835348259146307, "scale": 0.0003462921243672277, "original_dtype": "float32"}}, {"name": "UPN3/kernel", "shape": [3, 3, 32, 27], "dtype": "float32", "quantization": {"dtype": "uint8", "min": -0.1519465384530086, "scale": 0.0013446596323275098, "original_dtype": "float32"}}, {"name": "UPN3/bias", "shape": [27], "dtype": "float32", "quantization": {"dtype": "uint8", "min": -0.2839422646106458, "scale": 0.0013393503047671972, "original_dtype": "float32"}}]}]}