{"format": "layers-model", "generatedBy": "keras v2.4.0", "convertedBy": "TensorFlow.js Converter v2.0.1.post1", "modelTopology": {"keras_version": "2.4.0", "backend": "tensorflow", "model_config": {"class_name": "Model", "config": {"name": "generator", "layers": [{"class_name": "InputLayer", "config": {"batch_input_shape": [null, null, null, 3], "dtype": "float32", "sparse": false, "ragged": false, "name": "LR"}, "name": "LR", "inbound_nodes": []}, {"class_name": "Conv2D", "config": {"name": "F_m1", "trainable": true, "dtype": "float32", "filters": 64, "kernel_size": [3, 3], "strides": [1, 1], "padding": "same", "data_format": "channels_last", "dilation_rate": [1, 1], "groups": 1, "activation": "linear", "use_bias": true, "kernel_initializer": {"class_name": "RandomUniform", "config": {"minval": -0.05, "maxval": 0.05, "seed": null}}, "bias_initializer": {"class_name": "Zeros", "config": {}}, "kernel_regularizer": null, "bias_regularizer": null, "activity_regularizer": null, "kernel_constraint": null, "bias_constraint": null}, "name": "F_m1", "inbound_nodes": [[["LR", 0, 0, {}]]]}, {"class_name": "Conv2D", "config": {"name": "F_0", "trainable": true, "dtype": "float32", "filters": 64, "kernel_size": [3, 3], "strides": [1, 1], "padding": "same", "data_format": "channels_last", "dilation_rate": [1, 1], "groups": 1, "activation": "linear", "use_bias": true, "kernel_initializer": {"class_name": "RandomUniform", "config": {"minval": -0.05, "maxval": 0.05, "seed": null}}, "bias_initializer": {"class_name": "Zeros", "config": {}}, "kernel_regularizer": null, "bias_regularizer": null, "activity_regularizer": null, "kernel_constraint": null, "bias_constraint": null}, "name": "F_0", "inbound_nodes": [[["F_m1", 0, 0, {}]]]}, {"class_name": "Conv2D", "config": {"name": "F_1_1", "trainable": true, "dtype": "float32", "filters": 64, "kernel_size": [3, 3], "strides": [1, 1], "padding": "same", "data_format": "channels_last", "dilation_rate": [1, 1], "groups": 1, "activation": "linear", "use_bias": true, "kernel_initializer": {"class_name": "RandomUniform", "config": {"minval": -0.05, "maxval": 0.05, "seed": null}}, "bias_initializer": {"class_name": "Zeros", "config": {}}, "kernel_regularizer": null, "bias_regularizer": null, "activity_regularizer": null, "kernel_constraint": null, "bias_constraint": null}, "name": "F_1_1", "inbound_nodes": [[["F_0", 0, 0, {}]]]}, {"class_name": "Activation", "config": {"name": "F_1_1_Relu", "trainable": true, "dtype": "float32", "activation": "relu"}, "name": "F_1_1_Relu", "inbound_nodes": [[["F_1_1", 0, 0, {}]]]}, {"class_name": "Concatenate", "config": {"name": "RDB_Concat_1_1", "trainable": true, "dtype": "float32", "axis": 3}, "name": "RDB_Concat_1_1", "inbound_nodes": [[["F_0", 0, 0, {}], ["F_1_1_Relu", 0, 0, {}]]]}, {"class_name": "Conv2D", "config": {"name": "F_1_2", "trainable": true, "dtype": "float32", "filters": 64, "kernel_size": [3, 3], "strides": [1, 1], "padding": "same", "data_format": "channels_last", "dilation_rate": [1, 1], "groups": 1, "activation": "linear", "use_bias": true, "kernel_initializer": {"class_name": "RandomUniform", "config": {"minval": -0.05, "maxval": 0.05, "seed": null}}, "bias_initializer": {"class_name": "Zeros", "config": {}}, "kernel_regularizer": null, "bias_regularizer": null, "activity_regularizer": null, "kernel_constraint": null, "bias_constraint": null}, "name": "F_1_2", "inbound_nodes": [[["RDB_Concat_1_1", 0, 0, {}]]]}, {"class_name": "Activation", "config": {"name": "F_1_2_Relu", "trainable": true, "dtype": "float32", "activation": "relu"}, "name": "F_1_2_Relu", "inbound_nodes": [[["F_1_2", 0, 0, {}]]]}, {"class_name": "Concatenate", "config": {"name": "RDB_Concat_1_2", "trainable": true, "dtype": "float32", "axis": 3}, "name": "RDB_Concat_1_2", "inbound_nodes": [[["RDB_Concat_1_1", 0, 0, {}], ["F_1_2_Relu", 0, 0, {}]]]}, {"class_name": "Conv2D", "config": {"name": "F_1_3", "trainable": true, "dtype": "float32", "filters": 64, "kernel_size": [3, 3], "strides": [1, 1], "padding": "same", "data_format": "channels_last", "dilation_rate": [1, 1], "groups": 1, "activation": "linear", "use_bias": true, "kernel_initializer": {"class_name": "RandomUniform", "config": {"minval": -0.05, "maxval": 0.05, "seed": null}}, "bias_initializer": {"class_name": "Zeros", "config": {}}, "kernel_regularizer": null, "bias_regularizer": null, "activity_regularizer": null, "kernel_constraint": null, "bias_constraint": null}, "name": "F_1_3", "inbound_nodes": [[["RDB_Concat_1_2", 0, 0, {}]]]}, {"class_name": "Activation", "config": {"name": "F_1_3_Relu", "trainable": true, "dtype": "float32", "activation": "relu"}, "name": "F_1_3_Relu", "inbound_nodes": [[["F_1_3", 0, 0, {}]]]}, {"class_name": "Concatenate", "config": {"name": "RDB_Concat_1_3", "trainable": true, "dtype": "float32", "axis": 3}, "name": "RDB_Concat_1_3", "inbound_nodes": [[["RDB_Concat_1_2", 0, 0, {}], ["F_1_3_Relu", 0, 0, {}]]]}, {"class_name": "Conv2D", "config": {"name": "LFF_1", "trainable": true, "dtype": "float32", "filters": 64, "kernel_size": [1, 1], "strides": [1, 1], "padding": "valid", "data_format": "channels_last", "dilation_rate": [1, 1], "groups": 1, "activation": "linear", "use_bias": true, "kernel_initializer": {"class_name": "RandomUniform", "config": {"minval": -0.05, "maxval": 0.05, "seed": null}}, "bias_initializer": {"class_name": "Zeros", "config": {}}, "kernel_regularizer": null, "bias_regularizer": null, "activity_regularizer": null, "kernel_constraint": null, "bias_constraint": null}, "name": "LFF_1", "inbound_nodes": [[["RDB_Concat_1_3", 0, 0, {}]]]}, {"class_name": "Add", "config": {"name": "LRL_1", "trainable": true, "dtype": "float32"}, "name": "LRL_1", "inbound_nodes": [[["LFF_1", 0, 0, {}], ["F_0", 0, 0, {}]]]}, {"class_name": "Conv2D", "config": {"name": "F_2_1", "trainable": true, "dtype": "float32", "filters": 64, "kernel_size": [3, 3], "strides": [1, 1], "padding": "same", "data_format": "channels_last", "dilation_rate": [1, 1], "groups": 1, "activation": "linear", "use_bias": true, "kernel_initializer": {"class_name": "RandomUniform", "config": {"minval": -0.05, "maxval": 0.05, "seed": null}}, "bias_initializer": {"class_name": "Zeros", "config": {}}, "kernel_regularizer": null, "bias_regularizer": null, "activity_regularizer": null, "kernel_constraint": null, "bias_constraint": null}, "name": "F_2_1", "inbound_nodes": [[["LRL_1", 0, 0, {}]]]}, {"class_name": "Activation", "config": {"name": "F_2_1_Relu", "trainable": true, "dtype": "float32", "activation": "relu"}, "name": "F_2_1_Relu", "inbound_nodes": [[["F_2_1", 0, 0, {}]]]}, {"class_name": "Concatenate", "config": {"name": "RDB_Concat_2_1", "trainable": true, "dtype": "float32", "axis": 3}, "name": "RDB_Concat_2_1", "inbound_nodes": [[["LRL_1", 0, 0, {}], ["F_2_1_Relu", 0, 0, {}]]]}, {"class_name": "Conv2D", "config": {"name": "F_2_2", "trainable": true, "dtype": "float32", "filters": 64, "kernel_size": [3, 3], "strides": [1, 1], "padding": "same", "data_format": "channels_last", "dilation_rate": [1, 1], "groups": 1, "activation": "linear", "use_bias": true, "kernel_initializer": {"class_name": "RandomUniform", "config": {"minval": -0.05, "maxval": 0.05, "seed": null}}, "bias_initializer": {"class_name": "Zeros", "config": {}}, "kernel_regularizer": null, "bias_regularizer": null, "activity_regularizer": null, "kernel_constraint": null, "bias_constraint": null}, "name": "F_2_2", "inbound_nodes": [[["RDB_Concat_2_1", 0, 0, {}]]]}, {"class_name": "Activation", "config": {"name": "F_2_2_Relu", "trainable": true, "dtype": "float32", "activation": "relu"}, "name": "F_2_2_Relu", "inbound_nodes": [[["F_2_2", 0, 0, {}]]]}, {"class_name": "Concatenate", "config": {"name": "RDB_Concat_2_2", "trainable": true, "dtype": "float32", "axis": 3}, "name": "RDB_Concat_2_2", "inbound_nodes": [[["RDB_Concat_2_1", 0, 0, {}], ["F_2_2_Relu", 0, 0, {}]]]}, {"class_name": "Conv2D", "config": {"name": "F_2_3", "trainable": true, "dtype": "float32", "filters": 64, "kernel_size": [3, 3], "strides": [1, 1], "padding": "same", "data_format": "channels_last", "dilation_rate": [1, 1], "groups": 1, "activation": "linear", "use_bias": true, "kernel_initializer": {"class_name": "RandomUniform", "config": {"minval": -0.05, "maxval": 0.05, "seed": null}}, "bias_initializer": {"class_name": "Zeros", "config": {}}, "kernel_regularizer": null, "bias_regularizer": null, "activity_regularizer": null, "kernel_constraint": null, "bias_constraint": null}, "name": "F_2_3", "inbound_nodes": [[["RDB_Concat_2_2", 0, 0, {}]]]}, {"class_name": "Activation", "config": {"name": "F_2_3_Relu", "trainable": true, "dtype": "float32", "activation": "relu"}, "name": "F_2_3_Relu", "inbound_nodes": [[["F_2_3", 0, 0, {}]]]}, {"class_name": "Concatenate", "config": {"name": "RDB_Concat_2_3", "trainable": true, "dtype": "float32", "axis": 3}, "name": "RDB_Concat_2_3", "inbound_nodes": [[["RDB_Concat_2_2", 0, 0, {}], ["F_2_3_Relu", 0, 0, {}]]]}, {"class_name": "Conv2D", "config": {"name": "LFF_2", "trainable": true, "dtype": "float32", "filters": 64, "kernel_size": [1, 1], "strides": [1, 1], "padding": "valid", "data_format": "channels_last", "dilation_rate": [1, 1], "groups": 1, "activation": "linear", "use_bias": true, "kernel_initializer": {"class_name": "RandomUniform", "config": {"minval": -0.05, "maxval": 0.05, "seed": null}}, "bias_initializer": {"class_name": "Zeros", "config": {}}, "kernel_regularizer": null, "bias_regularizer": null, "activity_regularizer": null, "kernel_constraint": null, "bias_constraint": null}, "name": "LFF_2", "inbound_nodes": [[["RDB_Concat_2_3", 0, 0, {}]]]}, {"class_name": "Add", "config": {"name": "LRL_2", "trainable": true, "dtype": "float32"}, "name": "LRL_2", "inbound_nodes": [[["LFF_2", 0, 0, {}], ["LRL_1", 0, 0, {}]]]}, {"class_name": "Conv2D", "config": {"name": "F_3_1", "trainable": true, "dtype": "float32", "filters": 64, "kernel_size": [3, 3], "strides": [1, 1], "padding": "same", "data_format": "channels_last", "dilation_rate": [1, 1], "groups": 1, "activation": "linear", "use_bias": true, "kernel_initializer": {"class_name": "RandomUniform", "config": {"minval": -0.05, "maxval": 0.05, "seed": null}}, "bias_initializer": {"class_name": "Zeros", "config": {}}, "kernel_regularizer": null, "bias_regularizer": null, "activity_regularizer": null, "kernel_constraint": null, "bias_constraint": null}, "name": "F_3_1", "inbound_nodes": [[["LRL_2", 0, 0, {}]]]}, {"class_name": "Activation", "config": {"name": "F_3_1_Relu", "trainable": true, "dtype": "float32", "activation": "relu"}, "name": "F_3_1_Relu", "inbound_nodes": [[["F_3_1", 0, 0, {}]]]}, {"class_name": "Concatenate", "config": {"name": "RDB_Concat_3_1", "trainable": true, "dtype": "float32", "axis": 3}, "name": "RDB_Concat_3_1", "inbound_nodes": [[["LRL_2", 0, 0, {}], ["F_3_1_Relu", 0, 0, {}]]]}, {"class_name": "Conv2D", "config": {"name": "F_3_2", "trainable": true, "dtype": "float32", "filters": 64, "kernel_size": [3, 3], "strides": [1, 1], "padding": "same", "data_format": "channels_last", "dilation_rate": [1, 1], "groups": 1, "activation": "linear", "use_bias": true, "kernel_initializer": {"class_name": "RandomUniform", "config": {"minval": -0.05, "maxval": 0.05, "seed": null}}, "bias_initializer": {"class_name": "Zeros", "config": {}}, "kernel_regularizer": null, "bias_regularizer": null, "activity_regularizer": null, "kernel_constraint": null, "bias_constraint": null}, "name": "F_3_2", "inbound_nodes": [[["RDB_Concat_3_1", 0, 0, {}]]]}, {"class_name": "Activation", "config": {"name": "F_3_2_Relu", "trainable": true, "dtype": "float32", "activation": "relu"}, "name": "F_3_2_Relu", "inbound_nodes": [[["F_3_2", 0, 0, {}]]]}, {"class_name": "Concatenate", "config": {"name": "RDB_Concat_3_2", "trainable": true, "dtype": "float32", "axis": 3}, "name": "RDB_Concat_3_2", "inbound_nodes": [[["RDB_Concat_3_1", 0, 0, {}], ["F_3_2_Relu", 0, 0, {}]]]}, {"class_name": "Conv2D", "config": {"name": "F_3_3", "trainable": true, "dtype": "float32", "filters": 64, "kernel_size": [3, 3], "strides": [1, 1], "padding": "same", "data_format": "channels_last", "dilation_rate": [1, 1], "groups": 1, "activation": "linear", "use_bias": true, "kernel_initializer": {"class_name": "RandomUniform", "config": {"minval": -0.05, "maxval": 0.05, "seed": null}}, "bias_initializer": {"class_name": "Zeros", "config": {}}, "kernel_regularizer": null, "bias_regularizer": null, "activity_regularizer": null, "kernel_constraint": null, "bias_constraint": null}, "name": "F_3_3", "inbound_nodes": [[["RDB_Concat_3_2", 0, 0, {}]]]}, {"class_name": "Activation", "config": {"name": "F_3_3_Relu", "trainable": true, "dtype": "float32", "activation": "relu"}, "name": "F_3_3_Relu", "inbound_nodes": [[["F_3_3", 0, 0, {}]]]}, {"class_name": "Concatenate", "config": {"name": "RDB_Concat_3_3", "trainable": true, "dtype": "float32", "axis": 3}, "name": "RDB_Concat_3_3", "inbound_nodes": [[["RDB_Concat_3_2", 0, 0, {}], ["F_3_3_Relu", 0, 0, {}]]]}, {"class_name": "Conv2D", "config": {"name": "LFF_3", "trainable": true, "dtype": "float32", "filters": 64, "kernel_size": [1, 1], "strides": [1, 1], "padding": "valid", "data_format": "channels_last", "dilation_rate": [1, 1], "groups": 1, "activation": "linear", "use_bias": true, "kernel_initializer": {"class_name": "RandomUniform", "config": {"minval": -0.05, "maxval": 0.05, "seed": null}}, "bias_initializer": {"class_name": "Zeros", "config": {}}, "kernel_regularizer": null, "bias_regularizer": null, "activity_regularizer": null, "kernel_constraint": null, "bias_constraint": null}, "name": "LFF_3", "inbound_nodes": [[["RDB_Concat_3_3", 0, 0, {}]]]}, {"class_name": "Add", "config": {"name": "LRL_3", "trainable": true, "dtype": "float32"}, "name": "LRL_3", "inbound_nodes": [[["LFF_3", 0, 0, {}], ["LRL_2", 0, 0, {}]]]}, {"class_name": "Conv2D", "config": {"name": "F_4_1", "trainable": true, "dtype": "float32", "filters": 64, "kernel_size": [3, 3], "strides": [1, 1], "padding": "same", "data_format": "channels_last", "dilation_rate": [1, 1], "groups": 1, "activation": "linear", "use_bias": true, "kernel_initializer": {"class_name": "RandomUniform", "config": {"minval": -0.05, "maxval": 0.05, "seed": null}}, "bias_initializer": {"class_name": "Zeros", "config": {}}, "kernel_regularizer": null, "bias_regularizer": null, "activity_regularizer": null, "kernel_constraint": null, "bias_constraint": null}, "name": "F_4_1", "inbound_nodes": [[["LRL_3", 0, 0, {}]]]}, {"class_name": "Activation", "config": {"name": "F_4_1_Relu", "trainable": true, "dtype": "float32", "activation": "relu"}, "name": "F_4_1_Relu", "inbound_nodes": [[["F_4_1", 0, 0, {}]]]}, {"class_name": "Concatenate", "config": {"name": "RDB_Concat_4_1", "trainable": true, "dtype": "float32", "axis": 3}, "name": "RDB_Concat_4_1", "inbound_nodes": [[["LRL_3", 0, 0, {}], ["F_4_1_Relu", 0, 0, {}]]]}, {"class_name": "Conv2D", "config": {"name": "F_4_2", "trainable": true, "dtype": "float32", "filters": 64, "kernel_size": [3, 3], "strides": [1, 1], "padding": "same", "data_format": "channels_last", "dilation_rate": [1, 1], "groups": 1, "activation": "linear", "use_bias": true, "kernel_initializer": {"class_name": "RandomUniform", "config": {"minval": -0.05, "maxval": 0.05, "seed": null}}, "bias_initializer": {"class_name": "Zeros", "config": {}}, "kernel_regularizer": null, "bias_regularizer": null, "activity_regularizer": null, "kernel_constraint": null, "bias_constraint": null}, "name": "F_4_2", "inbound_nodes": [[["RDB_Concat_4_1", 0, 0, {}]]]}, {"class_name": "Activation", "config": {"name": "F_4_2_Relu", "trainable": true, "dtype": "float32", "activation": "relu"}, "name": "F_4_2_Relu", "inbound_nodes": [[["F_4_2", 0, 0, {}]]]}, {"class_name": "Concatenate", "config": {"name": "RDB_Concat_4_2", "trainable": true, "dtype": "float32", "axis": 3}, "name": "RDB_Concat_4_2", "inbound_nodes": [[["RDB_Concat_4_1", 0, 0, {}], ["F_4_2_Relu", 0, 0, {}]]]}, {"class_name": "Conv2D", "config": {"name": "F_4_3", "trainable": true, "dtype": "float32", "filters": 64, "kernel_size": [3, 3], "strides": [1, 1], "padding": "same", "data_format": "channels_last", "dilation_rate": [1, 1], "groups": 1, "activation": "linear", "use_bias": true, "kernel_initializer": {"class_name": "RandomUniform", "config": {"minval": -0.05, "maxval": 0.05, "seed": null}}, "bias_initializer": {"class_name": "Zeros", "config": {}}, "kernel_regularizer": null, "bias_regularizer": null, "activity_regularizer": null, "kernel_constraint": null, "bias_constraint": null}, "name": "F_4_3", "inbound_nodes": [[["RDB_Concat_4_2", 0, 0, {}]]]}, {"class_name": "Activation", "config": {"name": "F_4_3_Relu", "trainable": true, "dtype": "float32", "activation": "relu"}, "name": "F_4_3_Relu", "inbound_nodes": [[["F_4_3", 0, 0, {}]]]}, {"class_name": "Concatenate", "config": {"name": "RDB_Concat_4_3", "trainable": true, "dtype": "float32", "axis": 3}, "name": "RDB_Concat_4_3", "inbound_nodes": [[["RDB_Concat_4_2", 0, 0, {}], ["F_4_3_Relu", 0, 0, {}]]]}, {"class_name": "Conv2D", "config": {"name": "LFF_4", "trainable": true, "dtype": "float32", "filters": 64, "kernel_size": [1, 1], "strides": [1, 1], "padding": "valid", "data_format": "channels_last", "dilation_rate": [1, 1], "groups": 1, "activation": "linear", "use_bias": true, "kernel_initializer": {"class_name": "RandomUniform", "config": {"minval": -0.05, "maxval": 0.05, "seed": null}}, "bias_initializer": {"class_name": "Zeros", "config": {}}, "kernel_regularizer": null, "bias_regularizer": null, "activity_regularizer": null, "kernel_constraint": null, "bias_constraint": null}, "name": "LFF_4", "inbound_nodes": [[["RDB_Concat_4_3", 0, 0, {}]]]}, {"class_name": "Add", "config": {"name": "LRL_4", "trainable": true, "dtype": "float32"}, "name": "LRL_4", "inbound_nodes": [[["LFF_4", 0, 0, {}], ["LRL_3", 0, 0, {}]]]}, {"class_name": "Conv2D", "config": {"name": "F_5_1", "trainable": true, "dtype": "float32", "filters": 64, "kernel_size": [3, 3], "strides": [1, 1], "padding": "same", "data_format": "channels_last", "dilation_rate": [1, 1], "groups": 1, "activation": "linear", "use_bias": true, "kernel_initializer": {"class_name": "RandomUniform", "config": {"minval": -0.05, "maxval": 0.05, "seed": null}}, "bias_initializer": {"class_name": "Zeros", "config": {}}, "kernel_regularizer": null, "bias_regularizer": null, "activity_regularizer": null, "kernel_constraint": null, "bias_constraint": null}, "name": "F_5_1", "inbound_nodes": [[["LRL_4", 0, 0, {}]]]}, {"class_name": "Activation", "config": {"name": "F_5_1_Relu", "trainable": true, "dtype": "float32", "activation": "relu"}, "name": "F_5_1_Relu", "inbound_nodes": [[["F_5_1", 0, 0, {}]]]}, {"class_name": "Concatenate", "config": {"name": "RDB_Concat_5_1", "trainable": true, "dtype": "float32", "axis": 3}, "name": "RDB_Concat_5_1", "inbound_nodes": [[["LRL_4", 0, 0, {}], ["F_5_1_Relu", 0, 0, {}]]]}, {"class_name": "Conv2D", "config": {"name": "F_5_2", "trainable": true, "dtype": "float32", "filters": 64, "kernel_size": [3, 3], "strides": [1, 1], "padding": "same", "data_format": "channels_last", "dilation_rate": [1, 1], "groups": 1, "activation": "linear", "use_bias": true, "kernel_initializer": {"class_name": "RandomUniform", "config": {"minval": -0.05, "maxval": 0.05, "seed": null}}, "bias_initializer": {"class_name": "Zeros", "config": {}}, "kernel_regularizer": null, "bias_regularizer": null, "activity_regularizer": null, "kernel_constraint": null, "bias_constraint": null}, "name": "F_5_2", "inbound_nodes": [[["RDB_Concat_5_1", 0, 0, {}]]]}, {"class_name": "Activation", "config": {"name": "F_5_2_Relu", "trainable": true, "dtype": "float32", "activation": "relu"}, "name": "F_5_2_Relu", "inbound_nodes": [[["F_5_2", 0, 0, {}]]]}, {"class_name": "Concatenate", "config": {"name": "RDB_Concat_5_2", "trainable": true, "dtype": "float32", "axis": 3}, "name": "RDB_Concat_5_2", "inbound_nodes": [[["RDB_Concat_5_1", 0, 0, {}], ["F_5_2_Relu", 0, 0, {}]]]}, {"class_name": "Conv2D", "config": {"name": "F_5_3", "trainable": true, "dtype": "float32", "filters": 64, "kernel_size": [3, 3], "strides": [1, 1], "padding": "same", "data_format": "channels_last", "dilation_rate": [1, 1], "groups": 1, "activation": "linear", "use_bias": true, "kernel_initializer": {"class_name": "RandomUniform", "config": {"minval": -0.05, "maxval": 0.05, "seed": null}}, "bias_initializer": {"class_name": "Zeros", "config": {}}, "kernel_regularizer": null, "bias_regularizer": null, "activity_regularizer": null, "kernel_constraint": null, "bias_constraint": null}, "name": "F_5_3", "inbound_nodes": [[["RDB_Concat_5_2", 0, 0, {}]]]}, {"class_name": "Activation", "config": {"name": "F_5_3_Relu", "trainable": true, "dtype": "float32", "activation": "relu"}, "name": "F_5_3_Relu", "inbound_nodes": [[["F_5_3", 0, 0, {}]]]}, {"class_name": "Concatenate", "config": {"name": "RDB_Concat_5_3", "trainable": true, "dtype": "float32", "axis": 3}, "name": "RDB_Concat_5_3", "inbound_nodes": [[["RDB_Concat_5_2", 0, 0, {}], ["F_5_3_Relu", 0, 0, {}]]]}, {"class_name": "Conv2D", "config": {"name": "LFF_5", "trainable": true, "dtype": "float32", "filters": 64, "kernel_size": [1, 1], "strides": [1, 1], "padding": "valid", "data_format": "channels_last", "dilation_rate": [1, 1], "groups": 1, "activation": "linear", "use_bias": true, "kernel_initializer": {"class_name": "RandomUniform", "config": {"minval": -0.05, "maxval": 0.05, "seed": null}}, "bias_initializer": {"class_name": "Zeros", "config": {}}, "kernel_regularizer": null, "bias_regularizer": null, "activity_regularizer": null, "kernel_constraint": null, "bias_constraint": null}, "name": "LFF_5", "inbound_nodes": [[["RDB_Concat_5_3", 0, 0, {}]]]}, {"class_name": "Add", "config": {"name": "LRL_5", "trainable": true, "dtype": "float32"}, "name": "LRL_5", "inbound_nodes": [[["LFF_5", 0, 0, {}], ["LRL_4", 0, 0, {}]]]}, {"class_name": "Conv2D", "config": {"name": "F_6_1", "trainable": true, "dtype": "float32", "filters": 64, "kernel_size": [3, 3], "strides": [1, 1], "padding": "same", "data_format": "channels_last", "dilation_rate": [1, 1], "groups": 1, "activation": "linear", "use_bias": true, "kernel_initializer": {"class_name": "RandomUniform", "config": {"minval": -0.05, "maxval": 0.05, "seed": null}}, "bias_initializer": {"class_name": "Zeros", "config": {}}, "kernel_regularizer": null, "bias_regularizer": null, "activity_regularizer": null, "kernel_constraint": null, "bias_constraint": null}, "name": "F_6_1", "inbound_nodes": [[["LRL_5", 0, 0, {}]]]}, {"class_name": "Activation", "config": {"name": "F_6_1_Relu", "trainable": true, "dtype": "float32", "activation": "relu"}, "name": "F_6_1_Relu", "inbound_nodes": [[["F_6_1", 0, 0, {}]]]}, {"class_name": "Concatenate", "config": {"name": "RDB_Concat_6_1", "trainable": true, "dtype": "float32", "axis": 3}, "name": "RDB_Concat_6_1", "inbound_nodes": [[["LRL_5", 0, 0, {}], ["F_6_1_Relu", 0, 0, {}]]]}, {"class_name": "Conv2D", "config": {"name": "F_6_2", "trainable": true, "dtype": "float32", "filters": 64, "kernel_size": [3, 3], "strides": [1, 1], "padding": "same", "data_format": "channels_last", "dilation_rate": [1, 1], "groups": 1, "activation": "linear", "use_bias": true, "kernel_initializer": {"class_name": "RandomUniform", "config": {"minval": -0.05, "maxval": 0.05, "seed": null}}, "bias_initializer": {"class_name": "Zeros", "config": {}}, "kernel_regularizer": null, "bias_regularizer": null, "activity_regularizer": null, "kernel_constraint": null, "bias_constraint": null}, "name": "F_6_2", "inbound_nodes": [[["RDB_Concat_6_1", 0, 0, {}]]]}, {"class_name": "Activation", "config": {"name": "F_6_2_Relu", "trainable": true, "dtype": "float32", "activation": "relu"}, "name": "F_6_2_Relu", "inbound_nodes": [[["F_6_2", 0, 0, {}]]]}, {"class_name": "Concatenate", "config": {"name": "RDB_Concat_6_2", "trainable": true, "dtype": "float32", "axis": 3}, "name": "RDB_Concat_6_2", "inbound_nodes": [[["RDB_Concat_6_1", 0, 0, {}], ["F_6_2_Relu", 0, 0, {}]]]}, {"class_name": "Conv2D", "config": {"name": "F_6_3", "trainable": true, "dtype": "float32", "filters": 64, "kernel_size": [3, 3], "strides": [1, 1], "padding": "same", "data_format": "channels_last", "dilation_rate": [1, 1], "groups": 1, "activation": "linear", "use_bias": true, "kernel_initializer": {"class_name": "RandomUniform", "config": {"minval": -0.05, "maxval": 0.05, "seed": null}}, "bias_initializer": {"class_name": "Zeros", "config": {}}, "kernel_regularizer": null, "bias_regularizer": null, "activity_regularizer": null, "kernel_constraint": null, "bias_constraint": null}, "name": "F_6_3", "inbound_nodes": [[["RDB_Concat_6_2", 0, 0, {}]]]}, {"class_name": "Activation", "config": {"name": "F_6_3_Relu", "trainable": true, "dtype": "float32", "activation": "relu"}, "name": "F_6_3_Relu", "inbound_nodes": [[["F_6_3", 0, 0, {}]]]}, {"class_name": "Concatenate", "config": {"name": "RDB_Concat_6_3", "trainable": true, "dtype": "float32", "axis": 3}, "name": "RDB_Concat_6_3", "inbound_nodes": [[["RDB_Concat_6_2", 0, 0, {}], ["F_6_3_Relu", 0, 0, {}]]]}, {"class_name": "Conv2D", "config": {"name": "LFF_6", "trainable": true, "dtype": "float32", "filters": 64, "kernel_size": [1, 1], "strides": [1, 1], "padding": "valid", "data_format": "channels_last", "dilation_rate": [1, 1], "groups": 1, "activation": "linear", "use_bias": true, "kernel_initializer": {"class_name": "RandomUniform", "config": {"minval": -0.05, "maxval": 0.05, "seed": null}}, "bias_initializer": {"class_name": "Zeros", "config": {}}, "kernel_regularizer": null, "bias_regularizer": null, "activity_regularizer": null, "kernel_constraint": null, "bias_constraint": null}, "name": "LFF_6", "inbound_nodes": [[["RDB_Concat_6_3", 0, 0, {}]]]}, {"class_name": "Add", "config": {"name": "LRL_6", "trainable": true, "dtype": "float32"}, "name": "LRL_6", "inbound_nodes": [[["LFF_6", 0, 0, {}], ["LRL_5", 0, 0, {}]]]}, {"class_name": "Conv2D", "config": {"name": "F_7_1", "trainable": true, "dtype": "float32", "filters": 64, "kernel_size": [3, 3], "strides": [1, 1], "padding": "same", "data_format": "channels_last", "dilation_rate": [1, 1], "groups": 1, "activation": "linear", "use_bias": true, "kernel_initializer": {"class_name": "RandomUniform", "config": {"minval": -0.05, "maxval": 0.05, "seed": null}}, "bias_initializer": {"class_name": "Zeros", "config": {}}, "kernel_regularizer": null, "bias_regularizer": null, "activity_regularizer": null, "kernel_constraint": null, "bias_constraint": null}, "name": "F_7_1", "inbound_nodes": [[["LRL_6", 0, 0, {}]]]}, {"class_name": "Activation", "config": {"name": "F_7_1_Relu", "trainable": true, "dtype": "float32", "activation": "relu"}, "name": "F_7_1_Relu", "inbound_nodes": [[["F_7_1", 0, 0, {}]]]}, {"class_name": "Concatenate", "config": {"name": "RDB_Concat_7_1", "trainable": true, "dtype": "float32", "axis": 3}, "name": "RDB_Concat_7_1", "inbound_nodes": [[["LRL_6", 0, 0, {}], ["F_7_1_Relu", 0, 0, {}]]]}, {"class_name": "Conv2D", "config": {"name": "F_7_2", "trainable": true, "dtype": "float32", "filters": 64, "kernel_size": [3, 3], "strides": [1, 1], "padding": "same", "data_format": "channels_last", "dilation_rate": [1, 1], "groups": 1, "activation": "linear", "use_bias": true, "kernel_initializer": {"class_name": "RandomUniform", "config": {"minval": -0.05, "maxval": 0.05, "seed": null}}, "bias_initializer": {"class_name": "Zeros", "config": {}}, "kernel_regularizer": null, "bias_regularizer": null, "activity_regularizer": null, "kernel_constraint": null, "bias_constraint": null}, "name": "F_7_2", "inbound_nodes": [[["RDB_Concat_7_1", 0, 0, {}]]]}, {"class_name": "Activation", "config": {"name": "F_7_2_Relu", "trainable": true, "dtype": "float32", "activation": "relu"}, "name": "F_7_2_Relu", "inbound_nodes": [[["F_7_2", 0, 0, {}]]]}, {"class_name": "Concatenate", "config": {"name": "RDB_Concat_7_2", "trainable": true, "dtype": "float32", "axis": 3}, "name": "RDB_Concat_7_2", "inbound_nodes": [[["RDB_Concat_7_1", 0, 0, {}], ["F_7_2_Relu", 0, 0, {}]]]}, {"class_name": "Conv2D", "config": {"name": "F_7_3", "trainable": true, "dtype": "float32", "filters": 64, "kernel_size": [3, 3], "strides": [1, 1], "padding": "same", "data_format": "channels_last", "dilation_rate": [1, 1], "groups": 1, "activation": "linear", "use_bias": true, "kernel_initializer": {"class_name": "RandomUniform", "config": {"minval": -0.05, "maxval": 0.05, "seed": null}}, "bias_initializer": {"class_name": "Zeros", "config": {}}, "kernel_regularizer": null, "bias_regularizer": null, "activity_regularizer": null, "kernel_constraint": null, "bias_constraint": null}, "name": "F_7_3", "inbound_nodes": [[["RDB_Concat_7_2", 0, 0, {}]]]}, {"class_name": "Activation", "config": {"name": "F_7_3_Relu", "trainable": true, "dtype": "float32", "activation": "relu"}, "name": "F_7_3_Relu", "inbound_nodes": [[["F_7_3", 0, 0, {}]]]}, {"class_name": "Concatenate", "config": {"name": "RDB_Concat_7_3", "trainable": true, "dtype": "float32", "axis": 3}, "name": "RDB_Concat_7_3", "inbound_nodes": [[["RDB_Concat_7_2", 0, 0, {}], ["F_7_3_Relu", 0, 0, {}]]]}, {"class_name": "Conv2D", "config": {"name": "LFF_7", "trainable": true, "dtype": "float32", "filters": 64, "kernel_size": [1, 1], "strides": [1, 1], "padding": "valid", "data_format": "channels_last", "dilation_rate": [1, 1], "groups": 1, "activation": "linear", "use_bias": true, "kernel_initializer": {"class_name": "RandomUniform", "config": {"minval": -0.05, "maxval": 0.05, "seed": null}}, "bias_initializer": {"class_name": "Zeros", "config": {}}, "kernel_regularizer": null, "bias_regularizer": null, "activity_regularizer": null, "kernel_constraint": null, "bias_constraint": null}, "name": "LFF_7", "inbound_nodes": [[["RDB_Concat_7_3", 0, 0, {}]]]}, {"class_name": "Add", "config": {"name": "LRL_7", "trainable": true, "dtype": "float32"}, "name": "LRL_7", "inbound_nodes": [[["LFF_7", 0, 0, {}], ["LRL_6", 0, 0, {}]]]}, {"class_name": "Conv2D", "config": {"name": "F_8_1", "trainable": true, "dtype": "float32", "filters": 64, "kernel_size": [3, 3], "strides": [1, 1], "padding": "same", "data_format": "channels_last", "dilation_rate": [1, 1], "groups": 1, "activation": "linear", "use_bias": true, "kernel_initializer": {"class_name": "RandomUniform", "config": {"minval": -0.05, "maxval": 0.05, "seed": null}}, "bias_initializer": {"class_name": "Zeros", "config": {}}, "kernel_regularizer": null, "bias_regularizer": null, "activity_regularizer": null, "kernel_constraint": null, "bias_constraint": null}, "name": "F_8_1", "inbound_nodes": [[["LRL_7", 0, 0, {}]]]}, {"class_name": "Activation", "config": {"name": "F_8_1_Relu", "trainable": true, "dtype": "float32", "activation": "relu"}, "name": "F_8_1_Relu", "inbound_nodes": [[["F_8_1", 0, 0, {}]]]}, {"class_name": "Concatenate", "config": {"name": "RDB_Concat_8_1", "trainable": true, "dtype": "float32", "axis": 3}, "name": "RDB_Concat_8_1", "inbound_nodes": [[["LRL_7", 0, 0, {}], ["F_8_1_Relu", 0, 0, {}]]]}, {"class_name": "Conv2D", "config": {"name": "F_8_2", "trainable": true, "dtype": "float32", "filters": 64, "kernel_size": [3, 3], "strides": [1, 1], "padding": "same", "data_format": "channels_last", "dilation_rate": [1, 1], "groups": 1, "activation": "linear", "use_bias": true, "kernel_initializer": {"class_name": "RandomUniform", "config": {"minval": -0.05, "maxval": 0.05, "seed": null}}, "bias_initializer": {"class_name": "Zeros", "config": {}}, "kernel_regularizer": null, "bias_regularizer": null, "activity_regularizer": null, "kernel_constraint": null, "bias_constraint": null}, "name": "F_8_2", "inbound_nodes": [[["RDB_Concat_8_1", 0, 0, {}]]]}, {"class_name": "Activation", "config": {"name": "F_8_2_Relu", "trainable": true, "dtype": "float32", "activation": "relu"}, "name": "F_8_2_Relu", "inbound_nodes": [[["F_8_2", 0, 0, {}]]]}, {"class_name": "Concatenate", "config": {"name": "RDB_Concat_8_2", "trainable": true, "dtype": "float32", "axis": 3}, "name": "RDB_Concat_8_2", "inbound_nodes": [[["RDB_Concat_8_1", 0, 0, {}], ["F_8_2_Relu", 0, 0, {}]]]}, {"class_name": "Conv2D", "config": {"name": "F_8_3", "trainable": true, "dtype": "float32", "filters": 64, "kernel_size": [3, 3], "strides": [1, 1], "padding": "same", "data_format": "channels_last", "dilation_rate": [1, 1], "groups": 1, "activation": "linear", "use_bias": true, "kernel_initializer": {"class_name": "RandomUniform", "config": {"minval": -0.05, "maxval": 0.05, "seed": null}}, "bias_initializer": {"class_name": "Zeros", "config": {}}, "kernel_regularizer": null, "bias_regularizer": null, "activity_regularizer": null, "kernel_constraint": null, "bias_constraint": null}, "name": "F_8_3", "inbound_nodes": [[["RDB_Concat_8_2", 0, 0, {}]]]}, {"class_name": "Activation", "config": {"name": "F_8_3_Relu", "trainable": true, "dtype": "float32", "activation": "relu"}, "name": "F_8_3_Relu", "inbound_nodes": [[["F_8_3", 0, 0, {}]]]}, {"class_name": "Concatenate", "config": {"name": "RDB_Concat_8_3", "trainable": true, "dtype": "float32", "axis": 3}, "name": "RDB_Concat_8_3", "inbound_nodes": [[["RDB_Concat_8_2", 0, 0, {}], ["F_8_3_Relu", 0, 0, {}]]]}, {"class_name": "Conv2D", "config": {"name": "LFF_8", "trainable": true, "dtype": "float32", "filters": 64, "kernel_size": [1, 1], "strides": [1, 1], "padding": "valid", "data_format": "channels_last", "dilation_rate": [1, 1], "groups": 1, "activation": "linear", "use_bias": true, "kernel_initializer": {"class_name": "RandomUniform", "config": {"minval": -0.05, "maxval": 0.05, "seed": null}}, "bias_initializer": {"class_name": "Zeros", "config": {}}, "kernel_regularizer": null, "bias_regularizer": null, "activity_regularizer": null, "kernel_constraint": null, "bias_constraint": null}, "name": "LFF_8", "inbound_nodes": [[["RDB_Concat_8_3", 0, 0, {}]]]}, {"class_name": "Add", "config": {"name": "LRL_8", "trainable": true, "dtype": "float32"}, "name": "LRL_8", "inbound_nodes": [[["LFF_8", 0, 0, {}], ["LRL_7", 0, 0, {}]]]}, {"class_name": "Conv2D", "config": {"name": "F_9_1", "trainable": true, "dtype": "float32", "filters": 64, "kernel_size": [3, 3], "strides": [1, 1], "padding": "same", "data_format": "channels_last", "dilation_rate": [1, 1], "groups": 1, "activation": "linear", "use_bias": true, "kernel_initializer": {"class_name": "RandomUniform", "config": {"minval": -0.05, "maxval": 0.05, "seed": null}}, "bias_initializer": {"class_name": "Zeros", "config": {}}, "kernel_regularizer": null, "bias_regularizer": null, "activity_regularizer": null, "kernel_constraint": null, "bias_constraint": null}, "name": "F_9_1", "inbound_nodes": [[["LRL_8", 0, 0, {}]]]}, {"class_name": "Activation", "config": {"name": "F_9_1_Relu", "trainable": true, "dtype": "float32", "activation": "relu"}, "name": "F_9_1_Relu", "inbound_nodes": [[["F_9_1", 0, 0, {}]]]}, {"class_name": "Concatenate", "config": {"name": "RDB_Concat_9_1", "trainable": true, "dtype": "float32", "axis": 3}, "name": "RDB_Concat_9_1", "inbound_nodes": [[["LRL_8", 0, 0, {}], ["F_9_1_Relu", 0, 0, {}]]]}, {"class_name": "Conv2D", "config": {"name": "F_9_2", "trainable": true, "dtype": "float32", "filters": 64, "kernel_size": [3, 3], "strides": [1, 1], "padding": "same", "data_format": "channels_last", "dilation_rate": [1, 1], "groups": 1, "activation": "linear", "use_bias": true, "kernel_initializer": {"class_name": "RandomUniform", "config": {"minval": -0.05, "maxval": 0.05, "seed": null}}, "bias_initializer": {"class_name": "Zeros", "config": {}}, "kernel_regularizer": null, "bias_regularizer": null, "activity_regularizer": null, "kernel_constraint": null, "bias_constraint": null}, "name": "F_9_2", "inbound_nodes": [[["RDB_Concat_9_1", 0, 0, {}]]]}, {"class_name": "Activation", "config": {"name": "F_9_2_Relu", "trainable": true, "dtype": "float32", "activation": "relu"}, "name": "F_9_2_Relu", "inbound_nodes": [[["F_9_2", 0, 0, {}]]]}, {"class_name": "Concatenate", "config": {"name": "RDB_Concat_9_2", "trainable": true, "dtype": "float32", "axis": 3}, "name": "RDB_Concat_9_2", "inbound_nodes": [[["RDB_Concat_9_1", 0, 0, {}], ["F_9_2_Relu", 0, 0, {}]]]}, {"class_name": "Conv2D", "config": {"name": "F_9_3", "trainable": true, "dtype": "float32", "filters": 64, "kernel_size": [3, 3], "strides": [1, 1], "padding": "same", "data_format": "channels_last", "dilation_rate": [1, 1], "groups": 1, "activation": "linear", "use_bias": true, "kernel_initializer": {"class_name": "RandomUniform", "config": {"minval": -0.05, "maxval": 0.05, "seed": null}}, "bias_initializer": {"class_name": "Zeros", "config": {}}, "kernel_regularizer": null, "bias_regularizer": null, "activity_regularizer": null, "kernel_constraint": null, "bias_constraint": null}, "name": "F_9_3", "inbound_nodes": [[["RDB_Concat_9_2", 0, 0, {}]]]}, {"class_name": "Activation", "config": {"name": "F_9_3_Relu", "trainable": true, "dtype": "float32", "activation": "relu"}, "name": "F_9_3_Relu", "inbound_nodes": [[["F_9_3", 0, 0, {}]]]}, {"class_name": "Concatenate", "config": {"name": "RDB_Concat_9_3", "trainable": true, "dtype": "float32", "axis": 3}, "name": "RDB_Concat_9_3", "inbound_nodes": [[["RDB_Concat_9_2", 0, 0, {}], ["F_9_3_Relu", 0, 0, {}]]]}, {"class_name": "Conv2D", "config": {"name": "LFF_9", "trainable": true, "dtype": "float32", "filters": 64, "kernel_size": [1, 1], "strides": [1, 1], "padding": "valid", "data_format": "channels_last", "dilation_rate": [1, 1], "groups": 1, "activation": "linear", "use_bias": true, "kernel_initializer": {"class_name": "RandomUniform", "config": {"minval": -0.05, "maxval": 0.05, "seed": null}}, "bias_initializer": {"class_name": "Zeros", "config": {}}, "kernel_regularizer": null, "bias_regularizer": null, "activity_regularizer": null, "kernel_constraint": null, "bias_constraint": null}, "name": "LFF_9", "inbound_nodes": [[["RDB_Concat_9_3", 0, 0, {}]]]}, {"class_name": "Add", "config": {"name": "LRL_9", "trainable": true, "dtype": "float32"}, "name": "LRL_9", "inbound_nodes": [[["LFF_9", 0, 0, {}], ["LRL_8", 0, 0, {}]]]}, {"class_name": "Conv2D", "config": {"name": "F_10_1", "trainable": true, "dtype": "float32", "filters": 64, "kernel_size": [3, 3], "strides": [1, 1], "padding": "same", "data_format": "channels_last", "dilation_rate": [1, 1], "groups": 1, "activation": "linear", "use_bias": true, "kernel_initializer": {"class_name": "RandomUniform", "config": {"minval": -0.05, "maxval": 0.05, "seed": null}}, "bias_initializer": {"class_name": "Zeros", "config": {}}, "kernel_regularizer": null, "bias_regularizer": null, "activity_regularizer": null, "kernel_constraint": null, "bias_constraint": null}, "name": "F_10_1", "inbound_nodes": [[["LRL_9", 0, 0, {}]]]}, {"class_name": "Activation", "config": {"name": "F_10_1_Relu", "trainable": true, "dtype": "float32", "activation": "relu"}, "name": "F_10_1_Relu", "inbound_nodes": [[["F_10_1", 0, 0, {}]]]}, {"class_name": "Concatenate", "config": {"name": "RDB_Concat_10_1", "trainable": true, "dtype": "float32", "axis": 3}, "name": "RDB_Concat_10_1", "inbound_nodes": [[["LRL_9", 0, 0, {}], ["F_10_1_Relu", 0, 0, {}]]]}, {"class_name": "Conv2D", "config": {"name": "F_10_2", "trainable": true, "dtype": "float32", "filters": 64, "kernel_size": [3, 3], "strides": [1, 1], "padding": "same", "data_format": "channels_last", "dilation_rate": [1, 1], "groups": 1, "activation": "linear", "use_bias": true, "kernel_initializer": {"class_name": "RandomUniform", "config": {"minval": -0.05, "maxval": 0.05, "seed": null}}, "bias_initializer": {"class_name": "Zeros", "config": {}}, "kernel_regularizer": null, "bias_regularizer": null, "activity_regularizer": null, "kernel_constraint": null, "bias_constraint": null}, "name": "F_10_2", "inbound_nodes": [[["RDB_Concat_10_1", 0, 0, {}]]]}, {"class_name": "Activation", "config": {"name": "F_10_2_Relu", "trainable": true, "dtype": "float32", "activation": "relu"}, "name": "F_10_2_Relu", "inbound_nodes": [[["F_10_2", 0, 0, {}]]]}, {"class_name": "Concatenate", "config": {"name": "RDB_Concat_10_2", "trainable": true, "dtype": "float32", "axis": 3}, "name": "RDB_Concat_10_2", "inbound_nodes": [[["RDB_Concat_10_1", 0, 0, {}], ["F_10_2_Relu", 0, 0, {}]]]}, {"class_name": "Conv2D", "config": {"name": "F_10_3", "trainable": true, "dtype": "float32", "filters": 64, "kernel_size": [3, 3], "strides": [1, 1], "padding": "same", "data_format": "channels_last", "dilation_rate": [1, 1], "groups": 1, "activation": "linear", "use_bias": true, "kernel_initializer": {"class_name": "RandomUniform", "config": {"minval": -0.05, "maxval": 0.05, "seed": null}}, "bias_initializer": {"class_name": "Zeros", "config": {}}, "kernel_regularizer": null, "bias_regularizer": null, "activity_regularizer": null, "kernel_constraint": null, "bias_constraint": null}, "name": "F_10_3", "inbound_nodes": [[["RDB_Concat_10_2", 0, 0, {}]]]}, {"class_name": "Activation", "config": {"name": "F_10_3_Relu", "trainable": true, "dtype": "float32", "activation": "relu"}, "name": "F_10_3_Relu", "inbound_nodes": [[["F_10_3", 0, 0, {}]]]}, {"class_name": "Concatenate", "config": {"name": "RDB_Concat_10_3", "trainable": true, "dtype": "float32", "axis": 3}, "name": "RDB_Concat_10_3", "inbound_nodes": [[["RDB_Concat_10_2", 0, 0, {}], ["F_10_3_Relu", 0, 0, {}]]]}, {"class_name": "Conv2D", "config": {"name": "LFF_10", "trainable": true, "dtype": "float32", "filters": 64, "kernel_size": [1, 1], "strides": [1, 1], "padding": "valid", "data_format": "channels_last", "dilation_rate": [1, 1], "groups": 1, "activation": "linear", "use_bias": true, "kernel_initializer": {"class_name": "RandomUniform", "config": {"minval": -0.05, "maxval": 0.05, "seed": null}}, "bias_initializer": {"class_name": "Zeros", "config": {}}, "kernel_regularizer": null, "bias_regularizer": null, "activity_regularizer": null, "kernel_constraint": null, "bias_constraint": null}, "name": "LFF_10", "inbound_nodes": [[["RDB_Concat_10_3", 0, 0, {}]]]}, {"class_name": "Add", "config": {"name": "LRL_10", "trainable": true, "dtype": "float32"}, "name": "LRL_10", "inbound_nodes": [[["LFF_10", 0, 0, {}], ["LRL_9", 0, 0, {}]]]}, {"class_name": "Concatenate", "config": {"name": "LRLs_Concat", "trainable": true, "dtype": "float32", "axis": 3}, "name": "LRLs_Concat", "inbound_nodes": [[["LRL_1", 0, 0, {}], ["LRL_2", 0, 0, {}], ["LRL_3", 0, 0, {}], ["LRL_4", 0, 0, {}], ["LRL_5", 0, 0, {}], ["LRL_6", 0, 0, {}], ["LRL_7", 0, 0, {}], ["LRL_8", 0, 0, {}], ["LRL_9", 0, 0, {}], ["LRL_10", 0, 0, {}]]]}, {"class_name": "Conv2D", "config": {"name": "GFF_1", "trainable": true, "dtype": "float32", "filters": 64, "kernel_size": [1, 1], "strides": [1, 1], "padding": "same", "data_format": "channels_last", "dilation_rate": [1, 1], "groups": 1, "activation": "linear", "use_bias": true, "kernel_initializer": {"class_name": "RandomUniform", "config": {"minval": -0.05, "maxval": 0.05, "seed": null}}, "bias_initializer": {"class_name": "Zeros", "config": {}}, "kernel_regularizer": null, "bias_regularizer": null, "activity_regularizer": null, "kernel_constraint": null, "bias_constraint": null}, "name": "GFF_1", "inbound_nodes": [[["LRLs_Concat", 0, 0, {}]]]}, {"class_name": "Conv2D", "config": {"name": "GFF_2", "trainable": true, "dtype": "float32", "filters": 64, "kernel_size": [3, 3], "strides": [1, 1], "padding": "same", "data_format": "channels_last", "dilation_rate": [1, 1], "groups": 1, "activation": "linear", "use_bias": true, "kernel_initializer": {"class_name": "RandomUniform", "config": {"minval": -0.05, "maxval": 0.05, "seed": null}}, "bias_initializer": {"class_name": "Zeros", "config": {}}, "kernel_regularizer": null, "bias_regularizer": null, "activity_regularizer": null, "kernel_constraint": null, "bias_constraint": null}, "name": "GFF_2", "inbound_nodes": [[["GFF_1", 0, 0, {}]]]}, {"class_name": "Add", "config": {"name": "FDF", "trainable": true, "dtype": "float32"}, "name": "FDF", "inbound_nodes": [[["GFF_2", 0, 0, {}], ["F_m1", 0, 0, {}]]]}, {"class_name": "Conv2D", "config": {"name": "UPN1", "trainable": true, "dtype": "float32", "filters": 64, "kernel_size": [5, 5], "strides": [1, 1], "padding": "same", "data_format": "channels_last", "dilation_rate": [1, 1], "groups": 1, "activation": "linear", "use_bias": true, "kernel_initializer": {"class_name": "RandomUniform", "config": {"minval": -0.05, "maxval": 0.05, "seed": null}}, "bias_initializer": {"class_name": "Zeros", "config": {}}, "kernel_regularizer": null, "bias_regularizer": null, "activity_regularizer": null, "kernel_constraint": null, "bias_constraint": null}, "name": "UPN1", "inbound_nodes": [[["FDF", 0, 0, {}]]]}, {"class_name": "Activation", "config": {"name": "UPN1_Relu", "trainable": true, "dtype": "float32", "activation": "relu"}, "name": "UPN1_Relu", "inbound_nodes": [[["UPN1", 0, 0, {}]]]}, {"class_name": "Conv2D", "config": {"name": "UPN2", "trainable": true, "dtype": "float32", "filters": 32, "kernel_size": [3, 3], "strides": [1, 1], "padding": "same", "data_format": "channels_last", "dilation_rate": [1, 1], "groups": 1, "activation": "linear", "use_bias": true, "kernel_initializer": {"class_name": "RandomUniform", "config": {"minval": -0.05, "maxval": 0.05, "seed": null}}, "bias_initializer": {"class_name": "Zeros", "config": {}}, "kernel_regularizer": null, "bias_regularizer": null, "activity_regularizer": null, "kernel_constraint": null, "bias_constraint": null}, "name": "UPN2", "inbound_nodes": [[["UPN1_Relu", 0, 0, {}]]]}, {"class_name": "Activation", "config": {"name": "UPN2_Relu", "trainable": true, "dtype": "float32", "activation": "relu"}, "name": "UPN2_Relu", "inbound_nodes": [[["UPN2", 0, 0, {}]]]}, {"class_name": "Conv2D", "config": {"name": "UPN3", "trainable": true, "dtype": "float32", "filters": 48, "kernel_size": [3, 3], "strides": [1, 1], "padding": "same", "data_format": "channels_last", "dilation_rate": [1, 1], "groups": 1, "activation": "linear", "use_bias": true, "kernel_initializer": {"class_name": "RandomUniform", "config": {"minval": -0.05, "maxval": 0.05, "seed": null}}, "bias_initializer": {"class_name": "Zeros", "config": {}}, "kernel_regularizer": null, "bias_regularizer": null, "activity_regularizer": null, "kernel_constraint": null, "bias_constraint": null}, "name": "UPN3", "inbound_nodes": [[["UPN2_Relu", 0, 0, {}]]]}, {"class_name": "UpSampling2D", "config": {"name": "UPsample", "trainable": true, "dtype": "float32", "size": [4, 4], "data_format": "channels_last", "interpolation": "nearest"}, "name": "UPsample", "inbound_nodes": [[["UPN3", 0, 0, {}]]]}, {"class_name": "Conv2D", "config": {"name": "SR", "trainable": true, "dtype": "float32", "filters": 3, "kernel_size": [3, 3], "strides": [1, 1], "padding": "same", "data_format": "channels_last", "dilation_rate": [1, 1], "groups": 1, "activation": "linear", "use_bias": true, "kernel_initializer": {"class_name": "RandomUniform", "config": {"minval": -0.05, "maxval": 0.05, "seed": null}}, "bias_initializer": {"class_name": "Zeros", "config": {}}, "kernel_regularizer": null, "bias_regularizer": null, "activity_regularizer": null, "kernel_constraint": null, "bias_constraint": null}, "name": "SR", "inbound_nodes": [[["UPsample", 0, 0, {}]]]}], "input_layers": [["LR", 0, 0]], "output_layers": [["SR", 0, 0]]}}}, "weightsManifest": [{"paths": ["group1-shard1of1.bin"], "weights": [{"name": "F_0/kernel", "shape": [3, 3, 64, 64], "dtype": "float32", "quantization": {"dtype": "uint8", "min": -0.13392056174138015, "scale": 0.001164526623838088, "original_dtype": "float32"}}, {"name": "F_0/bias", "shape": [64], "dtype": "float32", "quantization": {"dtype": "uint8", "min": -0.034806769012528306, "scale": 0.00025782791861132077, "original_dtype": "float32"}}, {"name": "F_10_1/kernel", "shape": [3, 3, 64, 64], "dtype": "float32", "quantization": {"dtype": "uint8", "min": -0.18768804575882705, "scale": 0.001551140874039893, "original_dtype": "float32"}}, {"name": "F_10_1/bias", "shape": [64], "dtype": "float32", "quantization": {"dtype": "uint8", "min": -0.08666732907295227, "scale": 0.00033902103462548673, "original_dtype": "float32"}}, {"name": "F_10_2/kernel", "shape": [3, 3, 128, 64], "dtype": "float32", "quantization": {"dtype": "uint8", "min": -0.3156556021349103, "scale": 0.0019365374364104925, "original_dtype": "float32"}}, {"name": "F_10_2/bias", "shape": [64], "dtype": "float32", "quantization": {"dtype": "uint8", "min": -0.0672525073967728, "scale": 0.00042032817122983, "original_dtype": "float32"}}, {"name": "F_10_3/kernel", "shape": [3, 3, 192, 64], "dtype": "float32", "quantization": {"dtype": "uint8", "min": -0.27818775761361214, "scale": 0.001987055411525801, "original_dtype": "float32"}}, {"name": "F_10_3/bias", "shape": [64], "dtype": "float32", "quantization": {"dtype": "uint8", "min": -0.06065498584625768, "scale": 0.0004183102472155702, "original_dtype": "float32"}}, {"name": "F_1_1/kernel", "shape": [3, 3, 64, 64], "dtype": "float32", "quantization": {"dtype": "uint8", "min": -0.21810862316804772, "scale": 0.001717390733606675, "original_dtype": "float32"}}, {"name": "F_1_1/bias", "shape": [64], "dtype": "float32", "quantization": {"dtype": "uint8", "min": -0.07260373293184766, "scale": 0.0004776561377095241, "original_dtype": "float32"}}, {"name": "F_1_2/kernel", "shape": [3, 3, 128, 64], "dtype": "float32", "quantization": {"dtype": "uint8", "min": -0.21736511395258062, "scale": 0.001659275679027333, "original_dtype": "float32"}}, {"name": "F_1_2/bias", "shape": [64], "dtype": "float32", "quantization": {"dtype": "uint8", "min": -0.06551855934016845, "scale": 0.0003701613522043415, "original_dtype": "float32"}}, {"name": "F_1_3/kernel", "shape": [3, 3, 192, 64], "dtype": "float32", "quantization": {"dtype": "uint8", "min": -0.22094485923355703, "scale": 0.001699575840258131, "original_dtype": "float32"}}, {"name": "F_1_3/bias", "shape": [64], "dtype": "float32", "quantization": {"dtype": "uint8", "min": -0.0540602042248436, "scale": 0.0003946000308382745, "original_dtype": "float32"}}, {"name": "F_2_1/kernel", "shape": [3, 3, 64, 64], "dtype": "float32", "quantization": {"dtype": "uint8", "min": -0.1804665584190219, "scale": 0.0014098949876486086, "original_dtype": "float32"}}, {"name": "F_2_1/bias", "shape": [64], "dtype": "float32", "quantization": {"dtype": "uint8", "min": -0.06851532529382144, "scale": 0.0003703531096963321, "original_dtype": "float32"}}, {"name": "F_2_2/kernel", "shape": [3, 3, 128, 64], "dtype": "float32", "quantization": {"dtype": "uint8", "min": -0.22524534165859222, "scale": 0.0016684840122858683, "original_dtype": "float32"}}, {"name": "F_2_2/bias", "shape": [64], "dtype": "float32", "quantization": {"dtype": "uint8", "min": -0.0778170878980674, "scale": 0.00034739771383065804, "original_dtype": "float32"}}, {"name": "F_2_3/kernel", "shape": [3, 3, 192, 64], "dtype": "float32", "quantization": {"dtype": "uint8", "min": -0.20989236551172594, "scale": 0.0015900936781191358, "original_dtype": "float32"}}, {"name": "F_2_3/bias", "shape": [64], "dtype": "float32", "quantization": {"dtype": "uint8", "min": -0.06286625831442721, "scale": 0.0003764446605654324, "original_dtype": "float32"}}, {"name": "F_3_1/kernel", "shape": [3, 3, 64, 64], "dtype": "float32", "quantization": {"dtype": "uint8", "min": -0.16119549975675695, "scale": 0.0014265088474049287, "original_dtype": "float32"}}, {"name": "F_3_1/bias", "shape": [64], "dtype": "float32", "quantization": {"dtype": "uint8", "min": -0.07406195861597856, "scale": 0.0003111847000671368, "original_dtype": "float32"}}, {"name": "F_3_2/kernel", "shape": [3, 3, 128, 64], "dtype": "float32", "quantization": {"dtype": "uint8", "min": -0.26513434765385646, "scale": 0.0017443049187753714, "original_dtype": "float32"}}, {"name": "F_3_2/bias", "shape": [64], "dtype": "float32", "quantization": {"dtype": "uint8", "min": -0.08378966301679612, "scale": 0.0003791387466823354, "original_dtype": "float32"}}, {"name": "F_3_3/kernel", "shape": [3, 3, 192, 64], "dtype": "float32", "quantization": {"dtype": "uint8", "min": -0.2205995985690285, "scale": 0.0015870474717196296, "original_dtype": "float32"}}, {"name": "F_3_3/bias", "shape": [64], "dtype": "float32", "quantization": {"dtype": "uint8", "min": -0.07205416284063283, "scale": 0.00036390991333652944, "original_dtype": "float32"}}, {"name": "F_4_1/kernel", "shape": [3, 3, 64, 64], "dtype": "float32", "quantization": {"dtype": "uint8", "min": -0.17626125181422514, "scale": 0.0014567045604481417, "original_dtype": "float32"}}, {"name": "F_4_1/bias", "shape": [64], "dtype": "float32", "quantization": {"dtype": "uint8", "min": -0.09359807231846978, "scale": 0.0003851772523393818, "original_dtype": "float32"}}, {"name": "F_4_2/kernel", "shape": [3, 3, 128, 64], "dtype": "float32", "quantization": {"dtype": "uint8", "min": -0.25035383052685684, "scale": 0.0017755590817507575, "original_dtype": "float32"}}, {"name": "F_4_2/bias", "shape": [64], "dtype": "float32", "quantization": {"dtype": "uint8", "min": -0.07895522612128772, "scale": 0.0004007879498542524, "original_dtype": "float32"}}, {"name": "F_4_3/kernel", "shape": [3, 3, 192, 64], "dtype": "float32", "quantization": {"dtype": "uint8", "min": -0.21989439322667964, "scale": 0.0017046076994316252, "original_dtype": "float32"}}, {"name": "F_4_3/bias", "shape": [64], "dtype": "float32", "quantization": {"dtype": "uint8", "min": -0.07981243265025756, "scale": 0.00040720628903192634, "original_dtype": "float32"}}, {"name": "F_5_1/kernel", "shape": [3, 3, 64, 64], "dtype": "float32", "quantization": {"dtype": "uint8", "min": -0.18688312348197486, "scale": 0.0015193749876583323, "original_dtype": "float32"}}, {"name": "F_5_1/bias", "shape": [64], "dtype": "float32", "quantization": {"dtype": "uint8", "min": -0.07320185750722885, "scale": 0.00023875576170051798, "original_dtype": "float32"}}, {"name": "F_5_2/kernel", "shape": [3, 3, 128, 64], "dtype": "float32", "quantization": {"dtype": "uint8", "min": -0.26406936855877144, "scale": 0.0017963902623045677, "original_dtype": "float32"}}, {"name": "F_5_2/bias", "shape": [64], "dtype": "float32", "quantization": {"dtype": "uint8", "min": -0.07612246375750092, "scale": 0.00044001424137283775, "original_dtype": "float32"}}, {"name": "F_5_3/kernel", "shape": [3, 3, 192, 64], "dtype": "float32", "quantization": {"dtype": "uint8", "min": -0.27772217521480486, "scale": 0.0018765011838838166, "original_dtype": "float32"}}, {"name": "F_5_3/bias", "shape": [64], "dtype": "float32", "quantization": {"dtype": "uint8", "min": -0.08085096988315675, "scale": 0.0004784081058174956, "original_dtype": "float32"}}, {"name": "F_6_1/kernel", "shape": [3, 3, 64, 64], "dtype": "float32", "quantization": {"dtype": "uint8", "min": -0.19756466851514928, "scale": 0.0014634419890011058, "original_dtype": "float32"}}, {"name": "F_6_1/bias", "shape": [64], "dtype": "float32", "quantization": {"dtype": "uint8", "min": -0.08049042659409929, "scale": 0.0003285323534453032, "original_dtype": "float32"}}, {"name": "F_6_2/kernel", "shape": [3, 3, 128, 64], "dtype": "float32", "quantization": {"dtype": "uint8", "min": -0.2448017728094961, "scale": 0.0016767244712979185, "original_dtype": "float32"}}, {"name": "F_6_2/bias", "shape": [64], "dtype": "float32", "quantization": {"dtype": "uint8", "min": -0.07580557655470044, "scale": 0.0004381825234375748, "original_dtype": "float32"}}, {"name": "F_6_3/kernel", "shape": [3, 3, 192, 64], "dtype": "float32", "quantization": {"dtype": "uint8", "min": -0.21928794033387128, "scale": 0.0018742559002894981, "original_dtype": "float32"}}, {"name": "F_6_3/bias", "shape": [64], "dtype": "float32", "quantization": {"dtype": "uint8", "min": -0.059602352976799014, "scale": 0.0003547759105761846, "original_dtype": "float32"}}, {"name": "F_7_1/kernel", "shape": [3, 3, 64, 64], "dtype": "float32", "quantization": {"dtype": "uint8", "min": -0.21517695486545563, "scale": 0.00169430673122406, "original_dtype": "float32"}}, {"name": "F_7_1/bias", "shape": [64], "dtype": "float32", "quantization": {"dtype": "uint8", "min": -0.09070781618356705, "scale": 0.00032745626590707723, "original_dtype": "float32"}}, {"name": "F_7_2/kernel", "shape": [3, 3, 128, 64], "dtype": "float32", "quantization": {"dtype": "uint8", "min": -0.24533108578008764, "scale": 0.00166891895088495, "original_dtype": "float32"}}, {"name": "F_7_2/bias", "shape": [64], "dtype": "float32", "quantization": {"dtype": "uint8", "min": -0.0662720789073729, "scale": 0.0003921424787418515, "original_dtype": "float32"}}, {"name": "F_7_3/kernel", "shape": [3, 3, 192, 64], "dtype": "float32", "quantization": {"dtype": "uint8", "min": -0.2985113683868857, "scale": 0.0019900757892459047, "original_dtype": "float32"}}, {"name": "F_7_3/bias", "shape": [64], "dtype": "float32", "quantization": {"dtype": "uint8", "min": -0.05942402083207579, "scale": 0.0004214469562558567, "original_dtype": "float32"}}, {"name": "F_8_1/kernel", "shape": [3, 3, 64, 64], "dtype": "float32", "quantization": {"dtype": "uint8", "min": -0.172397312930986, "scale": 0.0014861837321636724, "original_dtype": "float32"}}, {"name": "F_8_1/bias", "shape": [64], "dtype": "float32", "quantization": {"dtype": "uint8", "min": -0.08882088959217072, "scale": 0.000309160614714903, "original_dtype": "float32"}}, {"name": "F_8_2/kernel", "shape": [3, 3, 128, 64], "dtype": "float32", "quantization": {"dtype": "uint8", "min": -0.2408594731606689, "scale": 0.0016610998149011649, "original_dtype": "float32"}}, {"name": "F_8_2/bias", "shape": [64], "dtype": "float32", "quantization": {"dtype": "uint8", "min": -0.06622570016804863, "scale": 0.00040880061832128785, "original_dtype": "float32"}}, {"name": "F_8_3/kernel", "shape": [3, 3, 192, 64], "dtype": "float32", "quantization": {"dtype": "uint8", "min": -0.2387931722051957, "scale": 0.0017303853058347515, "original_dtype": "float32"}}, {"name": "F_8_3/bias", "shape": [64], "dtype": "float32", "quantization": {"dtype": "uint8", "min": -0.06569581692125283, "scale": 0.0004005842495198343, "original_dtype": "float32"}}, {"name": "F_9_1/kernel", "shape": [3, 3, 64, 64], "dtype": "float32", "quantization": {"dtype": "uint8", "min": -0.20404741460201786, "scale": 0.001632379316816143, "original_dtype": "float32"}}, {"name": "F_9_1/bias", "shape": [64], "dtype": "float32", "quantization": {"dtype": "uint8", "min": -0.07693781703710556, "scale": 0.00028011514348726645, "original_dtype": "float32"}}, {"name": "F_9_2/kernel", "shape": [3, 3, 128, 64], "dtype": "float32", "quantization": {"dtype": "uint8", "min": -0.22149548016342463, "scale": 0.0016908051920872108, "original_dtype": "float32"}}, {"name": "F_9_2/bias", "shape": [64], "dtype": "float32", "quantization": {"dtype": "uint8", "min": -0.07560946029775284, "scale": 0.000429599206237232, "original_dtype": "float32"}}, {"name": "F_9_3/kernel", "shape": [3, 3, 192, 64], "dtype": "float32", "quantization": {"dtype": "uint8", "min": -0.2466909977735258, "scale": 0.002038768576640709, "original_dtype": "float32"}}, {"name": "F_9_3/bias", "shape": [64], "dtype": "float32", "quantization": {"dtype": "uint8", "min": -0.06649399040376439, "scale": 0.0004317791584660025, "original_dtype": "float32"}}, {"name": "F_m1/kernel", "shape": [3, 3, 3, 64], "dtype": "float32", "quantization": {"dtype": "uint8", "min": -0.11384660151659275, "scale": 0.0009899704479703717, "original_dtype": "float32"}}, {"name": "F_m1/bias", "shape": [64], "dtype": "float32", "quantization": {"dtype": "uint8", "min": -0.051815966896566694, "scale": 0.00040799973934304483, "original_dtype": "float32"}}, {"name": "GFF_1/kernel", "shape": [1, 1, 640, 64], "dtype": "float32", "quantization": {"dtype": "uint8", "min": -0.09091856137794606, "scale": 0.0007513930692392237, "original_dtype": "float32"}}, {"name": "GFF_1/bias", "shape": [64], "dtype": "float32", "quantization": {"dtype": "uint8", "min": -0.007995530206929235, "scale": 8.076293138312359e-05, "original_dtype": "float32"}}, {"name": "GFF_2/kernel", "shape": [3, 3, 64, 64], "dtype": "float32", "quantization": {"dtype": "uint8", "min": -0.10700650273584852, "scale": 0.0008629556672245848, "original_dtype": "float32"}}, {"name": "GFF_2/bias", "shape": [64], "dtype": "float32", "quantization": {"dtype": "uint8", "min": -0.03988201841711998, "scale": 0.0003242440521717072, "original_dtype": "float32"}}, {"name": "LFF_1/kernel", "shape": [1, 1, 256, 64], "dtype": "float32", "quantization": {"dtype": "uint8", "min": -0.26301020693545246, "scale": 0.0017651691740634395, "original_dtype": "float32"}}, {"name": "LFF_1/bias", "shape": [64], "dtype": "float32", "quantization": {"dtype": "uint8", "min": -0.022223282568887167, "scale": 0.00019324593538162755, "original_dtype": "float32"}}, {"name": "LFF_10/kernel", "shape": [1, 1, 256, 64], "dtype": "float32", "quantization": {"dtype": "uint8", "min": -0.1900830395081464, "scale": 0.001558057700886446, "original_dtype": "float32"}}, {"name": "LFF_10/bias", "shape": [64], "dtype": "float32", "quantization": {"dtype": "uint8", "min": -0.015964407291190297, "scale": 0.00010299617607219547, "original_dtype": "float32"}}, {"name": "LFF_2/kernel", "shape": [1, 1, 256, 64], "dtype": "float32", "quantization": {"dtype": "uint8", "min": -0.30521462524638454, "scale": 0.00181675372170467, "original_dtype": "float32"}}, {"name": "LFF_2/bias", "shape": [64], "dtype": "float32", "quantization": {"dtype": "uint8", "min": -0.020702453337463678, "scale": 0.00017846942532296275, "original_dtype": "float32"}}, {"name": "LFF_3/kernel", "shape": [1, 1, 256, 64], "dtype": "float32", "quantization": {"dtype": "uint8", "min": -0.2899569111711839, "scale": 0.0017898574763653325, "original_dtype": "float32"}}, {"name": "LFF_3/bias", "shape": [64], "dtype": "float32", "quantization": {"dtype": "uint8", "min": -0.016477218226474872, "scale": 0.00012482741080662783, "original_dtype": "float32"}}, {"name": "LFF_4/kernel", "shape": [1, 1, 256, 64], "dtype": "float32", "quantization": {"dtype": "uint8", "min": -0.2502104865569694, "scale": 0.0017497236822165694, "original_dtype": "float32"}}, {"name": "LFF_4/bias", "shape": [64], "dtype": "float32", "quantization": {"dtype": "uint8", "min": -0.010196651116597887, "scale": 8.641229759828717e-05, "original_dtype": "float32"}}, {"name": "LFF_5/kernel", "shape": [1, 1, 256, 64], "dtype": "float32", "quantization": {"dtype": "uint8", "min": -0.24218502290108623, "scale": 0.0015231762446609198, "original_dtype": "float32"}}, {"name": "LFF_5/bias", "shape": [64], "dtype": "float32", "quantization": {"dtype": "uint8", "min": -0.011741255691238479, "scale": 8.828011797923668e-05, "original_dtype": "float32"}}, {"name": "LFF_6/kernel", "shape": [1, 1, 256, 64], "dtype": "float32", "quantization": {"dtype": "uint8", "min": -0.29912198758592795, "scale": 0.0018695124224120496, "original_dtype": "float32"}}, {"name": "LFF_6/bias", "shape": [64], "dtype": "float32", "quantization": {"dtype": "uint8", "min": -0.015879520003263856, "scale": 0.00011590890513331283, "original_dtype": "float32"}}, {"name": "LFF_7/kernel", "shape": [1, 1, 256, 64], "dtype": "float32", "quantization": {"dtype": "uint8", "min": -0.2399075419879427, "scale": 0.0016545347723306394, "original_dtype": "float32"}}, {"name": "LFF_7/bias", "shape": [64], "dtype": "float32", "quantization": {"dtype": "uint8", "min": -0.023068061324895597, "scale": 0.0001721497113798179, "original_dtype": "float32"}}, {"name": "LFF_8/kernel", "shape": [1, 1, 256, 64], "dtype": "float32", "quantization": {"dtype": "uint8", "min": -0.22637190398047952, "scale": 0.001489288841976839, "original_dtype": "float32"}}, {"name": "LFF_8/bias", "shape": [64], "dtype": "float32", "quantization": {"dtype": "uint8", "min": -0.028948054813286838, "scale": 0.0002244035256843941, "original_dtype": "float32"}}, {"name": "LFF_9/kernel", "shape": [1, 1, 256, 64], "dtype": "float32", "quantization": {"dtype": "uint8", "min": -0.21396431309335373, "scale": 0.0015174773978252037, "original_dtype": "float32"}}, {"name": "LFF_9/bias", "shape": [64], "dtype": "float32", "quantization": {"dtype": "uint8", "min": -0.023996568193622662, "scale": 0.00018747318901267705, "original_dtype": "float32"}}, {"name": "SR/kernel", "shape": [3, 3, 48, 3], "dtype": "float32", "quantization": {"dtype": "uint8", "min": -0.08636306126912434, "scale": 0.0006964763005574544, "original_dtype": "float32"}}, {"name": "SR/bias", "shape": [3], "dtype": "float32", "quantization": {"dtype": "uint8", "min": 0.05574598163366318, "scale": 4.063879742341883e-05, "original_dtype": "float32"}}, {"name": "UPN1/kernel", "shape": [5, 5, 64, 64], "dtype": "float32", "quantization": {"dtype": "uint8", "min": -0.2348576808677, "scale": 0.0018639498481563494, "original_dtype": "float32"}}, {"name": "UPN1/bias", "shape": [64], "dtype": "float32", "quantization": {"dtype": "uint8", "min": -0.038511159665444314, "scale": 0.0004279017740604924, "original_dtype": "float32"}}, {"name": "UPN2/kernel", "shape": [3, 3, 64, 32], "dtype": "float32", "quantization": {"dtype": "uint8", "min": -0.31256094750236063, "scale": 0.0024043149807873895, "original_dtype": "float32"}}, {"name": "UPN2/bias", "shape": [32], "dtype": "float32", "quantization": {"dtype": "uint8", "min": -0.01003966427901212, "scale": 0.00025742728920543896, "original_dtype": "float32"}}, {"name": "UPN3/kernel", "shape": [3, 3, 32, 48], "dtype": "float32", "quantization": {"dtype": "uint8", "min": -0.1746776216170367, "scale": 0.001375414343441234, "original_dtype": "float32"}}, {"name": "UPN3/bias", "shape": [48], "dtype": "float32", "quantization": {"dtype": "uint8", "min": -0.09694568199269911, "scale": 0.0013100767836851232, "original_dtype": "float32"}}]}]}