{"format": "layers-model", "generatedBy": "keras v2.4.0", "convertedBy": "TensorFlow.js Converter v2.0.1.post1", "modelTopology": {"keras_version": "2.4.0", "backend": "tensorflow", "model_config": {"class_name": "Model", "config": {"name": "generator", "layers": [{"class_name": "InputLayer", "config": {"batch_input_shape": [null, null, null, 3], "dtype": "float32", "sparse": false, "ragged": false, "name": "LR"}, "name": "LR", "inbound_nodes": []}, {"class_name": "Conv2D", "config": {"name": "F_m1", "trainable": true, "dtype": "float32", "filters": 64, "kernel_size": [3, 3], "strides": [1, 1], "padding": "same", "data_format": "channels_last", "dilation_rate": [1, 1], "groups": 1, "activation": "linear", "use_bias": true, "kernel_initializer": {"class_name": "RandomUniform", "config": {"minval": -0.05, "maxval": 0.05, "seed": null}}, "bias_initializer": {"class_name": "Zeros", "config": {}}, "kernel_regularizer": null, "bias_regularizer": null, "activity_regularizer": null, "kernel_constraint": null, "bias_constraint": null}, "name": "F_m1", "inbound_nodes": [[["LR", 0, 0, {}]]]}, {"class_name": "Conv2D", "config": {"name": "F_0", "trainable": true, "dtype": "float32", "filters": 64, "kernel_size": [3, 3], "strides": [1, 1], "padding": "same", "data_format": "channels_last", "dilation_rate": [1, 1], "groups": 1, "activation": "linear", "use_bias": true, "kernel_initializer": {"class_name": "RandomUniform", "config": {"minval": -0.05, "maxval": 0.05, "seed": null}}, "bias_initializer": {"class_name": "Zeros", "config": {}}, "kernel_regularizer": null, "bias_regularizer": null, "activity_regularizer": null, "kernel_constraint": null, "bias_constraint": null}, "name": "F_0", "inbound_nodes": [[["F_m1", 0, 0, {}]]]}, {"class_name": "Conv2D", "config": {"name": "F_1_1", "trainable": true, "dtype": "float32", "filters": 64, "kernel_size": [3, 3], "strides": [1, 1], "padding": "same", "data_format": "channels_last", "dilation_rate": [1, 1], "groups": 1, "activation": "linear", "use_bias": true, "kernel_initializer": {"class_name": "RandomUniform", "config": {"minval": -0.05, "maxval": 0.05, "seed": null}}, "bias_initializer": {"class_name": "Zeros", "config": {}}, "kernel_regularizer": null, "bias_regularizer": null, "activity_regularizer": null, "kernel_constraint": null, "bias_constraint": null}, "name": "F_1_1", "inbound_nodes": [[["F_0", 0, 0, {}]]]}, {"class_name": "Activation", "config": {"name": "F_1_1_Relu", "trainable": true, "dtype": "float32", "activation": "relu"}, "name": "F_1_1_Relu", "inbound_nodes": [[["F_1_1", 0, 0, {}]]]}, {"class_name": "Concatenate", "config": {"name": "RDB_Concat_1_1", "trainable": true, "dtype": "float32", "axis": 3}, "name": "RDB_Concat_1_1", "inbound_nodes": [[["F_0", 0, 0, {}], ["F_1_1_Relu", 0, 0, {}]]]}, {"class_name": "Conv2D", "config": {"name": "F_1_2", "trainable": true, "dtype": "float32", "filters": 64, "kernel_size": [3, 3], "strides": [1, 1], "padding": "same", "data_format": "channels_last", "dilation_rate": [1, 1], "groups": 1, "activation": "linear", "use_bias": true, "kernel_initializer": {"class_name": "RandomUniform", "config": {"minval": -0.05, "maxval": 0.05, "seed": null}}, "bias_initializer": {"class_name": "Zeros", "config": {}}, "kernel_regularizer": null, "bias_regularizer": null, "activity_regularizer": null, "kernel_constraint": null, "bias_constraint": null}, "name": "F_1_2", "inbound_nodes": [[["RDB_Concat_1_1", 0, 0, {}]]]}, {"class_name": "Activation", "config": {"name": "F_1_2_Relu", "trainable": true, "dtype": "float32", "activation": "relu"}, "name": "F_1_2_Relu", "inbound_nodes": [[["F_1_2", 0, 0, {}]]]}, {"class_name": "Concatenate", "config": {"name": "RDB_Concat_1_2", "trainable": true, "dtype": "float32", "axis": 3}, "name": "RDB_Concat_1_2", "inbound_nodes": [[["RDB_Concat_1_1", 0, 0, {}], ["F_1_2_Relu", 0, 0, {}]]]}, {"class_name": "Conv2D", "config": {"name": "F_1_3", "trainable": true, "dtype": "float32", "filters": 64, "kernel_size": [3, 3], "strides": [1, 1], "padding": "same", "data_format": "channels_last", "dilation_rate": [1, 1], "groups": 1, "activation": "linear", "use_bias": true, "kernel_initializer": {"class_name": "RandomUniform", "config": {"minval": -0.05, "maxval": 0.05, "seed": null}}, "bias_initializer": {"class_name": "Zeros", "config": {}}, "kernel_regularizer": null, "bias_regularizer": null, "activity_regularizer": null, "kernel_constraint": null, "bias_constraint": null}, "name": "F_1_3", "inbound_nodes": [[["RDB_Concat_1_2", 0, 0, {}]]]}, {"class_name": "Activation", "config": {"name": "F_1_3_Relu", "trainable": true, "dtype": "float32", "activation": "relu"}, "name": "F_1_3_Relu", "inbound_nodes": [[["F_1_3", 0, 0, {}]]]}, {"class_name": "Concatenate", "config": {"name": "RDB_Concat_1_3", "trainable": true, "dtype": "float32", "axis": 3}, "name": "RDB_Concat_1_3", "inbound_nodes": [[["RDB_Concat_1_2", 0, 0, {}], ["F_1_3_Relu", 0, 0, {}]]]}, {"class_name": "Conv2D", "config": {"name": "LFF_1", "trainable": true, "dtype": "float32", "filters": 64, "kernel_size": [1, 1], "strides": [1, 1], "padding": "valid", "data_format": "channels_last", "dilation_rate": [1, 1], "groups": 1, "activation": "linear", "use_bias": true, "kernel_initializer": {"class_name": "RandomUniform", "config": {"minval": -0.05, "maxval": 0.05, "seed": null}}, "bias_initializer": {"class_name": "Zeros", "config": {}}, "kernel_regularizer": null, "bias_regularizer": null, "activity_regularizer": null, "kernel_constraint": null, "bias_constraint": null}, "name": "LFF_1", "inbound_nodes": [[["RDB_Concat_1_3", 0, 0, {}]]]}, {"class_name": "Add", "config": {"name": "LRL_1", "trainable": true, "dtype": "float32"}, "name": "LRL_1", "inbound_nodes": [[["LFF_1", 0, 0, {}], ["F_0", 0, 0, {}]]]}, {"class_name": "Conv2D", "config": {"name": "F_2_1", "trainable": true, "dtype": "float32", "filters": 64, "kernel_size": [3, 3], "strides": [1, 1], "padding": "same", "data_format": "channels_last", "dilation_rate": [1, 1], "groups": 1, "activation": "linear", "use_bias": true, "kernel_initializer": {"class_name": "RandomUniform", "config": {"minval": -0.05, "maxval": 0.05, "seed": null}}, "bias_initializer": {"class_name": "Zeros", "config": {}}, "kernel_regularizer": null, "bias_regularizer": null, "activity_regularizer": null, "kernel_constraint": null, "bias_constraint": null}, "name": "F_2_1", "inbound_nodes": [[["LRL_1", 0, 0, {}]]]}, {"class_name": "Activation", "config": {"name": "F_2_1_Relu", "trainable": true, "dtype": "float32", "activation": "relu"}, "name": "F_2_1_Relu", "inbound_nodes": [[["F_2_1", 0, 0, {}]]]}, {"class_name": "Concatenate", "config": {"name": "RDB_Concat_2_1", "trainable": true, "dtype": "float32", "axis": 3}, "name": "RDB_Concat_2_1", "inbound_nodes": [[["LRL_1", 0, 0, {}], ["F_2_1_Relu", 0, 0, {}]]]}, {"class_name": "Conv2D", "config": {"name": "F_2_2", "trainable": true, "dtype": "float32", "filters": 64, "kernel_size": [3, 3], "strides": [1, 1], "padding": "same", "data_format": "channels_last", "dilation_rate": [1, 1], "groups": 1, "activation": "linear", "use_bias": true, "kernel_initializer": {"class_name": "RandomUniform", "config": {"minval": -0.05, "maxval": 0.05, "seed": null}}, "bias_initializer": {"class_name": "Zeros", "config": {}}, "kernel_regularizer": null, "bias_regularizer": null, "activity_regularizer": null, "kernel_constraint": null, "bias_constraint": null}, "name": "F_2_2", "inbound_nodes": [[["RDB_Concat_2_1", 0, 0, {}]]]}, {"class_name": "Activation", "config": {"name": "F_2_2_Relu", "trainable": true, "dtype": "float32", "activation": "relu"}, "name": "F_2_2_Relu", "inbound_nodes": [[["F_2_2", 0, 0, {}]]]}, {"class_name": "Concatenate", "config": {"name": "RDB_Concat_2_2", "trainable": true, "dtype": "float32", "axis": 3}, "name": "RDB_Concat_2_2", "inbound_nodes": [[["RDB_Concat_2_1", 0, 0, {}], ["F_2_2_Relu", 0, 0, {}]]]}, {"class_name": "Conv2D", "config": {"name": "F_2_3", "trainable": true, "dtype": "float32", "filters": 64, "kernel_size": [3, 3], "strides": [1, 1], "padding": "same", "data_format": "channels_last", "dilation_rate": [1, 1], "groups": 1, "activation": "linear", "use_bias": true, "kernel_initializer": {"class_name": "RandomUniform", "config": {"minval": -0.05, "maxval": 0.05, "seed": null}}, "bias_initializer": {"class_name": "Zeros", "config": {}}, "kernel_regularizer": null, "bias_regularizer": null, "activity_regularizer": null, "kernel_constraint": null, "bias_constraint": null}, "name": "F_2_3", "inbound_nodes": [[["RDB_Concat_2_2", 0, 0, {}]]]}, {"class_name": "Activation", "config": {"name": "F_2_3_Relu", "trainable": true, "dtype": "float32", "activation": "relu"}, "name": "F_2_3_Relu", "inbound_nodes": [[["F_2_3", 0, 0, {}]]]}, {"class_name": "Concatenate", "config": {"name": "RDB_Concat_2_3", "trainable": true, "dtype": "float32", "axis": 3}, "name": "RDB_Concat_2_3", "inbound_nodes": [[["RDB_Concat_2_2", 0, 0, {}], ["F_2_3_Relu", 0, 0, {}]]]}, {"class_name": "Conv2D", "config": {"name": "LFF_2", "trainable": true, "dtype": "float32", "filters": 64, "kernel_size": [1, 1], "strides": [1, 1], "padding": "valid", "data_format": "channels_last", "dilation_rate": [1, 1], "groups": 1, "activation": "linear", "use_bias": true, "kernel_initializer": {"class_name": "RandomUniform", "config": {"minval": -0.05, "maxval": 0.05, "seed": null}}, "bias_initializer": {"class_name": "Zeros", "config": {}}, "kernel_regularizer": null, "bias_regularizer": null, "activity_regularizer": null, "kernel_constraint": null, "bias_constraint": null}, "name": "LFF_2", "inbound_nodes": [[["RDB_Concat_2_3", 0, 0, {}]]]}, {"class_name": "Add", "config": {"name": "LRL_2", "trainable": true, "dtype": "float32"}, "name": "LRL_2", "inbound_nodes": [[["LFF_2", 0, 0, {}], ["LRL_1", 0, 0, {}]]]}, {"class_name": "Conv2D", "config": {"name": "F_3_1", "trainable": true, "dtype": "float32", "filters": 64, "kernel_size": [3, 3], "strides": [1, 1], "padding": "same", "data_format": "channels_last", "dilation_rate": [1, 1], "groups": 1, "activation": "linear", "use_bias": true, "kernel_initializer": {"class_name": "RandomUniform", "config": {"minval": -0.05, "maxval": 0.05, "seed": null}}, "bias_initializer": {"class_name": "Zeros", "config": {}}, "kernel_regularizer": null, "bias_regularizer": null, "activity_regularizer": null, "kernel_constraint": null, "bias_constraint": null}, "name": "F_3_1", "inbound_nodes": [[["LRL_2", 0, 0, {}]]]}, {"class_name": "Activation", "config": {"name": "F_3_1_Relu", "trainable": true, "dtype": "float32", "activation": "relu"}, "name": "F_3_1_Relu", "inbound_nodes": [[["F_3_1", 0, 0, {}]]]}, {"class_name": "Concatenate", "config": {"name": "RDB_Concat_3_1", "trainable": true, "dtype": "float32", "axis": 3}, "name": "RDB_Concat_3_1", "inbound_nodes": [[["LRL_2", 0, 0, {}], ["F_3_1_Relu", 0, 0, {}]]]}, {"class_name": "Conv2D", "config": {"name": "F_3_2", "trainable": true, "dtype": "float32", "filters": 64, "kernel_size": [3, 3], "strides": [1, 1], "padding": "same", "data_format": "channels_last", "dilation_rate": [1, 1], "groups": 1, "activation": "linear", "use_bias": true, "kernel_initializer": {"class_name": "RandomUniform", "config": {"minval": -0.05, "maxval": 0.05, "seed": null}}, "bias_initializer": {"class_name": "Zeros", "config": {}}, "kernel_regularizer": null, "bias_regularizer": null, "activity_regularizer": null, "kernel_constraint": null, "bias_constraint": null}, "name": "F_3_2", "inbound_nodes": [[["RDB_Concat_3_1", 0, 0, {}]]]}, {"class_name": "Activation", "config": {"name": "F_3_2_Relu", "trainable": true, "dtype": "float32", "activation": "relu"}, "name": "F_3_2_Relu", "inbound_nodes": [[["F_3_2", 0, 0, {}]]]}, {"class_name": "Concatenate", "config": {"name": "RDB_Concat_3_2", "trainable": true, "dtype": "float32", "axis": 3}, "name": "RDB_Concat_3_2", "inbound_nodes": [[["RDB_Concat_3_1", 0, 0, {}], ["F_3_2_Relu", 0, 0, {}]]]}, {"class_name": "Conv2D", "config": {"name": "F_3_3", "trainable": true, "dtype": "float32", "filters": 64, "kernel_size": [3, 3], "strides": [1, 1], "padding": "same", "data_format": "channels_last", "dilation_rate": [1, 1], "groups": 1, "activation": "linear", "use_bias": true, "kernel_initializer": {"class_name": "RandomUniform", "config": {"minval": -0.05, "maxval": 0.05, "seed": null}}, "bias_initializer": {"class_name": "Zeros", "config": {}}, "kernel_regularizer": null, "bias_regularizer": null, "activity_regularizer": null, "kernel_constraint": null, "bias_constraint": null}, "name": "F_3_3", "inbound_nodes": [[["RDB_Concat_3_2", 0, 0, {}]]]}, {"class_name": "Activation", "config": {"name": "F_3_3_Relu", "trainable": true, "dtype": "float32", "activation": "relu"}, "name": "F_3_3_Relu", "inbound_nodes": [[["F_3_3", 0, 0, {}]]]}, {"class_name": "Concatenate", "config": {"name": "RDB_Concat_3_3", "trainable": true, "dtype": "float32", "axis": 3}, "name": "RDB_Concat_3_3", "inbound_nodes": [[["RDB_Concat_3_2", 0, 0, {}], ["F_3_3_Relu", 0, 0, {}]]]}, {"class_name": "Conv2D", "config": {"name": "LFF_3", "trainable": true, "dtype": "float32", "filters": 64, "kernel_size": [1, 1], "strides": [1, 1], "padding": "valid", "data_format": "channels_last", "dilation_rate": [1, 1], "groups": 1, "activation": "linear", "use_bias": true, "kernel_initializer": {"class_name": "RandomUniform", "config": {"minval": -0.05, "maxval": 0.05, "seed": null}}, "bias_initializer": {"class_name": "Zeros", "config": {}}, "kernel_regularizer": null, "bias_regularizer": null, "activity_regularizer": null, "kernel_constraint": null, "bias_constraint": null}, "name": "LFF_3", "inbound_nodes": [[["RDB_Concat_3_3", 0, 0, {}]]]}, {"class_name": "Add", "config": {"name": "LRL_3", "trainable": true, "dtype": "float32"}, "name": "LRL_3", "inbound_nodes": [[["LFF_3", 0, 0, {}], ["LRL_2", 0, 0, {}]]]}, {"class_name": "Conv2D", "config": {"name": "F_4_1", "trainable": true, "dtype": "float32", "filters": 64, "kernel_size": [3, 3], "strides": [1, 1], "padding": "same", "data_format": "channels_last", "dilation_rate": [1, 1], "groups": 1, "activation": "linear", "use_bias": true, "kernel_initializer": {"class_name": "RandomUniform", "config": {"minval": -0.05, "maxval": 0.05, "seed": null}}, "bias_initializer": {"class_name": "Zeros", "config": {}}, "kernel_regularizer": null, "bias_regularizer": null, "activity_regularizer": null, "kernel_constraint": null, "bias_constraint": null}, "name": "F_4_1", "inbound_nodes": [[["LRL_3", 0, 0, {}]]]}, {"class_name": "Activation", "config": {"name": "F_4_1_Relu", "trainable": true, "dtype": "float32", "activation": "relu"}, "name": "F_4_1_Relu", "inbound_nodes": [[["F_4_1", 0, 0, {}]]]}, {"class_name": "Concatenate", "config": {"name": "RDB_Concat_4_1", "trainable": true, "dtype": "float32", "axis": 3}, "name": "RDB_Concat_4_1", "inbound_nodes": [[["LRL_3", 0, 0, {}], ["F_4_1_Relu", 0, 0, {}]]]}, {"class_name": "Conv2D", "config": {"name": "F_4_2", "trainable": true, "dtype": "float32", "filters": 64, "kernel_size": [3, 3], "strides": [1, 1], "padding": "same", "data_format": "channels_last", "dilation_rate": [1, 1], "groups": 1, "activation": "linear", "use_bias": true, "kernel_initializer": {"class_name": "RandomUniform", "config": {"minval": -0.05, "maxval": 0.05, "seed": null}}, "bias_initializer": {"class_name": "Zeros", "config": {}}, "kernel_regularizer": null, "bias_regularizer": null, "activity_regularizer": null, "kernel_constraint": null, "bias_constraint": null}, "name": "F_4_2", "inbound_nodes": [[["RDB_Concat_4_1", 0, 0, {}]]]}, {"class_name": "Activation", "config": {"name": "F_4_2_Relu", "trainable": true, "dtype": "float32", "activation": "relu"}, "name": "F_4_2_Relu", "inbound_nodes": [[["F_4_2", 0, 0, {}]]]}, {"class_name": "Concatenate", "config": {"name": "RDB_Concat_4_2", "trainable": true, "dtype": "float32", "axis": 3}, "name": "RDB_Concat_4_2", "inbound_nodes": [[["RDB_Concat_4_1", 0, 0, {}], ["F_4_2_Relu", 0, 0, {}]]]}, {"class_name": "Conv2D", "config": {"name": "F_4_3", "trainable": true, "dtype": "float32", "filters": 64, "kernel_size": [3, 3], "strides": [1, 1], "padding": "same", "data_format": "channels_last", "dilation_rate": [1, 1], "groups": 1, "activation": "linear", "use_bias": true, "kernel_initializer": {"class_name": "RandomUniform", "config": {"minval": -0.05, "maxval": 0.05, "seed": null}}, "bias_initializer": {"class_name": "Zeros", "config": {}}, "kernel_regularizer": null, "bias_regularizer": null, "activity_regularizer": null, "kernel_constraint": null, "bias_constraint": null}, "name": "F_4_3", "inbound_nodes": [[["RDB_Concat_4_2", 0, 0, {}]]]}, {"class_name": "Activation", "config": {"name": "F_4_3_Relu", "trainable": true, "dtype": "float32", "activation": "relu"}, "name": "F_4_3_Relu", "inbound_nodes": [[["F_4_3", 0, 0, {}]]]}, {"class_name": "Concatenate", "config": {"name": "RDB_Concat_4_3", "trainable": true, "dtype": "float32", "axis": 3}, "name": "RDB_Concat_4_3", "inbound_nodes": [[["RDB_Concat_4_2", 0, 0, {}], ["F_4_3_Relu", 0, 0, {}]]]}, {"class_name": "Conv2D", "config": {"name": "LFF_4", "trainable": true, "dtype": "float32", "filters": 64, "kernel_size": [1, 1], "strides": [1, 1], "padding": "valid", "data_format": "channels_last", "dilation_rate": [1, 1], "groups": 1, "activation": "linear", "use_bias": true, "kernel_initializer": {"class_name": "RandomUniform", "config": {"minval": -0.05, "maxval": 0.05, "seed": null}}, "bias_initializer": {"class_name": "Zeros", "config": {}}, "kernel_regularizer": null, "bias_regularizer": null, "activity_regularizer": null, "kernel_constraint": null, "bias_constraint": null}, "name": "LFF_4", "inbound_nodes": [[["RDB_Concat_4_3", 0, 0, {}]]]}, {"class_name": "Add", "config": {"name": "LRL_4", "trainable": true, "dtype": "float32"}, "name": "LRL_4", "inbound_nodes": [[["LFF_4", 0, 0, {}], ["LRL_3", 0, 0, {}]]]}, {"class_name": "Conv2D", "config": {"name": "F_5_1", "trainable": true, "dtype": "float32", "filters": 64, "kernel_size": [3, 3], "strides": [1, 1], "padding": "same", "data_format": "channels_last", "dilation_rate": [1, 1], "groups": 1, "activation": "linear", "use_bias": true, "kernel_initializer": {"class_name": "RandomUniform", "config": {"minval": -0.05, "maxval": 0.05, "seed": null}}, "bias_initializer": {"class_name": "Zeros", "config": {}}, "kernel_regularizer": null, "bias_regularizer": null, "activity_regularizer": null, "kernel_constraint": null, "bias_constraint": null}, "name": "F_5_1", "inbound_nodes": [[["LRL_4", 0, 0, {}]]]}, {"class_name": "Activation", "config": {"name": "F_5_1_Relu", "trainable": true, "dtype": "float32", "activation": "relu"}, "name": "F_5_1_Relu", "inbound_nodes": [[["F_5_1", 0, 0, {}]]]}, {"class_name": "Concatenate", "config": {"name": "RDB_Concat_5_1", "trainable": true, "dtype": "float32", "axis": 3}, "name": "RDB_Concat_5_1", "inbound_nodes": [[["LRL_4", 0, 0, {}], ["F_5_1_Relu", 0, 0, {}]]]}, {"class_name": "Conv2D", "config": {"name": "F_5_2", "trainable": true, "dtype": "float32", "filters": 64, "kernel_size": [3, 3], "strides": [1, 1], "padding": "same", "data_format": "channels_last", "dilation_rate": [1, 1], "groups": 1, "activation": "linear", "use_bias": true, "kernel_initializer": {"class_name": "RandomUniform", "config": {"minval": -0.05, "maxval": 0.05, "seed": null}}, "bias_initializer": {"class_name": "Zeros", "config": {}}, "kernel_regularizer": null, "bias_regularizer": null, "activity_regularizer": null, "kernel_constraint": null, "bias_constraint": null}, "name": "F_5_2", "inbound_nodes": [[["RDB_Concat_5_1", 0, 0, {}]]]}, {"class_name": "Activation", "config": {"name": "F_5_2_Relu", "trainable": true, "dtype": "float32", "activation": "relu"}, "name": "F_5_2_Relu", "inbound_nodes": [[["F_5_2", 0, 0, {}]]]}, {"class_name": "Concatenate", "config": {"name": "RDB_Concat_5_2", "trainable": true, "dtype": "float32", "axis": 3}, "name": "RDB_Concat_5_2", "inbound_nodes": [[["RDB_Concat_5_1", 0, 0, {}], ["F_5_2_Relu", 0, 0, {}]]]}, {"class_name": "Conv2D", "config": {"name": "F_5_3", "trainable": true, "dtype": "float32", "filters": 64, "kernel_size": [3, 3], "strides": [1, 1], "padding": "same", "data_format": "channels_last", "dilation_rate": [1, 1], "groups": 1, "activation": "linear", "use_bias": true, "kernel_initializer": {"class_name": "RandomUniform", "config": {"minval": -0.05, "maxval": 0.05, "seed": null}}, "bias_initializer": {"class_name": "Zeros", "config": {}}, "kernel_regularizer": null, "bias_regularizer": null, "activity_regularizer": null, "kernel_constraint": null, "bias_constraint": null}, "name": "F_5_3", "inbound_nodes": [[["RDB_Concat_5_2", 0, 0, {}]]]}, {"class_name": "Activation", "config": {"name": "F_5_3_Relu", "trainable": true, "dtype": "float32", "activation": "relu"}, "name": "F_5_3_Relu", "inbound_nodes": [[["F_5_3", 0, 0, {}]]]}, {"class_name": "Concatenate", "config": {"name": "RDB_Concat_5_3", "trainable": true, "dtype": "float32", "axis": 3}, "name": "RDB_Concat_5_3", "inbound_nodes": [[["RDB_Concat_5_2", 0, 0, {}], ["F_5_3_Relu", 0, 0, {}]]]}, {"class_name": "Conv2D", "config": {"name": "LFF_5", "trainable": true, "dtype": "float32", "filters": 64, "kernel_size": [1, 1], "strides": [1, 1], "padding": "valid", "data_format": "channels_last", "dilation_rate": [1, 1], "groups": 1, "activation": "linear", "use_bias": true, "kernel_initializer": {"class_name": "RandomUniform", "config": {"minval": -0.05, "maxval": 0.05, "seed": null}}, "bias_initializer": {"class_name": "Zeros", "config": {}}, "kernel_regularizer": null, "bias_regularizer": null, "activity_regularizer": null, "kernel_constraint": null, "bias_constraint": null}, "name": "LFF_5", "inbound_nodes": [[["RDB_Concat_5_3", 0, 0, {}]]]}, {"class_name": "Add", "config": {"name": "LRL_5", "trainable": true, "dtype": "float32"}, "name": "LRL_5", "inbound_nodes": [[["LFF_5", 0, 0, {}], ["LRL_4", 0, 0, {}]]]}, {"class_name": "Conv2D", "config": {"name": "F_6_1", "trainable": true, "dtype": "float32", "filters": 64, "kernel_size": [3, 3], "strides": [1, 1], "padding": "same", "data_format": "channels_last", "dilation_rate": [1, 1], "groups": 1, "activation": "linear", "use_bias": true, "kernel_initializer": {"class_name": "RandomUniform", "config": {"minval": -0.05, "maxval": 0.05, "seed": null}}, "bias_initializer": {"class_name": "Zeros", "config": {}}, "kernel_regularizer": null, "bias_regularizer": null, "activity_regularizer": null, "kernel_constraint": null, "bias_constraint": null}, "name": "F_6_1", "inbound_nodes": [[["LRL_5", 0, 0, {}]]]}, {"class_name": "Activation", "config": {"name": "F_6_1_Relu", "trainable": true, "dtype": "float32", "activation": "relu"}, "name": "F_6_1_Relu", "inbound_nodes": [[["F_6_1", 0, 0, {}]]]}, {"class_name": "Concatenate", "config": {"name": "RDB_Concat_6_1", "trainable": true, "dtype": "float32", "axis": 3}, "name": "RDB_Concat_6_1", "inbound_nodes": [[["LRL_5", 0, 0, {}], ["F_6_1_Relu", 0, 0, {}]]]}, {"class_name": "Conv2D", "config": {"name": "F_6_2", "trainable": true, "dtype": "float32", "filters": 64, "kernel_size": [3, 3], "strides": [1, 1], "padding": "same", "data_format": "channels_last", "dilation_rate": [1, 1], "groups": 1, "activation": "linear", "use_bias": true, "kernel_initializer": {"class_name": "RandomUniform", "config": {"minval": -0.05, "maxval": 0.05, "seed": null}}, "bias_initializer": {"class_name": "Zeros", "config": {}}, "kernel_regularizer": null, "bias_regularizer": null, "activity_regularizer": null, "kernel_constraint": null, "bias_constraint": null}, "name": "F_6_2", "inbound_nodes": [[["RDB_Concat_6_1", 0, 0, {}]]]}, {"class_name": "Activation", "config": {"name": "F_6_2_Relu", "trainable": true, "dtype": "float32", "activation": "relu"}, "name": "F_6_2_Relu", "inbound_nodes": [[["F_6_2", 0, 0, {}]]]}, {"class_name": "Concatenate", "config": {"name": "RDB_Concat_6_2", "trainable": true, "dtype": "float32", "axis": 3}, "name": "RDB_Concat_6_2", "inbound_nodes": [[["RDB_Concat_6_1", 0, 0, {}], ["F_6_2_Relu", 0, 0, {}]]]}, {"class_name": "Conv2D", "config": {"name": "F_6_3", "trainable": true, "dtype": "float32", "filters": 64, "kernel_size": [3, 3], "strides": [1, 1], "padding": "same", "data_format": "channels_last", "dilation_rate": [1, 1], "groups": 1, "activation": "linear", "use_bias": true, "kernel_initializer": {"class_name": "RandomUniform", "config": {"minval": -0.05, "maxval": 0.05, "seed": null}}, "bias_initializer": {"class_name": "Zeros", "config": {}}, "kernel_regularizer": null, "bias_regularizer": null, "activity_regularizer": null, "kernel_constraint": null, "bias_constraint": null}, "name": "F_6_3", "inbound_nodes": [[["RDB_Concat_6_2", 0, 0, {}]]]}, {"class_name": "Activation", "config": {"name": "F_6_3_Relu", "trainable": true, "dtype": "float32", "activation": "relu"}, "name": "F_6_3_Relu", "inbound_nodes": [[["F_6_3", 0, 0, {}]]]}, {"class_name": "Concatenate", "config": {"name": "RDB_Concat_6_3", "trainable": true, "dtype": "float32", "axis": 3}, "name": "RDB_Concat_6_3", "inbound_nodes": [[["RDB_Concat_6_2", 0, 0, {}], ["F_6_3_Relu", 0, 0, {}]]]}, {"class_name": "Conv2D", "config": {"name": "LFF_6", "trainable": true, "dtype": "float32", "filters": 64, "kernel_size": [1, 1], "strides": [1, 1], "padding": "valid", "data_format": "channels_last", "dilation_rate": [1, 1], "groups": 1, "activation": "linear", "use_bias": true, "kernel_initializer": {"class_name": "RandomUniform", "config": {"minval": -0.05, "maxval": 0.05, "seed": null}}, "bias_initializer": {"class_name": "Zeros", "config": {}}, "kernel_regularizer": null, "bias_regularizer": null, "activity_regularizer": null, "kernel_constraint": null, "bias_constraint": null}, "name": "LFF_6", "inbound_nodes": [[["RDB_Concat_6_3", 0, 0, {}]]]}, {"class_name": "Add", "config": {"name": "LRL_6", "trainable": true, "dtype": "float32"}, "name": "LRL_6", "inbound_nodes": [[["LFF_6", 0, 0, {}], ["LRL_5", 0, 0, {}]]]}, {"class_name": "Conv2D", "config": {"name": "F_7_1", "trainable": true, "dtype": "float32", "filters": 64, "kernel_size": [3, 3], "strides": [1, 1], "padding": "same", "data_format": "channels_last", "dilation_rate": [1, 1], "groups": 1, "activation": "linear", "use_bias": true, "kernel_initializer": {"class_name": "RandomUniform", "config": {"minval": -0.05, "maxval": 0.05, "seed": null}}, "bias_initializer": {"class_name": "Zeros", "config": {}}, "kernel_regularizer": null, "bias_regularizer": null, "activity_regularizer": null, "kernel_constraint": null, "bias_constraint": null}, "name": "F_7_1", "inbound_nodes": [[["LRL_6", 0, 0, {}]]]}, {"class_name": "Activation", "config": {"name": "F_7_1_Relu", "trainable": true, "dtype": "float32", "activation": "relu"}, "name": "F_7_1_Relu", "inbound_nodes": [[["F_7_1", 0, 0, {}]]]}, {"class_name": "Concatenate", "config": {"name": "RDB_Concat_7_1", "trainable": true, "dtype": "float32", "axis": 3}, "name": "RDB_Concat_7_1", "inbound_nodes": [[["LRL_6", 0, 0, {}], ["F_7_1_Relu", 0, 0, {}]]]}, {"class_name": "Conv2D", "config": {"name": "F_7_2", "trainable": true, "dtype": "float32", "filters": 64, "kernel_size": [3, 3], "strides": [1, 1], "padding": "same", "data_format": "channels_last", "dilation_rate": [1, 1], "groups": 1, "activation": "linear", "use_bias": true, "kernel_initializer": {"class_name": "RandomUniform", "config": {"minval": -0.05, "maxval": 0.05, "seed": null}}, "bias_initializer": {"class_name": "Zeros", "config": {}}, "kernel_regularizer": null, "bias_regularizer": null, "activity_regularizer": null, "kernel_constraint": null, "bias_constraint": null}, "name": "F_7_2", "inbound_nodes": [[["RDB_Concat_7_1", 0, 0, {}]]]}, {"class_name": "Activation", "config": {"name": "F_7_2_Relu", "trainable": true, "dtype": "float32", "activation": "relu"}, "name": "F_7_2_Relu", "inbound_nodes": [[["F_7_2", 0, 0, {}]]]}, {"class_name": "Concatenate", "config": {"name": "RDB_Concat_7_2", "trainable": true, "dtype": "float32", "axis": 3}, "name": "RDB_Concat_7_2", "inbound_nodes": [[["RDB_Concat_7_1", 0, 0, {}], ["F_7_2_Relu", 0, 0, {}]]]}, {"class_name": "Conv2D", "config": {"name": "F_7_3", "trainable": true, "dtype": "float32", "filters": 64, "kernel_size": [3, 3], "strides": [1, 1], "padding": "same", "data_format": "channels_last", "dilation_rate": [1, 1], "groups": 1, "activation": "linear", "use_bias": true, "kernel_initializer": {"class_name": "RandomUniform", "config": {"minval": -0.05, "maxval": 0.05, "seed": null}}, "bias_initializer": {"class_name": "Zeros", "config": {}}, "kernel_regularizer": null, "bias_regularizer": null, "activity_regularizer": null, "kernel_constraint": null, "bias_constraint": null}, "name": "F_7_3", "inbound_nodes": [[["RDB_Concat_7_2", 0, 0, {}]]]}, {"class_name": "Activation", "config": {"name": "F_7_3_Relu", "trainable": true, "dtype": "float32", "activation": "relu"}, "name": "F_7_3_Relu", "inbound_nodes": [[["F_7_3", 0, 0, {}]]]}, {"class_name": "Concatenate", "config": {"name": "RDB_Concat_7_3", "trainable": true, "dtype": "float32", "axis": 3}, "name": "RDB_Concat_7_3", "inbound_nodes": [[["RDB_Concat_7_2", 0, 0, {}], ["F_7_3_Relu", 0, 0, {}]]]}, {"class_name": "Conv2D", "config": {"name": "LFF_7", "trainable": true, "dtype": "float32", "filters": 64, "kernel_size": [1, 1], "strides": [1, 1], "padding": "valid", "data_format": "channels_last", "dilation_rate": [1, 1], "groups": 1, "activation": "linear", "use_bias": true, "kernel_initializer": {"class_name": "RandomUniform", "config": {"minval": -0.05, "maxval": 0.05, "seed": null}}, "bias_initializer": {"class_name": "Zeros", "config": {}}, "kernel_regularizer": null, "bias_regularizer": null, "activity_regularizer": null, "kernel_constraint": null, "bias_constraint": null}, "name": "LFF_7", "inbound_nodes": [[["RDB_Concat_7_3", 0, 0, {}]]]}, {"class_name": "Add", "config": {"name": "LRL_7", "trainable": true, "dtype": "float32"}, "name": "LRL_7", "inbound_nodes": [[["LFF_7", 0, 0, {}], ["LRL_6", 0, 0, {}]]]}, {"class_name": "Conv2D", "config": {"name": "F_8_1", "trainable": true, "dtype": "float32", "filters": 64, "kernel_size": [3, 3], "strides": [1, 1], "padding": "same", "data_format": "channels_last", "dilation_rate": [1, 1], "groups": 1, "activation": "linear", "use_bias": true, "kernel_initializer": {"class_name": "RandomUniform", "config": {"minval": -0.05, "maxval": 0.05, "seed": null}}, "bias_initializer": {"class_name": "Zeros", "config": {}}, "kernel_regularizer": null, "bias_regularizer": null, "activity_regularizer": null, "kernel_constraint": null, "bias_constraint": null}, "name": "F_8_1", "inbound_nodes": [[["LRL_7", 0, 0, {}]]]}, {"class_name": "Activation", "config": {"name": "F_8_1_Relu", "trainable": true, "dtype": "float32", "activation": "relu"}, "name": "F_8_1_Relu", "inbound_nodes": [[["F_8_1", 0, 0, {}]]]}, {"class_name": "Concatenate", "config": {"name": "RDB_Concat_8_1", "trainable": true, "dtype": "float32", "axis": 3}, "name": "RDB_Concat_8_1", "inbound_nodes": [[["LRL_7", 0, 0, {}], ["F_8_1_Relu", 0, 0, {}]]]}, {"class_name": "Conv2D", "config": {"name": "F_8_2", "trainable": true, "dtype": "float32", "filters": 64, "kernel_size": [3, 3], "strides": [1, 1], "padding": "same", "data_format": "channels_last", "dilation_rate": [1, 1], "groups": 1, "activation": "linear", "use_bias": true, "kernel_initializer": {"class_name": "RandomUniform", "config": {"minval": -0.05, "maxval": 0.05, "seed": null}}, "bias_initializer": {"class_name": "Zeros", "config": {}}, "kernel_regularizer": null, "bias_regularizer": null, "activity_regularizer": null, "kernel_constraint": null, "bias_constraint": null}, "name": "F_8_2", "inbound_nodes": [[["RDB_Concat_8_1", 0, 0, {}]]]}, {"class_name": "Activation", "config": {"name": "F_8_2_Relu", "trainable": true, "dtype": "float32", "activation": "relu"}, "name": "F_8_2_Relu", "inbound_nodes": [[["F_8_2", 0, 0, {}]]]}, {"class_name": "Concatenate", "config": {"name": "RDB_Concat_8_2", "trainable": true, "dtype": "float32", "axis": 3}, "name": "RDB_Concat_8_2", "inbound_nodes": [[["RDB_Concat_8_1", 0, 0, {}], ["F_8_2_Relu", 0, 0, {}]]]}, {"class_name": "Conv2D", "config": {"name": "F_8_3", "trainable": true, "dtype": "float32", "filters": 64, "kernel_size": [3, 3], "strides": [1, 1], "padding": "same", "data_format": "channels_last", "dilation_rate": [1, 1], "groups": 1, "activation": "linear", "use_bias": true, "kernel_initializer": {"class_name": "RandomUniform", "config": {"minval": -0.05, "maxval": 0.05, "seed": null}}, "bias_initializer": {"class_name": "Zeros", "config": {}}, "kernel_regularizer": null, "bias_regularizer": null, "activity_regularizer": null, "kernel_constraint": null, "bias_constraint": null}, "name": "F_8_3", "inbound_nodes": [[["RDB_Concat_8_2", 0, 0, {}]]]}, {"class_name": "Activation", "config": {"name": "F_8_3_Relu", "trainable": true, "dtype": "float32", "activation": "relu"}, "name": "F_8_3_Relu", "inbound_nodes": [[["F_8_3", 0, 0, {}]]]}, {"class_name": "Concatenate", "config": {"name": "RDB_Concat_8_3", "trainable": true, "dtype": "float32", "axis": 3}, "name": "RDB_Concat_8_3", "inbound_nodes": [[["RDB_Concat_8_2", 0, 0, {}], ["F_8_3_Relu", 0, 0, {}]]]}, {"class_name": "Conv2D", "config": {"name": "LFF_8", "trainable": true, "dtype": "float32", "filters": 64, "kernel_size": [1, 1], "strides": [1, 1], "padding": "valid", "data_format": "channels_last", "dilation_rate": [1, 1], "groups": 1, "activation": "linear", "use_bias": true, "kernel_initializer": {"class_name": "RandomUniform", "config": {"minval": -0.05, "maxval": 0.05, "seed": null}}, "bias_initializer": {"class_name": "Zeros", "config": {}}, "kernel_regularizer": null, "bias_regularizer": null, "activity_regularizer": null, "kernel_constraint": null, "bias_constraint": null}, "name": "LFF_8", "inbound_nodes": [[["RDB_Concat_8_3", 0, 0, {}]]]}, {"class_name": "Add", "config": {"name": "LRL_8", "trainable": true, "dtype": "float32"}, "name": "LRL_8", "inbound_nodes": [[["LFF_8", 0, 0, {}], ["LRL_7", 0, 0, {}]]]}, {"class_name": "Conv2D", "config": {"name": "F_9_1", "trainable": true, "dtype": "float32", "filters": 64, "kernel_size": [3, 3], "strides": [1, 1], "padding": "same", "data_format": "channels_last", "dilation_rate": [1, 1], "groups": 1, "activation": "linear", "use_bias": true, "kernel_initializer": {"class_name": "RandomUniform", "config": {"minval": -0.05, "maxval": 0.05, "seed": null}}, "bias_initializer": {"class_name": "Zeros", "config": {}}, "kernel_regularizer": null, "bias_regularizer": null, "activity_regularizer": null, "kernel_constraint": null, "bias_constraint": null}, "name": "F_9_1", "inbound_nodes": [[["LRL_8", 0, 0, {}]]]}, {"class_name": "Activation", "config": {"name": "F_9_1_Relu", "trainable": true, "dtype": "float32", "activation": "relu"}, "name": "F_9_1_Relu", "inbound_nodes": [[["F_9_1", 0, 0, {}]]]}, {"class_name": "Concatenate", "config": {"name": "RDB_Concat_9_1", "trainable": true, "dtype": "float32", "axis": 3}, "name": "RDB_Concat_9_1", "inbound_nodes": [[["LRL_8", 0, 0, {}], ["F_9_1_Relu", 0, 0, {}]]]}, {"class_name": "Conv2D", "config": {"name": "F_9_2", "trainable": true, "dtype": "float32", "filters": 64, "kernel_size": [3, 3], "strides": [1, 1], "padding": "same", "data_format": "channels_last", "dilation_rate": [1, 1], "groups": 1, "activation": "linear", "use_bias": true, "kernel_initializer": {"class_name": "RandomUniform", "config": {"minval": -0.05, "maxval": 0.05, "seed": null}}, "bias_initializer": {"class_name": "Zeros", "config": {}}, "kernel_regularizer": null, "bias_regularizer": null, "activity_regularizer": null, "kernel_constraint": null, "bias_constraint": null}, "name": "F_9_2", "inbound_nodes": [[["RDB_Concat_9_1", 0, 0, {}]]]}, {"class_name": "Activation", "config": {"name": "F_9_2_Relu", "trainable": true, "dtype": "float32", "activation": "relu"}, "name": "F_9_2_Relu", "inbound_nodes": [[["F_9_2", 0, 0, {}]]]}, {"class_name": "Concatenate", "config": {"name": "RDB_Concat_9_2", "trainable": true, "dtype": "float32", "axis": 3}, "name": "RDB_Concat_9_2", "inbound_nodes": [[["RDB_Concat_9_1", 0, 0, {}], ["F_9_2_Relu", 0, 0, {}]]]}, {"class_name": "Conv2D", "config": {"name": "F_9_3", "trainable": true, "dtype": "float32", "filters": 64, "kernel_size": [3, 3], "strides": [1, 1], "padding": "same", "data_format": "channels_last", "dilation_rate": [1, 1], "groups": 1, "activation": "linear", "use_bias": true, "kernel_initializer": {"class_name": "RandomUniform", "config": {"minval": -0.05, "maxval": 0.05, "seed": null}}, "bias_initializer": {"class_name": "Zeros", "config": {}}, "kernel_regularizer": null, "bias_regularizer": null, "activity_regularizer": null, "kernel_constraint": null, "bias_constraint": null}, "name": "F_9_3", "inbound_nodes": [[["RDB_Concat_9_2", 0, 0, {}]]]}, {"class_name": "Activation", "config": {"name": "F_9_3_Relu", "trainable": true, "dtype": "float32", "activation": "relu"}, "name": "F_9_3_Relu", "inbound_nodes": [[["F_9_3", 0, 0, {}]]]}, {"class_name": "Concatenate", "config": {"name": "RDB_Concat_9_3", "trainable": true, "dtype": "float32", "axis": 3}, "name": "RDB_Concat_9_3", "inbound_nodes": [[["RDB_Concat_9_2", 0, 0, {}], ["F_9_3_Relu", 0, 0, {}]]]}, {"class_name": "Conv2D", "config": {"name": "LFF_9", "trainable": true, "dtype": "float32", "filters": 64, "kernel_size": [1, 1], "strides": [1, 1], "padding": "valid", "data_format": "channels_last", "dilation_rate": [1, 1], "groups": 1, "activation": "linear", "use_bias": true, "kernel_initializer": {"class_name": "RandomUniform", "config": {"minval": -0.05, "maxval": 0.05, "seed": null}}, "bias_initializer": {"class_name": "Zeros", "config": {}}, "kernel_regularizer": null, "bias_regularizer": null, "activity_regularizer": null, "kernel_constraint": null, "bias_constraint": null}, "name": "LFF_9", "inbound_nodes": [[["RDB_Concat_9_3", 0, 0, {}]]]}, {"class_name": "Add", "config": {"name": "LRL_9", "trainable": true, "dtype": "float32"}, "name": "LRL_9", "inbound_nodes": [[["LFF_9", 0, 0, {}], ["LRL_8", 0, 0, {}]]]}, {"class_name": "Conv2D", "config": {"name": "F_10_1", "trainable": true, "dtype": "float32", "filters": 64, "kernel_size": [3, 3], "strides": [1, 1], "padding": "same", "data_format": "channels_last", "dilation_rate": [1, 1], "groups": 1, "activation": "linear", "use_bias": true, "kernel_initializer": {"class_name": "RandomUniform", "config": {"minval": -0.05, "maxval": 0.05, "seed": null}}, "bias_initializer": {"class_name": "Zeros", "config": {}}, "kernel_regularizer": null, "bias_regularizer": null, "activity_regularizer": null, "kernel_constraint": null, "bias_constraint": null}, "name": "F_10_1", "inbound_nodes": [[["LRL_9", 0, 0, {}]]]}, {"class_name": "Activation", "config": {"name": "F_10_1_Relu", "trainable": true, "dtype": "float32", "activation": "relu"}, "name": "F_10_1_Relu", "inbound_nodes": [[["F_10_1", 0, 0, {}]]]}, {"class_name": "Concatenate", "config": {"name": "RDB_Concat_10_1", "trainable": true, "dtype": "float32", "axis": 3}, "name": "RDB_Concat_10_1", "inbound_nodes": [[["LRL_9", 0, 0, {}], ["F_10_1_Relu", 0, 0, {}]]]}, {"class_name": "Conv2D", "config": {"name": "F_10_2", "trainable": true, "dtype": "float32", "filters": 64, "kernel_size": [3, 3], "strides": [1, 1], "padding": "same", "data_format": "channels_last", "dilation_rate": [1, 1], "groups": 1, "activation": "linear", "use_bias": true, "kernel_initializer": {"class_name": "RandomUniform", "config": {"minval": -0.05, "maxval": 0.05, "seed": null}}, "bias_initializer": {"class_name": "Zeros", "config": {}}, "kernel_regularizer": null, "bias_regularizer": null, "activity_regularizer": null, "kernel_constraint": null, "bias_constraint": null}, "name": "F_10_2", "inbound_nodes": [[["RDB_Concat_10_1", 0, 0, {}]]]}, {"class_name": "Activation", "config": {"name": "F_10_2_Relu", "trainable": true, "dtype": "float32", "activation": "relu"}, "name": "F_10_2_Relu", "inbound_nodes": [[["F_10_2", 0, 0, {}]]]}, {"class_name": "Concatenate", "config": {"name": "RDB_Concat_10_2", "trainable": true, "dtype": "float32", "axis": 3}, "name": "RDB_Concat_10_2", "inbound_nodes": [[["RDB_Concat_10_1", 0, 0, {}], ["F_10_2_Relu", 0, 0, {}]]]}, {"class_name": "Conv2D", "config": {"name": "F_10_3", "trainable": true, "dtype": "float32", "filters": 64, "kernel_size": [3, 3], "strides": [1, 1], "padding": "same", "data_format": "channels_last", "dilation_rate": [1, 1], "groups": 1, "activation": "linear", "use_bias": true, "kernel_initializer": {"class_name": "RandomUniform", "config": {"minval": -0.05, "maxval": 0.05, "seed": null}}, "bias_initializer": {"class_name": "Zeros", "config": {}}, "kernel_regularizer": null, "bias_regularizer": null, "activity_regularizer": null, "kernel_constraint": null, "bias_constraint": null}, "name": "F_10_3", "inbound_nodes": [[["RDB_Concat_10_2", 0, 0, {}]]]}, {"class_name": "Activation", "config": {"name": "F_10_3_Relu", "trainable": true, "dtype": "float32", "activation": "relu"}, "name": "F_10_3_Relu", "inbound_nodes": [[["F_10_3", 0, 0, {}]]]}, {"class_name": "Concatenate", "config": {"name": "RDB_Concat_10_3", "trainable": true, "dtype": "float32", "axis": 3}, "name": "RDB_Concat_10_3", "inbound_nodes": [[["RDB_Concat_10_2", 0, 0, {}], ["F_10_3_Relu", 0, 0, {}]]]}, {"class_name": "Conv2D", "config": {"name": "LFF_10", "trainable": true, "dtype": "float32", "filters": 64, "kernel_size": [1, 1], "strides": [1, 1], "padding": "valid", "data_format": "channels_last", "dilation_rate": [1, 1], "groups": 1, "activation": "linear", "use_bias": true, "kernel_initializer": {"class_name": "RandomUniform", "config": {"minval": -0.05, "maxval": 0.05, "seed": null}}, "bias_initializer": {"class_name": "Zeros", "config": {}}, "kernel_regularizer": null, "bias_regularizer": null, "activity_regularizer": null, "kernel_constraint": null, "bias_constraint": null}, "name": "LFF_10", "inbound_nodes": [[["RDB_Concat_10_3", 0, 0, {}]]]}, {"class_name": "Add", "config": {"name": "LRL_10", "trainable": true, "dtype": "float32"}, "name": "LRL_10", "inbound_nodes": [[["LFF_10", 0, 0, {}], ["LRL_9", 0, 0, {}]]]}, {"class_name": "Concatenate", "config": {"name": "LRLs_Concat", "trainable": true, "dtype": "float32", "axis": 3}, "name": "LRLs_Concat", "inbound_nodes": [[["LRL_1", 0, 0, {}], ["LRL_2", 0, 0, {}], ["LRL_3", 0, 0, {}], ["LRL_4", 0, 0, {}], ["LRL_5", 0, 0, {}], ["LRL_6", 0, 0, {}], ["LRL_7", 0, 0, {}], ["LRL_8", 0, 0, {}], ["LRL_9", 0, 0, {}], ["LRL_10", 0, 0, {}]]]}, {"class_name": "Conv2D", "config": {"name": "GFF_1", "trainable": true, "dtype": "float32", "filters": 64, "kernel_size": [1, 1], "strides": [1, 1], "padding": "same", "data_format": "channels_last", "dilation_rate": [1, 1], "groups": 1, "activation": "linear", "use_bias": true, "kernel_initializer": {"class_name": "RandomUniform", "config": {"minval": -0.05, "maxval": 0.05, "seed": null}}, "bias_initializer": {"class_name": "Zeros", "config": {}}, "kernel_regularizer": null, "bias_regularizer": null, "activity_regularizer": null, "kernel_constraint": null, "bias_constraint": null}, "name": "GFF_1", "inbound_nodes": [[["LRLs_Concat", 0, 0, {}]]]}, {"class_name": "Conv2D", "config": {"name": "GFF_2", "trainable": true, "dtype": "float32", "filters": 64, "kernel_size": [3, 3], "strides": [1, 1], "padding": "same", "data_format": "channels_last", "dilation_rate": [1, 1], "groups": 1, "activation": "linear", "use_bias": true, "kernel_initializer": {"class_name": "RandomUniform", "config": {"minval": -0.05, "maxval": 0.05, "seed": null}}, "bias_initializer": {"class_name": "Zeros", "config": {}}, "kernel_regularizer": null, "bias_regularizer": null, "activity_regularizer": null, "kernel_constraint": null, "bias_constraint": null}, "name": "GFF_2", "inbound_nodes": [[["GFF_1", 0, 0, {}]]]}, {"class_name": "Add", "config": {"name": "FDF", "trainable": true, "dtype": "float32"}, "name": "FDF", "inbound_nodes": [[["GFF_2", 0, 0, {}], ["F_m1", 0, 0, {}]]]}, {"class_name": "Conv2D", "config": {"name": "UPN1", "trainable": true, "dtype": "float32", "filters": 64, "kernel_size": [5, 5], "strides": [1, 1], "padding": "same", "data_format": "channels_last", "dilation_rate": [1, 1], "groups": 1, "activation": "linear", "use_bias": true, "kernel_initializer": {"class_name": "RandomUniform", "config": {"minval": -0.05, "maxval": 0.05, "seed": null}}, "bias_initializer": {"class_name": "Zeros", "config": {}}, "kernel_regularizer": null, "bias_regularizer": null, "activity_regularizer": null, "kernel_constraint": null, "bias_constraint": null}, "name": "UPN1", "inbound_nodes": [[["FDF", 0, 0, {}]]]}, {"class_name": "Activation", "config": {"name": "UPN1_Relu", "trainable": true, "dtype": "float32", "activation": "relu"}, "name": "UPN1_Relu", "inbound_nodes": [[["UPN1", 0, 0, {}]]]}, {"class_name": "Conv2D", "config": {"name": "UPN2", "trainable": true, "dtype": "float32", "filters": 32, "kernel_size": [3, 3], "strides": [1, 1], "padding": "same", "data_format": "channels_last", "dilation_rate": [1, 1], "groups": 1, "activation": "linear", "use_bias": true, "kernel_initializer": {"class_name": "RandomUniform", "config": {"minval": -0.05, "maxval": 0.05, "seed": null}}, "bias_initializer": {"class_name": "Zeros", "config": {}}, "kernel_regularizer": null, "bias_regularizer": null, "activity_regularizer": null, "kernel_constraint": null, "bias_constraint": null}, "name": "UPN2", "inbound_nodes": [[["UPN1_Relu", 0, 0, {}]]]}, {"class_name": "Activation", "config": {"name": "UPN2_Relu", "trainable": true, "dtype": "float32", "activation": "relu"}, "name": "UPN2_Relu", "inbound_nodes": [[["UPN2", 0, 0, {}]]]}, {"class_name": "Conv2D", "config": {"name": "UPN3", "trainable": true, "dtype": "float32", "filters": 12, "kernel_size": [3, 3], "strides": [1, 1], "padding": "same", "data_format": "channels_last", "dilation_rate": [1, 1], "groups": 1, "activation": "linear", "use_bias": true, "kernel_initializer": {"class_name": "RandomUniform", "config": {"minval": -0.05, "maxval": 0.05, "seed": null}}, "bias_initializer": {"class_name": "Zeros", "config": {}}, "kernel_regularizer": null, "bias_regularizer": null, "activity_regularizer": null, "kernel_constraint": null, "bias_constraint": null}, "name": "UPN3", "inbound_nodes": [[["UPN2_Relu", 0, 0, {}]]]}, {"class_name": "UpSampling2D", "config": {"name": "UPsample", "trainable": true, "dtype": "float32", "size": [2, 2], "data_format": "channels_last", "interpolation": "nearest"}, "name": "UPsample", "inbound_nodes": [[["UPN3", 0, 0, {}]]]}, {"class_name": "Conv2D", "config": {"name": "SR", "trainable": true, "dtype": "float32", "filters": 3, "kernel_size": [3, 3], "strides": [1, 1], "padding": "same", "data_format": "channels_last", "dilation_rate": [1, 1], "groups": 1, "activation": "linear", "use_bias": true, "kernel_initializer": {"class_name": "RandomUniform", "config": {"minval": -0.05, "maxval": 0.05, "seed": null}}, "bias_initializer": {"class_name": "Zeros", "config": {}}, "kernel_regularizer": null, "bias_regularizer": null, "activity_regularizer": null, "kernel_constraint": null, "bias_constraint": null}, "name": "SR", "inbound_nodes": [[["UPsample", 0, 0, {}]]]}], "input_layers": [["LR", 0, 0]], "output_layers": [["SR", 0, 0]]}}}, "weightsManifest": [{"paths": ["group1-shard1of1.bin"], "weights": [{"name": "F_0/kernel", "shape": [3, 3, 64, 64], "dtype": "float32", "quantization": {"dtype": "uint8", "min": -0.09488794797775792, "scale": 0.000784197917171553, "original_dtype": "float32"}}, {"name": "F_0/bias", "shape": [64], "dtype": "float32", "quantization": {"dtype": "uint8", "min": -0.011110896573347203, "scale": 9.259080477789337e-05, "original_dtype": "float32"}}, {"name": "F_10_1/kernel", "shape": [3, 3, 64, 64], "dtype": "float32", "quantization": {"dtype": "uint8", "min": -0.11586360387942371, "scale": 0.0010163474024510852, "original_dtype": "float32"}}, {"name": "F_10_1/bias", "shape": [64], "dtype": "float32", "quantization": {"dtype": "uint8", "min": -0.05547370231326889, "scale": 0.0002982457113616607, "original_dtype": "float32"}}, {"name": "F_10_2/kernel", "shape": [3, 3, 128, 64], "dtype": "float32", "quantization": {"dtype": "uint8", "min": -0.13062292162109823, "scale": 0.0010366898541357002, "original_dtype": "float32"}}, {"name": "F_10_2/bias", "shape": [64], "dtype": "float32", "quantization": {"dtype": "uint8", "min": -0.03349827374605571, "scale": 0.00024998711750787845, "original_dtype": "float32"}}, {"name": "F_10_3/kernel", "shape": [3, 3, 192, 64], "dtype": "float32", "quantization": {"dtype": "uint8", "min": -0.14443126355900482, "scale": 0.0011742379151138604, "original_dtype": "float32"}}, {"name": "F_10_3/bias", "shape": [64], "dtype": "float32", "quantization": {"dtype": "uint8", "min": -0.02953476623138961, "scale": 0.00024012005066170413, "original_dtype": "float32"}}, {"name": "F_1_1/kernel", "shape": [3, 3, 64, 64], "dtype": "float32", "quantization": {"dtype": "uint8", "min": -0.11365675785962273, "scale": 0.0009020377607906566, "original_dtype": "float32"}}, {"name": "F_1_1/bias", "shape": [64], "dtype": "float32", "quantization": {"dtype": "uint8", "min": -0.01618164762416307, "scale": 0.00012741454822175644, "original_dtype": "float32"}}, {"name": "F_1_2/kernel", "shape": [3, 3, 128, 64], "dtype": "float32", "quantization": {"dtype": "uint8", "min": -0.14025387594512864, "scale": 0.0011043612279143988, "original_dtype": "float32"}}, {"name": "F_1_2/bias", "shape": [64], "dtype": "float32", "quantization": {"dtype": "uint8", "min": -0.018645740022846295, "scale": 0.00012771054810168696, "original_dtype": "float32"}}, {"name": "F_1_3/kernel", "shape": [3, 3, 192, 64], "dtype": "float32", "quantization": {"dtype": "uint8", "min": -0.15993050442022436, "scale": 0.0017770056046691595, "original_dtype": "float32"}}, {"name": "F_1_3/bias", "shape": [64], "dtype": "float32", "quantization": {"dtype": "uint8", "min": -0.016335219992142096, "scale": 0.0001338952458372303, "original_dtype": "float32"}}, {"name": "F_2_1/kernel", "shape": [3, 3, 64, 64], "dtype": "float32", "quantization": {"dtype": "uint8", "min": -0.11409327989699794, "scale": 0.0008514423872910294, "original_dtype": "float32"}}, {"name": "F_2_1/bias", "shape": [64], "dtype": "float32", "quantization": {"dtype": "uint8", "min": -0.021181607290225873, "scale": 0.00014121071526817248, "original_dtype": "float32"}}, {"name": "F_2_2/kernel", "shape": [3, 3, 128, 64], "dtype": "float32", "quantization": {"dtype": "uint8", "min": -0.14428185189471526, "scale": 0.0011098603991901174, "original_dtype": "float32"}}, {"name": "F_2_2/bias", "shape": [64], "dtype": "float32", "quantization": {"dtype": "uint8", "min": -0.02651454050313024, "scale": 0.0001464891740504433, "original_dtype": "float32"}}, {"name": "F_2_3/kernel", "shape": [3, 3, 192, 64], "dtype": "float32", "quantization": {"dtype": "uint8", "min": -0.13468678511825263, "scale": 0.00120256058141297, "original_dtype": "float32"}}, {"name": "F_2_3/bias", "shape": [64], "dtype": "float32", "quantization": {"dtype": "uint8", "min": -0.02807327781749122, "scale": 0.00015510098241707857, "original_dtype": "float32"}}, {"name": "F_3_1/kernel", "shape": [3, 3, 64, 64], "dtype": "float32", "quantization": {"dtype": "uint8", "min": -0.09811167068341199, "scale": 0.0007547051591031692, "original_dtype": "float32"}}, {"name": "F_3_1/bias", "shape": [64], "dtype": "float32", "quantization": {"dtype": "uint8", "min": -0.03208048779736547, "scale": 0.00017626641646904104, "original_dtype": "float32"}}, {"name": "F_3_2/kernel", "shape": [3, 3, 128, 64], "dtype": "float32", "quantization": {"dtype": "uint8", "min": -0.11863429873597389, "scale": 0.0010316025977041207, "original_dtype": "float32"}}, {"name": "F_3_2/bias", "shape": [64], "dtype": "float32", "quantization": {"dtype": "uint8", "min": -0.019865449068739133, "scale": 0.00013513910931115057, "original_dtype": "float32"}}, {"name": "F_3_3/kernel", "shape": [3, 3, 192, 64], "dtype": "float32", "quantization": {"dtype": "uint8", "min": -0.14864849109275668, "scale": 0.0011891879287420535, "original_dtype": "float32"}}, {"name": "F_3_3/bias", "shape": [64], "dtype": "float32", "quantization": {"dtype": "uint8", "min": -0.01718179465947198, "scale": 0.00012822234820501478, "original_dtype": "float32"}}, {"name": "F_4_1/kernel", "shape": [3, 3, 64, 64], "dtype": "float32", "quantization": {"dtype": "uint8", "min": -0.0987984865319495, "scale": 0.0007541869200912176, "original_dtype": "float32"}}, {"name": "F_4_1/bias", "shape": [64], "dtype": "float32", "quantization": {"dtype": "uint8", "min": -0.028607947949100945, "scale": 0.00018576589577338275, "original_dtype": "float32"}}, {"name": "F_4_2/kernel", "shape": [3, 3, 128, 64], "dtype": "float32", "quantization": {"dtype": "uint8", "min": -0.1135704659948162, "scale": 0.0009309054589739033, "original_dtype": "float32"}}, {"name": "F_4_2/bias", "shape": [64], "dtype": "float32", "quantization": {"dtype": "uint8", "min": -0.033844752142242356, "scale": 0.0002063704398917217, "original_dtype": "float32"}}, {"name": "F_4_3/kernel", "shape": [3, 3, 192, 64], "dtype": "float32", "quantization": {"dtype": "uint8", "min": -0.19990234737302742, "scale": 0.0014591412217009301, "original_dtype": "float32"}}, {"name": "F_4_3/bias", "shape": [64], "dtype": "float32", "quantization": {"dtype": "uint8", "min": -0.06146253994939958, "scale": 0.0002940791385138736, "original_dtype": "float32"}}, {"name": "F_5_1/kernel", "shape": [3, 3, 64, 64], "dtype": "float32", "quantization": {"dtype": "uint8", "min": -0.0970438306238137, "scale": 0.0007641246505812102, "original_dtype": "float32"}}, {"name": "F_5_1/bias", "shape": [64], "dtype": "float32", "quantization": {"dtype": "uint8", "min": -0.03182556567823185, "scale": 0.0001768086982123992, "original_dtype": "float32"}}, {"name": "F_5_2/kernel", "shape": [3, 3, 128, 64], "dtype": "float32", "quantization": {"dtype": "uint8", "min": -0.13286276109078352, "scale": 0.001006536068869572, "original_dtype": "float32"}}, {"name": "F_5_2/bias", "shape": [64], "dtype": "float32", "quantization": {"dtype": "uint8", "min": -0.01924246426890878, "scale": 0.00012659515966387356, "original_dtype": "float32"}}, {"name": "F_5_3/kernel", "shape": [3, 3, 192, 64], "dtype": "float32", "quantization": {"dtype": "uint8", "min": -0.145894114410176, "scale": 0.0013508714297238518, "original_dtype": "float32"}}, {"name": "F_5_3/bias", "shape": [64], "dtype": "float32", "quantization": {"dtype": "uint8", "min": -0.022082644569523194, "scale": 0.00016357514495943107, "original_dtype": "float32"}}, {"name": "F_6_1/kernel", "shape": [3, 3, 64, 64], "dtype": "float32", "quantization": {"dtype": "uint8", "min": -0.08985207332115547, "scale": 0.0007614582484843684, "original_dtype": "float32"}}, {"name": "F_6_1/bias", "shape": [64], "dtype": "float32", "quantization": {"dtype": "uint8", "min": -0.02528600900927011, "scale": 0.0001453218908578742, "original_dtype": "float32"}}, {"name": "F_6_2/kernel", "shape": [3, 3, 128, 64], "dtype": "float32", "quantization": {"dtype": "uint8", "min": -0.13841584149528952, "scale": 0.0010813737616819493, "original_dtype": "float32"}}, {"name": "F_6_2/bias", "shape": [64], "dtype": "float32", "quantization": {"dtype": "uint8", "min": -0.021715845788518588, "scale": 0.0001410119856397311, "original_dtype": "float32"}}, {"name": "F_6_3/kernel", "shape": [3, 3, 192, 64], "dtype": "float32", "quantization": {"dtype": "uint8", "min": -0.1697540363844703, "scale": 0.001266821167048286, "original_dtype": "float32"}}, {"name": "F_6_3/bias", "shape": [64], "dtype": "float32", "quantization": {"dtype": "uint8", "min": -0.02193091266295489, "scale": 0.00013968734180226045, "original_dtype": "float32"}}, {"name": "F_7_1/kernel", "shape": [3, 3, 64, 64], "dtype": "float32", "quantization": {"dtype": "uint8", "min": -0.12772006731407315, "scale": 0.0009122861951005225, "original_dtype": "float32"}}, {"name": "F_7_1/bias", "shape": [64], "dtype": "float32", "quantization": {"dtype": "uint8", "min": -0.027190990400884078, "scale": 0.00013394576552159645, "original_dtype": "float32"}}, {"name": "F_7_2/kernel", "shape": [3, 3, 128, 64], "dtype": "float32", "quantization": {"dtype": "uint8", "min": -0.13842006711398852, "scale": 0.0011162908638224882, "original_dtype": "float32"}}, {"name": "F_7_2/bias", "shape": [64], "dtype": "float32", "quantization": {"dtype": "uint8", "min": -0.03137050779426799, "scale": 0.00017824152155834086, "original_dtype": "float32"}}, {"name": "F_7_3/kernel", "shape": [3, 3, 192, 64], "dtype": "float32", "quantization": {"dtype": "uint8", "min": -0.18428276514305786, "scale": 0.00149823386295169, "original_dtype": "float32"}}, {"name": "F_7_3/bias", "shape": [64], "dtype": "float32", "quantization": {"dtype": "uint8", "min": -0.019018736949153976, "scale": 0.00022114810405992995, "original_dtype": "float32"}}, {"name": "F_8_1/kernel", "shape": [3, 3, 64, 64], "dtype": "float32", "quantization": {"dtype": "uint8", "min": -0.126789923508962, "scale": 0.0010654615420921177, "original_dtype": "float32"}}, {"name": "F_8_1/bias", "shape": [64], "dtype": "float32", "quantization": {"dtype": "uint8", "min": -0.028210647550283696, "scale": 0.00014769972539415547, "original_dtype": "float32"}}, {"name": "F_8_2/kernel", "shape": [3, 3, 128, 64], "dtype": "float32", "quantization": {"dtype": "uint8", "min": -0.16539899268571068, "scale": 0.0013447072576074038, "original_dtype": "float32"}}, {"name": "F_8_2/bias", "shape": [64], "dtype": "float32", "quantization": {"dtype": "uint8", "min": -0.039566403528785, "scale": 0.0002050072721698705, "original_dtype": "float32"}}, {"name": "F_8_3/kernel", "shape": [3, 3, 192, 64], "dtype": "float32", "quantization": {"dtype": "uint8", "min": -0.15639709935468787, "scale": 0.0015958887689253864, "original_dtype": "float32"}}, {"name": "F_8_3/bias", "shape": [64], "dtype": "float32", "quantization": {"dtype": "uint8", "min": -0.02605471751269172, "scale": 0.00019590013167437384, "original_dtype": "float32"}}, {"name": "F_9_1/kernel", "shape": [3, 3, 64, 64], "dtype": "float32", "quantization": {"dtype": "uint8", "min": -0.10446680965376835, "scale": 0.0008035908434905258, "original_dtype": "float32"}}, {"name": "F_9_1/bias", "shape": [64], "dtype": "float32", "quantization": {"dtype": "uint8", "min": -0.026256251554278767, "scale": 0.00016009909484316322, "original_dtype": "float32"}}, {"name": "F_9_2/kernel", "shape": [3, 3, 128, 64], "dtype": "float32", "quantization": {"dtype": "uint8", "min": -0.159537287903767, "scale": 0.0011905767754012463, "original_dtype": "float32"}}, {"name": "F_9_2/bias", "shape": [64], "dtype": "float32", "quantization": {"dtype": "uint8", "min": -0.024749131844032046, "scale": 0.00018065059740169376, "original_dtype": "float32"}}, {"name": "F_9_3/kernel", "shape": [3, 3, 192, 64], "dtype": "float32", "quantization": {"dtype": "uint8", "min": -0.16333419879277547, "scale": 0.001408053437868754, "original_dtype": "float32"}}, {"name": "F_9_3/bias", "shape": [64], "dtype": "float32", "quantization": {"dtype": "uint8", "min": -0.020121625525986446, "scale": 0.00018127590563951754, "original_dtype": "float32"}}, {"name": "F_m1/kernel", "shape": [3, 3, 3, 64], "dtype": "float32", "quantization": {"dtype": "uint8", "min": -0.08280737806184618, "scale": 0.0005957365328190373, "original_dtype": "float32"}}, {"name": "F_m1/bias", "shape": [64], "dtype": "float32", "quantization": {"dtype": "uint8", "min": -0.02120904750829818, "scale": 0.00016700037408108804, "original_dtype": "float32"}}, {"name": "GFF_1/kernel", "shape": [1, 1, 640, 64], "dtype": "float32", "quantization": {"dtype": "uint8", "min": -0.0820789784193039, "scale": 0.0006673087676366171, "original_dtype": "float32"}}, {"name": "GFF_1/bias", "shape": [64], "dtype": "float32", "quantization": {"dtype": "uint8", "min": -0.007550412975251675, "scale": 8.779549971222877e-05, "original_dtype": "float32"}}, {"name": "GFF_2/kernel", "shape": [3, 3, 64, 64], "dtype": "float32", "quantization": {"dtype": "uint8", "min": -0.08832623941056869, "scale": 0.0007010019000838784, "original_dtype": "float32"}}, {"name": "GFF_2/bias", "shape": [64], "dtype": "float32", "quantization": {"dtype": "uint8", "min": -0.027649107772637814, "scale": 0.0001831066739909789, "original_dtype": "float32"}}, {"name": "LFF_1/kernel", "shape": [1, 1, 256, 64], "dtype": "float32", "quantization": {"dtype": "uint8", "min": -0.1309029642273398, "scale": 0.0012120644835864796, "original_dtype": "float32"}}, {"name": "LFF_1/bias", "shape": [64], "dtype": "float32", "quantization": {"dtype": "uint8", "min": -0.008571267964354918, "scale": 8.010530807808334e-05, "original_dtype": "float32"}}, {"name": "LFF_10/kernel", "shape": [1, 1, 256, 64], "dtype": "float32", "quantization": {"dtype": "uint8", "min": -0.13242036019470177, "scale": 0.0009260165048580543, "original_dtype": "float32"}}, {"name": "LFF_10/bias", "shape": [64], "dtype": "float32", "quantization": {"dtype": "uint8", "min": -0.007101548726067824, "scale": 6.57550807969243e-05, "original_dtype": "float32"}}, {"name": "LFF_2/kernel", "shape": [1, 1, 256, 64], "dtype": "float32", "quantization": {"dtype": "uint8", "min": -0.09947948666179882, "scale": 0.0007479660651263069, "original_dtype": "float32"}}, {"name": "LFF_2/bias", "shape": [64], "dtype": "float32", "quantization": {"dtype": "uint8", "min": -0.007727192090276409, "scale": 6.132692135140007e-05, "original_dtype": "float32"}}, {"name": "LFF_3/kernel", "shape": [1, 1, 256, 64], "dtype": "float32", "quantization": {"dtype": "uint8", "min": -0.12310552480174046, "scale": 0.0010174010314193426, "original_dtype": "float32"}}, {"name": "LFF_3/bias", "shape": [64], "dtype": "float32", "quantization": {"dtype": "uint8", "min": -0.007156507632530788, "scale": 6.815721554791226e-05, "original_dtype": "float32"}}, {"name": "LFF_4/kernel", "shape": [1, 1, 256, 64], "dtype": "float32", "quantization": {"dtype": "uint8", "min": -0.14461131376378678, "scale": 0.0011297758887795842, "original_dtype": "float32"}}, {"name": "LFF_4/bias", "shape": [64], "dtype": "float32", "quantization": {"dtype": "uint8", "min": -0.007432275751203883, "scale": 6.298538772206681e-05, "original_dtype": "float32"}}, {"name": "LFF_5/kernel", "shape": [1, 1, 256, 64], "dtype": "float32", "quantization": {"dtype": "uint8", "min": -0.11828600629871966, "scale": 0.0010467788168028289, "original_dtype": "float32"}}, {"name": "LFF_5/bias", "shape": [64], "dtype": "float32", "quantization": {"dtype": "uint8", "min": -0.005292782213027571, "scale": 4.811620193661428e-05, "original_dtype": "float32"}}, {"name": "LFF_6/kernel", "shape": [1, 1, 256, 64], "dtype": "float32", "quantization": {"dtype": "uint8", "min": -0.11025507762735966, "scale": 0.0009587398054553013, "original_dtype": "float32"}}, {"name": "LFF_6/bias", "shape": [64], "dtype": "float32", "quantization": {"dtype": "uint8", "min": -0.006128885859952253, "scale": 5.674894314770605e-05, "original_dtype": "float32"}}, {"name": "LFF_7/kernel", "shape": [1, 1, 256, 64], "dtype": "float32", "quantization": {"dtype": "uint8", "min": -0.12721146999620922, "scale": 0.0011888922429552265, "original_dtype": "float32"}}, {"name": "LFF_7/bias", "shape": [64], "dtype": "float32", "quantization": {"dtype": "uint8", "min": -0.00865063739611822, "scale": 5.767091597412147e-05, "original_dtype": "float32"}}, {"name": "LFF_8/kernel", "shape": [1, 1, 256, 64], "dtype": "float32", "quantization": {"dtype": "uint8", "min": -0.10581704790101332, "scale": 0.0010476935435743892, "original_dtype": "float32"}}, {"name": "LFF_8/bias", "shape": [64], "dtype": "float32", "quantization": {"dtype": "uint8", "min": -0.007335538369621717, "scale": 6.855643336095063e-05, "original_dtype": "float32"}}, {"name": "LFF_9/kernel", "shape": [1, 1, 256, 64], "dtype": "float32", "quantization": {"dtype": "uint8", "min": -0.15958406685614118, "scale": 0.0011648472033294977, "original_dtype": "float32"}}, {"name": "LFF_9/bias", "shape": [64], "dtype": "float32", "quantization": {"dtype": "uint8", "min": -0.010064200205984069, "scale": 6.369746965812702e-05, "original_dtype": "float32"}}, {"name": "SR/kernel", "shape": [3, 3, 12, 3], "dtype": "float32", "quantization": {"dtype": "uint8", "min": -0.06992661076433519, "scale": 0.0006080574849072625, "original_dtype": "float32"}}, {"name": "SR/bias", "shape": [3], "dtype": "float32", "quantization": {"dtype": "uint8", "min": 0.015484901145100594, "scale": 8.554888122222003e-06, "original_dtype": "float32"}}, {"name": "UPN1/kernel", "shape": [5, 5, 64, 64], "dtype": "float32", "quantization": {"dtype": "uint8", "min": -0.2021671645781573, "scale": 0.0013659943552578196, "original_dtype": "float32"}}, {"name": "UPN1/bias", "shape": [64], "dtype": "float32", "quantization": {"dtype": "uint8", "min": -0.011967526197287382, "scale": 0.000163938715031334, "original_dtype": "float32"}}, {"name": "UPN2/kernel", "shape": [3, 3, 64, 32], "dtype": "float32", "quantization": {"dtype": "uint8", "min": -0.15980435983807434, "scale": 0.001192569849537868, "original_dtype": "float32"}}, {"name": "UPN2/bias", "shape": [32], "dtype": "float32", "quantization": {"dtype": "uint8", "min": -0.00800058745286044, "scale": 0.00012904173311065225, "original_dtype": "float32"}}, {"name": "UPN3/kernel", "shape": [3, 3, 32, 12], "dtype": "float32", "quantization": {"dtype": "uint8", "min": -0.09687734684523414, "scale": 0.0008209944647901198, "original_dtype": "float32"}}, {"name": "UPN3/bias", "shape": [12], "dtype": "float32", "quantization": {"dtype": "uint8", "min": -0.024422999434903555, "scale": 0.00025708420457793216, "original_dtype": "float32"}}]}]}